{"format": "graph-model", "generatedBy": "2.3.1", "convertedBy": "TensorFlow.js Converter v2.7.0", "userDefinedMetadata": {"signature": {"inputs": {"input_0:0": {"name": "input_0:0", "dtype": "DT_FLOAT", "tensorShape": {"dim": [{"size": "-1"}, {"size": "-1"}, {"size": "-1"}, {"size": "3"}]}}}, "outputs": {"Identity:0": {"name": "Identity:0", "dtype": "DT_FLOAT", "tensorShape": {"dim": [{"size": "-1"}, {"size": "-1"}, {"size": "-1"}, {"size": "3"}]}}}}}, "modelTopology": {"node": [{"name": "input_0", "op": "Placeholder", "attr": {"dtype": {"type": "DT_FLOAT"}, "shape": {"shape": {"dim": [{"size": "-1"}, {"size": "-1"}, {"size": "-1"}, {"size": "3"}]}}}}, {"name": "StatefulPartitionedCall/StatefulPartitionedCall/model/rrdb_net/conv2d_transpose_1/strided_slice/stack", "op": "Const", "input": ["^input_0"], "attr": {"dtype": {"type": "DT_INT32"}, "value": {"tensor": {"dtype": "DT_INT32", "tensorShape": {"dim": [{"size": "1"}]}}}}}, {"name": "StatefulPartitionedCall/StatefulPartitionedCall/model/rrdb_net/conv2d_transpose_1/strided_slice/stack_1", "op": "Const", "input": ["^input_0"], "attr": {"value": {"tensor": {"dtype": "DT_INT32", "tensorShape": {"dim": [{"size": "1"}]}}}, "dtype": {"type": "DT_INT32"}}}, {"name": "StatefulPartitionedCall/StatefulPartitionedCall/model/rrdb_net/conv2d_transpose_1/strided_slice/stack_2", "op": "Const", "input": ["^input_0"], "attr": {"value": {"tensor": {"dtype": "DT_INT32", "tensorShape": {"dim": [{"size": "1"}]}}}, "dtype": {"type": "DT_INT32"}}}, {"name": "StatefulPartitionedCall/StatefulPartitionedCall/model/rrdb_net/conv2d_transpose_1/strided_slice_1/stack", "op": "Const", "input": ["^input_0"], "attr": {"value": {"tensor": {"dtype": "DT_INT32", "tensorShape": {"dim": [{"size": "1"}]}}}, "dtype": {"type": "DT_INT32"}}}, {"name": "StatefulPartitionedCall/StatefulPartitionedCall/model/rrdb_net/conv2d_transpose_1/strided_slice_1/stack_1", "op": "Const", "input": ["^input_0"], "attr": {"value": {"tensor": {"dtype": "DT_INT32", "tensorShape": {"dim": [{"size": "1"}]}}}, "dtype": {"type": "DT_INT32"}}}, {"name": "StatefulPartitionedCall/StatefulPartitionedCall/model/rrdb_net/conv2d_transpose_1/strided_slice_1/stack_2", "op": "Const", "input": ["^input_0"], "attr": {"value": {"tensor": {"dtype": "DT_INT32", "tensorShape": {"dim": [{"size": "1"}]}}}, "dtype": {"type": "DT_INT32"}}}, {"name": "StatefulPartitionedCall/StatefulPartitionedCall/model/rrdb_net/conv2d_transpose_1/mul/y", "op": "Const", "input": ["^input_0"], "attr": {"value": {"tensor": {"dtype": "DT_INT32", "tensorShape": {}}}, "dtype": {"type": "DT_INT32"}}}, {"name": "StatefulPartitionedCall/StatefulPartitionedCall/model/rrdb_net/conv2d_transpose_1/strided_slice_2/stack", "op": "Const", "input": ["^input_0"], "attr": {"value": {"tensor": {"dtype": "DT_INT32", "tensorShape": {"dim": [{"size": "1"}]}}}, "dtype": {"type": "DT_INT32"}}}, {"name": "StatefulPartitionedCall/StatefulPartitionedCall/model/rrdb_net/conv2d_transpose_1/strided_slice_2/stack_1", "op": "Const", "input": ["^input_0"], "attr": {"value": {"tensor": {"dtype": "DT_INT32", "tensorShape": {"dim": [{"size": "1"}]}}}, "dtype": {"type": "DT_INT32"}}}, {"name": "StatefulPartitionedCall/StatefulPartitionedCall/model/rrdb_net/conv2d_transpose_1/strided_slice_2/stack_2", "op": "Const", "input": ["^input_0"], "attr": {"value": {"tensor": {"dtype": "DT_INT32", "tensorShape": {"dim": [{"size": "1"}]}}}, "dtype": {"type": "DT_INT32"}}}, {"name": "StatefulPartitionedCall/StatefulPartitionedCall/model/rrdb_net/conv2d_transpose_1/mul_1/y", "op": "Const", "input": ["^input_0"], "attr": {"value": {"tensor": {"dtype": "DT_INT32", "tensorShape": {}}}, "dtype": {"type": "DT_INT32"}}}, {"name": "StatefulPartitionedCall/StatefulPartitionedCall/model/rrdb_net/conv2d_transpose_1/stack/3", "op": "Const", "input": ["^input_0"], "attr": {"dtype": {"type": "DT_INT32"}, "value": {"tensor": {"dtype": "DT_INT32", "tensorShape": {}}}}}, {"name": "StatefulPartitionedCall/StatefulPartitionedCall/model/rrdb_net/conv2d_transpose_1/conv2d_transpose/ReadVariableOp", "op": "Const", "input": ["^input_0"], "attr": {"dtype": {"type": "DT_FLOAT"}, "value": {"tensor": {"dtype": "DT_FLOAT", "tensorShape": {"dim": [{"size": "3"}, {"size": "3"}, {"size": "32"}, {"size": "32"}]}}}}}, {"name": "StatefulPartitionedCall/StatefulPartitionedCall/model/rrdb_net/conv2d_transpose/strided_slice/stack", "op": "Const", "input": ["^input_0"], "attr": {"dtype": {"type": "DT_INT32"}, "value": {"tensor": {"dtype": "DT_INT32", "tensorShape": {"dim": [{"size": "1"}]}}}}}, {"name": "StatefulPartitionedCall/StatefulPartitionedCall/model/rrdb_net/conv2d_transpose/strided_slice/stack_1", "op": "Const", "input": ["^input_0"], "attr": {"dtype": {"type": "DT_INT32"}, "value": {"tensor": {"dtype": "DT_INT32", "tensorShape": {"dim": [{"size": "1"}]}}}}}, {"name": "StatefulPartitionedCall/StatefulPartitionedCall/model/rrdb_net/conv2d_transpose/strided_slice/stack_2", "op": "Const", "input": ["^input_0"], "attr": {"dtype": {"type": "DT_INT32"}, "value": {"tensor": {"dtype": "DT_INT32", "tensorShape": {"dim": [{"size": "1"}]}}}}}, {"name": "StatefulPartitionedCall/StatefulPartitionedCall/model/rrdb_net/conv2d_transpose/strided_slice_1/stack", "op": "Const", "input": ["^input_0"], "attr": {"dtype": {"type": "DT_INT32"}, "value": {"tensor": {"dtype": "DT_INT32", "tensorShape": {"dim": [{"size": "1"}]}}}}}, {"name": "StatefulPartitionedCall/StatefulPartitionedCall/model/rrdb_net/conv2d_transpose/strided_slice_1/stack_1", "op": "Const", "input": ["^input_0"], "attr": {"value": {"tensor": {"dtype": "DT_INT32", "tensorShape": {"dim": [{"size": "1"}]}}}, "dtype": {"type": "DT_INT32"}}}, {"name": "StatefulPartitionedCall/StatefulPartitionedCall/model/rrdb_net/conv2d_transpose/strided_slice_1/stack_2", "op": "Const", "input": ["^input_0"], "attr": {"dtype": {"type": "DT_INT32"}, "value": {"tensor": {"dtype": "DT_INT32", "tensorShape": {"dim": [{"size": "1"}]}}}}}, {"name": "StatefulPartitionedCall/StatefulPartitionedCall/model/rrdb_net/conv2d_transpose/mul/y", "op": "Const", "input": ["^input_0"], "attr": {"value": {"tensor": {"dtype": "DT_INT32", "tensorShape": {}}}, "dtype": {"type": "DT_INT32"}}}, {"name": "StatefulPartitionedCall/StatefulPartitionedCall/model/rrdb_net/conv2d_transpose/strided_slice_2/stack", "op": "Const", "input": ["^input_0"], "attr": {"value": {"tensor": {"dtype": "DT_INT32", "tensorShape": {"dim": [{"size": "1"}]}}}, "dtype": {"type": "DT_INT32"}}}, {"name": "StatefulPartitionedCall/StatefulPartitionedCall/model/rrdb_net/conv2d_transpose/strided_slice_2/stack_1", "op": "Const", "input": ["^input_0"], "attr": {"dtype": {"type": "DT_INT32"}, "value": {"tensor": {"dtype": "DT_INT32", "tensorShape": {"dim": [{"size": "1"}]}}}}}, {"name": "StatefulPartitionedCall/StatefulPartitionedCall/model/rrdb_net/conv2d_transpose/strided_slice_2/stack_2", "op": "Const", "input": ["^input_0"], "attr": {"dtype": {"type": "DT_INT32"}, "value": {"tensor": {"dtype": "DT_INT32", "tensorShape": {"dim": [{"size": "1"}]}}}}}, {"name": "StatefulPartitionedCall/StatefulPartitionedCall/model/rrdb_net/conv2d_transpose/mul_1/y", "op": "Const", "input": ["^input_0"], "attr": {"dtype": {"type": "DT_INT32"}, "value": {"tensor": {"dtype": "DT_INT32", "tensorShape": {}}}}}, {"name": "StatefulPartitionedCall/StatefulPartitionedCall/model/rrdb_net/conv2d_transpose/stack/3", "op": "Const", "input": ["^input_0"], "attr": {"value": {"tensor": {"dtype": "DT_INT32", "tensorShape": {}}}, "dtype": {"type": "DT_INT32"}}}, {"name": "StatefulPartitionedCall/StatefulPartitionedCall/model/rrdb_net/conv2d_transpose/conv2d_transpose/ReadVariableOp", "op": "Const", "input": ["^input_0"], "attr": {"value": {"tensor": {"dtype": "DT_FLOAT", "tensorShape": {"dim": [{"size": "3"}, {"size": "3"}, {"size": "32"}, {"size": "32"}]}}}, "dtype": {"type": "DT_FLOAT"}}}, {"name": "StatefulPartitionedCall/StatefulPartitionedCall/model/rrdb_net/sequential/rrdb_10/mul/x", "op": "Const", "input": ["^input_0"], "attr": {"value": {"tensor": {"dtype": "DT_FLOAT", "tensorShape": {}}}, "dtype": {"type": "DT_FLOAT"}}}, {"name": "StatefulPartitionedCall/StatefulPartitionedCall/model/rrdb_net/sequential/rrdb_10/rdb_32/mul/x", "op": "Const", "input": ["^input_0"], "attr": {"dtype": {"type": "DT_FLOAT"}, "value": {"tensor": {"dtype": "DT_FLOAT", "tensorShape": {}}}}}, {"name": "StatefulPartitionedCall/StatefulPartitionedCall/model/rrdb_net/sequential/rrdb_10/rdb_31/mul/x", "op": "Const", "input": ["^input_0"], "attr": {"value": {"tensor": {"dtype": "DT_FLOAT", "tensorShape": {}}}, "dtype": {"type": "DT_FLOAT"}}}, {"name": "StatefulPartitionedCall/StatefulPartitionedCall/model/rrdb_net/sequential/rrdb_10/rdb_30/mul/x", "op": "Const", "input": ["^input_0"], "attr": {"dtype": {"type": "DT_FLOAT"}, "value": {"tensor": {"dtype": "DT_FLOAT", "tensorShape": {}}}}}, {"name": "StatefulPartitionedCall/StatefulPartitionedCall/model/rrdb_net/sequential/rrdb_9/mul/x", "op": "Const", "input": ["^input_0"], "attr": {"value": {"tensor": {"dtype": "DT_FLOAT", "tensorShape": {}}}, "dtype": {"type": "DT_FLOAT"}}}, {"name": "StatefulPartitionedCall/StatefulPartitionedCall/model/rrdb_net/sequential/rrdb_9/rdb_29/mul/x", "op": "Const", "input": ["^input_0"], "attr": {"value": {"tensor": {"dtype": "DT_FLOAT", "tensorShape": {}}}, "dtype": {"type": "DT_FLOAT"}}}, {"name": "StatefulPartitionedCall/StatefulPartitionedCall/model/rrdb_net/sequential/rrdb_9/rdb_28/mul/x", "op": "Const", "input": ["^input_0"], "attr": {"dtype": {"type": "DT_FLOAT"}, "value": {"tensor": {"dtype": "DT_FLOAT", "tensorShape": {}}}}}, {"name": "StatefulPartitionedCall/StatefulPartitionedCall/model/rrdb_net/sequential/rrdb_9/rdb_27/mul/x", "op": "Const", "input": ["^input_0"], "attr": {"dtype": {"type": "DT_FLOAT"}, "value": {"tensor": {"dtype": "DT_FLOAT", "tensorShape": {}}}}}, {"name": "StatefulPartitionedCall/StatefulPartitionedCall/model/rrdb_net/sequential/rrdb_8/mul/x", "op": "Const", "input": ["^input_0"], "attr": {"dtype": {"type": "DT_FLOAT"}, "value": {"tensor": {"dtype": "DT_FLOAT", "tensorShape": {}}}}}, {"name": "StatefulPartitionedCall/StatefulPartitionedCall/model/rrdb_net/sequential/rrdb_8/rdb_26/mul/x", "op": "Const", "input": ["^input_0"], "attr": {"value": {"tensor": {"dtype": "DT_FLOAT", "tensorShape": {}}}, "dtype": {"type": "DT_FLOAT"}}}, {"name": "StatefulPartitionedCall/StatefulPartitionedCall/model/rrdb_net/sequential/rrdb_8/rdb_25/mul/x", "op": "Const", "input": ["^input_0"], "attr": {"dtype": {"type": "DT_FLOAT"}, "value": {"tensor": {"dtype": "DT_FLOAT", "tensorShape": {}}}}}, {"name": "StatefulPartitionedCall/StatefulPartitionedCall/model/rrdb_net/sequential/rrdb_8/rdb_24/mul/x", "op": "Const", "input": ["^input_0"], "attr": {"value": {"tensor": {"dtype": "DT_FLOAT", "tensorShape": {}}}, "dtype": {"type": "DT_FLOAT"}}}, {"name": "StatefulPartitionedCall/StatefulPartitionedCall/model/rrdb_net/sequential/rrdb_7/mul/x", "op": "Const", "input": ["^input_0"], "attr": {"dtype": {"type": "DT_FLOAT"}, "value": {"tensor": {"dtype": "DT_FLOAT", "tensorShape": {}}}}}, {"name": "StatefulPartitionedCall/StatefulPartitionedCall/model/rrdb_net/sequential/rrdb_7/rdb_23/mul/x", "op": "Const", "input": ["^input_0"], "attr": {"dtype": {"type": "DT_FLOAT"}, "value": {"tensor": {"dtype": "DT_FLOAT", "tensorShape": {}}}}}, {"name": "StatefulPartitionedCall/StatefulPartitionedCall/model/rrdb_net/sequential/rrdb_7/rdb_22/mul/x", "op": "Const", "input": ["^input_0"], "attr": {"value": {"tensor": {"dtype": "DT_FLOAT", "tensorShape": {}}}, "dtype": {"type": "DT_FLOAT"}}}, {"name": "StatefulPartitionedCall/StatefulPartitionedCall/model/rrdb_net/sequential/rrdb_7/rdb_21/mul/x", "op": "Const", "input": ["^input_0"], "attr": {"dtype": {"type": "DT_FLOAT"}, "value": {"tensor": {"dtype": "DT_FLOAT", "tensorShape": {}}}}}, {"name": "StatefulPartitionedCall/StatefulPartitionedCall/model/rrdb_net/sequential/rrdb_6/mul/x", "op": "Const", "input": ["^input_0"], "attr": {"value": {"tensor": {"dtype": "DT_FLOAT", "tensorShape": {}}}, "dtype": {"type": "DT_FLOAT"}}}, {"name": "StatefulPartitionedCall/StatefulPartitionedCall/model/rrdb_net/sequential/rrdb_6/rdb_20/mul/x", "op": "Const", "input": ["^input_0"], "attr": {"dtype": {"type": "DT_FLOAT"}, "value": {"tensor": {"dtype": "DT_FLOAT", "tensorShape": {}}}}}, {"name": "StatefulPartitionedCall/StatefulPartitionedCall/model/rrdb_net/sequential/rrdb_6/rdb_19/mul/x", "op": "Const", "input": ["^input_0"], "attr": {"dtype": {"type": "DT_FLOAT"}, "value": {"tensor": {"dtype": "DT_FLOAT", "tensorShape": {}}}}}, {"name": "StatefulPartitionedCall/StatefulPartitionedCall/model/rrdb_net/sequential/rrdb_6/rdb_18/mul/x", "op": "Const", "input": ["^input_0"], "attr": {"dtype": {"type": "DT_FLOAT"}, "value": {"tensor": {"dtype": "DT_FLOAT", "tensorShape": {}}}}}, {"name": "StatefulPartitionedCall/StatefulPartitionedCall/model/rrdb_net/sequential/rrdb_5/mul/x", "op": "Const", "input": ["^input_0"], "attr": {"value": {"tensor": {"dtype": "DT_FLOAT", "tensorShape": {}}}, "dtype": {"type": "DT_FLOAT"}}}, {"name": "StatefulPartitionedCall/StatefulPartitionedCall/model/rrdb_net/sequential/rrdb_5/rdb_17/mul/x", "op": "Const", "input": ["^input_0"], "attr": {"dtype": {"type": "DT_FLOAT"}, "value": {"tensor": {"dtype": "DT_FLOAT", "tensorShape": {}}}}}, {"name": "StatefulPartitionedCall/StatefulPartitionedCall/model/rrdb_net/sequential/rrdb_5/rdb_16/mul/x", "op": "Const", "input": ["^input_0"], "attr": {"dtype": {"type": "DT_FLOAT"}, "value": {"tensor": {"dtype": "DT_FLOAT", "tensorShape": {}}}}}, {"name": "StatefulPartitionedCall/StatefulPartitionedCall/model/rrdb_net/sequential/rrdb_5/rdb_15/mul/x", "op": "Const", "input": ["^input_0"], "attr": {"dtype": {"type": "DT_FLOAT"}, "value": {"tensor": {"dtype": "DT_FLOAT", "tensorShape": {}}}}}, {"name": "StatefulPartitionedCall/StatefulPartitionedCall/model/rrdb_net/sequential/rrdb_4/mul/x", "op": "Const", "input": ["^input_0"], "attr": {"value": {"tensor": {"dtype": "DT_FLOAT", "tensorShape": {}}}, "dtype": {"type": "DT_FLOAT"}}}, {"name": "StatefulPartitionedCall/StatefulPartitionedCall/model/rrdb_net/sequential/rrdb_4/rdb_14/mul/x", "op": "Const", "input": ["^input_0"], "attr": {"dtype": {"type": "DT_FLOAT"}, "value": {"tensor": {"dtype": "DT_FLOAT", "tensorShape": {}}}}}, {"name": "StatefulPartitionedCall/StatefulPartitionedCall/model/rrdb_net/sequential/rrdb_4/rdb_13/mul/x", "op": "Const", "input": ["^input_0"], "attr": {"dtype": {"type": "DT_FLOAT"}, "value": {"tensor": {"dtype": "DT_FLOAT", "tensorShape": {}}}}}, {"name": "StatefulPartitionedCall/StatefulPartitionedCall/model/rrdb_net/sequential/rrdb_4/rdb_12/mul/x", "op": "Const", "input": ["^input_0"], "attr": {"dtype": {"type": "DT_FLOAT"}, "value": {"tensor": {"dtype": "DT_FLOAT", "tensorShape": {}}}}}, {"name": "StatefulPartitionedCall/StatefulPartitionedCall/model/rrdb_net/sequential/rrdb_3/mul/x", "op": "Const", "input": ["^input_0"], "attr": {"dtype": {"type": "DT_FLOAT"}, "value": {"tensor": {"dtype": "DT_FLOAT", "tensorShape": {}}}}}, {"name": "StatefulPartitionedCall/StatefulPartitionedCall/model/rrdb_net/sequential/rrdb_3/rdb_11/mul/x", "op": "Const", "input": ["^input_0"], "attr": {"value": {"tensor": {"dtype": "DT_FLOAT", "tensorShape": {}}}, "dtype": {"type": "DT_FLOAT"}}}, {"name": "StatefulPartitionedCall/StatefulPartitionedCall/model/rrdb_net/sequential/rrdb_3/rdb_10/mul/x", "op": "Const", "input": ["^input_0"], "attr": {"dtype": {"type": "DT_FLOAT"}, "value": {"tensor": {"dtype": "DT_FLOAT", "tensorShape": {}}}}}, {"name": "StatefulPartitionedCall/StatefulPartitionedCall/model/rrdb_net/sequential/rrdb_3/rdb_9/mul/x", "op": "Const", "input": ["^input_0"], "attr": {"value": {"tensor": {"dtype": "DT_FLOAT", "tensorShape": {}}}, "dtype": {"type": "DT_FLOAT"}}}, {"name": "StatefulPartitionedCall/StatefulPartitionedCall/model/rrdb_net/sequential/rrdb_2/mul/x", "op": "Const", "input": ["^input_0"], "attr": {"value": {"tensor": {"dtype": "DT_FLOAT", "tensorShape": {}}}, "dtype": {"type": "DT_FLOAT"}}}, {"name": "StatefulPartitionedCall/StatefulPartitionedCall/model/rrdb_net/sequential/rrdb_2/rdb_8/mul/x", "op": "Const", "input": ["^input_0"], "attr": {"dtype": {"type": "DT_FLOAT"}, "value": {"tensor": {"dtype": "DT_FLOAT", "tensorShape": {}}}}}, {"name": "StatefulPartitionedCall/StatefulPartitionedCall/model/rrdb_net/sequential/rrdb_2/rdb_7/mul/x", "op": "Const", "input": ["^input_0"], "attr": {"dtype": {"type": "DT_FLOAT"}, "value": {"tensor": {"dtype": "DT_FLOAT", "tensorShape": {}}}}}, {"name": "StatefulPartitionedCall/StatefulPartitionedCall/model/rrdb_net/sequential/rrdb_2/rdb_6/mul/x", "op": "Const", "input": ["^input_0"], "attr": {"dtype": {"type": "DT_FLOAT"}, "value": {"tensor": {"dtype": "DT_FLOAT", "tensorShape": {}}}}}, {"name": "StatefulPartitionedCall/StatefulPartitionedCall/model/rrdb_net/sequential/rrdb_1/mul/x", "op": "Const", "input": ["^input_0"], "attr": {"value": {"tensor": {"dtype": "DT_FLOAT", "tensorShape": {}}}, "dtype": {"type": "DT_FLOAT"}}}, {"name": "StatefulPartitionedCall/StatefulPartitionedCall/model/rrdb_net/sequential/rrdb_1/rdb_5/mul/x", "op": "Const", "input": ["^input_0"], "attr": {"value": {"tensor": {"dtype": "DT_FLOAT", "tensorShape": {}}}, "dtype": {"type": "DT_FLOAT"}}}, {"name": "StatefulPartitionedCall/StatefulPartitionedCall/model/rrdb_net/sequential/rrdb_1/rdb_4/mul/x", "op": "Const", "input": ["^input_0"], "attr": {"dtype": {"type": "DT_FLOAT"}, "value": {"tensor": {"dtype": "DT_FLOAT", "tensorShape": {}}}}}, {"name": "StatefulPartitionedCall/StatefulPartitionedCall/model/rrdb_net/sequential/rrdb_1/rdb_3/mul/x", "op": "Const", "input": ["^input_0"], "attr": {"value": {"tensor": {"dtype": "DT_FLOAT", "tensorShape": {}}}, "dtype": {"type": "DT_FLOAT"}}}, {"name": "StatefulPartitionedCall/StatefulPartitionedCall/model/rrdb_net/sequential/rrdb/mul/x", "op": "Const", "input": ["^input_0"], "attr": {"dtype": {"type": "DT_FLOAT"}, "value": {"tensor": {"dtype": "DT_FLOAT", "tensorShape": {}}}}}, {"name": "StatefulPartitionedCall/StatefulPartitionedCall/model/rrdb_net/sequential/rrdb/rdb_2/mul/x", "op": "Const", "input": ["^input_0"], "attr": {"dtype": {"type": "DT_FLOAT"}, "value": {"tensor": {"dtype": "DT_FLOAT", "tensorShape": {}}}}}, {"name": "StatefulPartitionedCall/StatefulPartitionedCall/model/rrdb_net/sequential/rrdb/rdb_1/mul/x", "op": "Const", "input": ["^input_0"], "attr": {"value": {"tensor": {"dtype": "DT_FLOAT", "tensorShape": {}}}, "dtype": {"type": "DT_FLOAT"}}}, {"name": "StatefulPartitionedCall/StatefulPartitionedCall/model/rrdb_net/sequential/rrdb/rdb/mul/x", "op": "Const", "input": ["^input_0"], "attr": {"dtype": {"type": "DT_FLOAT"}, "value": {"tensor": {"dtype": "DT_FLOAT", "tensorShape": {}}}}}, {"name": "StatefulPartitionedCall/StatefulPartitionedCall/model/rrdb_net/sequential/rrdb/rdb/conv2d_9/Conv2D/ReadVariableOp", "op": "Const", "input": ["^input_0"], "attr": {"dtype": {"type": "DT_FLOAT"}, "value": {"tensor": {"dtype": "DT_FLOAT", "tensorShape": {"dim": [{"size": "3"}, {"size": "3"}, {"size": "32"}, {"size": "32"}]}}}}}, {"name": "StatefulPartitionedCall/StatefulPartitionedCall/model/rrdb_net/sequential/rrdb/rdb/conv2d_9/BiasAdd/ReadVariableOp", "op": "Const", "input": ["^input_0"], "attr": {"value": {"tensor": {"dtype": "DT_FLOAT", "tensorShape": {"dim": [{"size": "32"}]}}}, "dtype": {"type": "DT_FLOAT"}}}, {"name": "StatefulPartitionedCall/StatefulPartitionedCall/model/rrdb_net/sequential/rrdb/rdb/concat/axis", "op": "Const", "input": ["^input_0"], "attr": {"dtype": {"type": "DT_INT32"}, "value": {"tensor": {"dtype": "DT_INT32", "tensorShape": {}}}}}, {"name": "StatefulPartitionedCall/StatefulPartitionedCall/model/rrdb_net/sequential/rrdb/rdb/conv2d_10/Conv2D/ReadVariableOp", "op": "Const", "input": ["^input_0"], "attr": {"value": {"tensor": {"dtype": "DT_FLOAT", "tensorShape": {"dim": [{"size": "3"}, {"size": "3"}, {"size": "64"}, {"size": "32"}]}}}, "dtype": {"type": "DT_FLOAT"}}}, {"name": "StatefulPartitionedCall/StatefulPartitionedCall/model/rrdb_net/sequential/rrdb/rdb/conv2d_10/BiasAdd/ReadVariableOp", "op": "Const", "input": ["^input_0"], "attr": {"dtype": {"type": "DT_FLOAT"}, "value": {"tensor": {"dtype": "DT_FLOAT", "tensorShape": {"dim": [{"size": "32"}]}}}}}, {"name": "StatefulPartitionedCall/StatefulPartitionedCall/model/rrdb_net/sequential/rrdb/rdb/concat_1/axis", "op": "Const", "input": ["^input_0"], "attr": {"value": {"tensor": {"dtype": "DT_INT32", "tensorShape": {}}}, "dtype": {"type": "DT_INT32"}}}, {"name": "StatefulPartitionedCall/StatefulPartitionedCall/model/rrdb_net/sequential/rrdb/rdb/conv2d_11/Conv2D/ReadVariableOp", "op": "Const", "input": ["^input_0"], "attr": {"dtype": {"type": "DT_FLOAT"}, "value": {"tensor": {"dtype": "DT_FLOAT", "tensorShape": {"dim": [{"size": "3"}, {"size": "3"}, {"size": "96"}, {"size": "32"}]}}}}}, {"name": "StatefulPartitionedCall/StatefulPartitionedCall/model/rrdb_net/sequential/rrdb/rdb/conv2d_11/BiasAdd/ReadVariableOp", "op": "Const", "input": ["^input_0"], "attr": {"dtype": {"type": "DT_FLOAT"}, "value": {"tensor": {"dtype": "DT_FLOAT", "tensorShape": {"dim": [{"size": "32"}]}}}}}, {"name": "StatefulPartitionedCall/StatefulPartitionedCall/model/rrdb_net/sequential/rrdb/rdb/concat_2/axis", "op": "Const", "input": ["^input_0"], "attr": {"dtype": {"type": "DT_INT32"}, "value": {"tensor": {"dtype": "DT_INT32", "tensorShape": {}}}}}, {"name": "StatefulPartitionedCall/StatefulPartitionedCall/model/rrdb_net/sequential/rrdb/rdb/conv2d_12/Conv2D/ReadVariableOp", "op": "Const", "input": ["^input_0"], "attr": {"dtype": {"type": "DT_FLOAT"}, "value": {"tensor": {"dtype": "DT_FLOAT", "tensorShape": {"dim": [{"size": "3"}, {"size": "3"}, {"size": "128"}, {"size": "32"}]}}}}}, {"name": "StatefulPartitionedCall/StatefulPartitionedCall/model/rrdb_net/sequential/rrdb/rdb/conv2d_12/BiasAdd/ReadVariableOp", "op": "Const", "input": ["^input_0"], "attr": {"value": {"tensor": {"dtype": "DT_FLOAT", "tensorShape": {"dim": [{"size": "32"}]}}}, "dtype": {"type": "DT_FLOAT"}}}, {"name": "StatefulPartitionedCall/StatefulPartitionedCall/model/rrdb_net/sequential/rrdb/rdb/concat_3/axis", "op": "Const", "input": ["^input_0"], "attr": {"value": {"tensor": {"dtype": "DT_INT32", "tensorShape": {}}}, "dtype": {"type": "DT_INT32"}}}, {"name": "StatefulPartitionedCall/StatefulPartitionedCall/model/rrdb_net/sequential/rrdb/rdb/conv2d_13/Conv2D/ReadVariableOp", "op": "Const", "input": ["^input_0"], "attr": {"value": {"tensor": {"dtype": "DT_FLOAT", "tensorShape": {"dim": [{"size": "3"}, {"size": "3"}, {"size": "160"}, {"size": "32"}]}}}, "dtype": {"type": "DT_FLOAT"}}}, {"name": "StatefulPartitionedCall/StatefulPartitionedCall/model/rrdb_net/sequential/rrdb/rdb/conv2d_13/BiasAdd/ReadVariableOp", "op": "Const", "input": ["^input_0"], "attr": {"dtype": {"type": "DT_FLOAT"}, "value": {"tensor": {"dtype": "DT_FLOAT", "tensorShape": {"dim": [{"size": "32"}]}}}}}, {"name": "StatefulPartitionedCall/StatefulPartitionedCall/model/rrdb_net/sequential/rrdb/rdb_1/conv2d_14/Conv2D/ReadVariableOp", "op": "Const", "input": ["^input_0"], "attr": {"value": {"tensor": {"dtype": "DT_FLOAT", "tensorShape": {"dim": [{"size": "3"}, {"size": "3"}, {"size": "32"}, {"size": "32"}]}}}, "dtype": {"type": "DT_FLOAT"}}}, {"name": "StatefulPartitionedCall/StatefulPartitionedCall/model/rrdb_net/sequential/rrdb/rdb_1/conv2d_14/BiasAdd/ReadVariableOp", "op": "Const", "input": ["^input_0"], "attr": {"value": {"tensor": {"dtype": "DT_FLOAT", "tensorShape": {"dim": [{"size": "32"}]}}}, "dtype": {"type": "DT_FLOAT"}}}, {"name": "StatefulPartitionedCall/StatefulPartitionedCall/model/rrdb_net/sequential/rrdb/rdb_1/concat/axis", "op": "Const", "input": ["^input_0"], "attr": {"dtype": {"type": "DT_INT32"}, "value": {"tensor": {"dtype": "DT_INT32", "tensorShape": {}}}}}, {"name": "StatefulPartitionedCall/StatefulPartitionedCall/model/rrdb_net/sequential/rrdb/rdb_1/conv2d_15/Conv2D/ReadVariableOp", "op": "Const", "input": ["^input_0"], "attr": {"dtype": {"type": "DT_FLOAT"}, "value": {"tensor": {"dtype": "DT_FLOAT", "tensorShape": {"dim": [{"size": "3"}, {"size": "3"}, {"size": "64"}, {"size": "32"}]}}}}}, {"name": "StatefulPartitionedCall/StatefulPartitionedCall/model/rrdb_net/sequential/rrdb/rdb_1/conv2d_15/BiasAdd/ReadVariableOp", "op": "Const", "input": ["^input_0"], "attr": {"dtype": {"type": "DT_FLOAT"}, "value": {"tensor": {"dtype": "DT_FLOAT", "tensorShape": {"dim": [{"size": "32"}]}}}}}, {"name": "StatefulPartitionedCall/StatefulPartitionedCall/model/rrdb_net/sequential/rrdb/rdb_1/concat_1/axis", "op": "Const", "input": ["^input_0"], "attr": {"value": {"tensor": {"dtype": "DT_INT32", "tensorShape": {}}}, "dtype": {"type": "DT_INT32"}}}, {"name": "StatefulPartitionedCall/StatefulPartitionedCall/model/rrdb_net/sequential/rrdb/rdb_1/conv2d_16/Conv2D/ReadVariableOp", "op": "Const", "input": ["^input_0"], "attr": {"value": {"tensor": {"dtype": "DT_FLOAT", "tensorShape": {"dim": [{"size": "3"}, {"size": "3"}, {"size": "96"}, {"size": "32"}]}}}, "dtype": {"type": "DT_FLOAT"}}}, {"name": "StatefulPartitionedCall/StatefulPartitionedCall/model/rrdb_net/sequential/rrdb/rdb_1/conv2d_16/BiasAdd/ReadVariableOp", "op": "Const", "input": ["^input_0"], "attr": {"dtype": {"type": "DT_FLOAT"}, "value": {"tensor": {"dtype": "DT_FLOAT", "tensorShape": {"dim": [{"size": "32"}]}}}}}, {"name": "StatefulPartitionedCall/StatefulPartitionedCall/model/rrdb_net/sequential/rrdb/rdb_1/concat_2/axis", "op": "Const", "input": ["^input_0"], "attr": {"value": {"tensor": {"dtype": "DT_INT32", "tensorShape": {}}}, "dtype": {"type": "DT_INT32"}}}, {"name": "StatefulPartitionedCall/StatefulPartitionedCall/model/rrdb_net/sequential/rrdb/rdb_1/conv2d_17/Conv2D/ReadVariableOp", "op": "Const", "input": ["^input_0"], "attr": {"value": {"tensor": {"dtype": "DT_FLOAT", "tensorShape": {"dim": [{"size": "3"}, {"size": "3"}, {"size": "128"}, {"size": "32"}]}}}, "dtype": {"type": "DT_FLOAT"}}}, {"name": "StatefulPartitionedCall/StatefulPartitionedCall/model/rrdb_net/sequential/rrdb/rdb_1/conv2d_17/BiasAdd/ReadVariableOp", "op": "Const", "input": ["^input_0"], "attr": {"value": {"tensor": {"dtype": "DT_FLOAT", "tensorShape": {"dim": [{"size": "32"}]}}}, "dtype": {"type": "DT_FLOAT"}}}, {"name": "StatefulPartitionedCall/StatefulPartitionedCall/model/rrdb_net/sequential/rrdb/rdb_1/concat_3/axis", "op": "Const", "input": ["^input_0"], "attr": {"value": {"tensor": {"dtype": "DT_INT32", "tensorShape": {}}}, "dtype": {"type": "DT_INT32"}}}, {"name": "StatefulPartitionedCall/StatefulPartitionedCall/model/rrdb_net/sequential/rrdb/rdb_1/conv2d_18/Conv2D/ReadVariableOp", "op": "Const", "input": ["^input_0"], "attr": {"dtype": {"type": "DT_FLOAT"}, "value": {"tensor": {"dtype": "DT_FLOAT", "tensorShape": {"dim": [{"size": "3"}, {"size": "3"}, {"size": "160"}, {"size": "32"}]}}}}}, {"name": "StatefulPartitionedCall/StatefulPartitionedCall/model/rrdb_net/sequential/rrdb/rdb_1/conv2d_18/BiasAdd/ReadVariableOp", "op": "Const", "input": ["^input_0"], "attr": {"value": {"tensor": {"dtype": "DT_FLOAT", "tensorShape": {"dim": [{"size": "32"}]}}}, "dtype": {"type": "DT_FLOAT"}}}, {"name": "StatefulPartitionedCall/StatefulPartitionedCall/model/rrdb_net/sequential/rrdb/rdb_2/conv2d_19/Conv2D/ReadVariableOp", "op": "Const", "input": ["^input_0"], "attr": {"dtype": {"type": "DT_FLOAT"}, "value": {"tensor": {"dtype": "DT_FLOAT", "tensorShape": {"dim": [{"size": "3"}, {"size": "3"}, {"size": "32"}, {"size": "32"}]}}}}}, {"name": "StatefulPartitionedCall/StatefulPartitionedCall/model/rrdb_net/sequential/rrdb/rdb_2/conv2d_19/BiasAdd/ReadVariableOp", "op": "Const", "input": ["^input_0"], "attr": {"dtype": {"type": "DT_FLOAT"}, "value": {"tensor": {"dtype": "DT_FLOAT", "tensorShape": {"dim": [{"size": "32"}]}}}}}, {"name": "StatefulPartitionedCall/StatefulPartitionedCall/model/rrdb_net/sequential/rrdb/rdb_2/concat/axis", "op": "Const", "input": ["^input_0"], "attr": {"value": {"tensor": {"dtype": "DT_INT32", "tensorShape": {}}}, "dtype": {"type": "DT_INT32"}}}, {"name": "StatefulPartitionedCall/StatefulPartitionedCall/model/rrdb_net/sequential/rrdb/rdb_2/conv2d_20/Conv2D/ReadVariableOp", "op": "Const", "input": ["^input_0"], "attr": {"dtype": {"type": "DT_FLOAT"}, "value": {"tensor": {"dtype": "DT_FLOAT", "tensorShape": {"dim": [{"size": "3"}, {"size": "3"}, {"size": "64"}, {"size": "32"}]}}}}}, {"name": "StatefulPartitionedCall/StatefulPartitionedCall/model/rrdb_net/sequential/rrdb/rdb_2/conv2d_20/BiasAdd/ReadVariableOp", "op": "Const", "input": ["^input_0"], "attr": {"value": {"tensor": {"dtype": "DT_FLOAT", "tensorShape": {"dim": [{"size": "32"}]}}}, "dtype": {"type": "DT_FLOAT"}}}, {"name": "StatefulPartitionedCall/StatefulPartitionedCall/model/rrdb_net/sequential/rrdb/rdb_2/concat_1/axis", "op": "Const", "input": ["^input_0"], "attr": {"value": {"tensor": {"dtype": "DT_INT32", "tensorShape": {}}}, "dtype": {"type": "DT_INT32"}}}, {"name": "StatefulPartitionedCall/StatefulPartitionedCall/model/rrdb_net/sequential/rrdb/rdb_2/conv2d_21/Conv2D/ReadVariableOp", "op": "Const", "input": ["^input_0"], "attr": {"dtype": {"type": "DT_FLOAT"}, "value": {"tensor": {"dtype": "DT_FLOAT", "tensorShape": {"dim": [{"size": "3"}, {"size": "3"}, {"size": "96"}, {"size": "32"}]}}}}}, {"name": "StatefulPartitionedCall/StatefulPartitionedCall/model/rrdb_net/sequential/rrdb/rdb_2/conv2d_21/BiasAdd/ReadVariableOp", "op": "Const", "input": ["^input_0"], "attr": {"dtype": {"type": "DT_FLOAT"}, "value": {"tensor": {"dtype": "DT_FLOAT", "tensorShape": {"dim": [{"size": "32"}]}}}}}, {"name": "StatefulPartitionedCall/StatefulPartitionedCall/model/rrdb_net/sequential/rrdb/rdb_2/concat_2/axis", "op": "Const", "input": ["^input_0"], "attr": {"dtype": {"type": "DT_INT32"}, "value": {"tensor": {"dtype": "DT_INT32", "tensorShape": {}}}}}, {"name": "StatefulPartitionedCall/StatefulPartitionedCall/model/rrdb_net/sequential/rrdb/rdb_2/conv2d_22/Conv2D/ReadVariableOp", "op": "Const", "input": ["^input_0"], "attr": {"dtype": {"type": "DT_FLOAT"}, "value": {"tensor": {"dtype": "DT_FLOAT", "tensorShape": {"dim": [{"size": "3"}, {"size": "3"}, {"size": "128"}, {"size": "32"}]}}}}}, {"name": "StatefulPartitionedCall/StatefulPartitionedCall/model/rrdb_net/sequential/rrdb/rdb_2/conv2d_22/BiasAdd/ReadVariableOp", "op": "Const", "input": ["^input_0"], "attr": {"dtype": {"type": "DT_FLOAT"}, "value": {"tensor": {"dtype": "DT_FLOAT", "tensorShape": {"dim": [{"size": "32"}]}}}}}, {"name": "StatefulPartitionedCall/StatefulPartitionedCall/model/rrdb_net/sequential/rrdb/rdb_2/concat_3/axis", "op": "Const", "input": ["^input_0"], "attr": {"dtype": {"type": "DT_INT32"}, "value": {"tensor": {"dtype": "DT_INT32", "tensorShape": {}}}}}, {"name": "StatefulPartitionedCall/StatefulPartitionedCall/model/rrdb_net/sequential/rrdb/rdb_2/conv2d_23/Conv2D/ReadVariableOp", "op": "Const", "input": ["^input_0"], "attr": {"value": {"tensor": {"dtype": "DT_FLOAT", "tensorShape": {"dim": [{"size": "3"}, {"size": "3"}, {"size": "160"}, {"size": "32"}]}}}, "dtype": {"type": "DT_FLOAT"}}}, {"name": "StatefulPartitionedCall/StatefulPartitionedCall/model/rrdb_net/sequential/rrdb/rdb_2/conv2d_23/BiasAdd/ReadVariableOp", "op": "Const", "input": ["^input_0"], "attr": {"dtype": {"type": "DT_FLOAT"}, "value": {"tensor": {"dtype": "DT_FLOAT", "tensorShape": {"dim": [{"size": "32"}]}}}}}, {"name": "StatefulPartitionedCall/StatefulPartitionedCall/model/rrdb_net/sequential/rrdb_1/rdb_3/conv2d_24/Conv2D/ReadVariableOp", "op": "Const", "input": ["^input_0"], "attr": {"value": {"tensor": {"dtype": "DT_FLOAT", "tensorShape": {"dim": [{"size": "3"}, {"size": "3"}, {"size": "32"}, {"size": "32"}]}}}, "dtype": {"type": "DT_FLOAT"}}}, {"name": "StatefulPartitionedCall/StatefulPartitionedCall/model/rrdb_net/sequential/rrdb_1/rdb_3/conv2d_24/BiasAdd/ReadVariableOp", "op": "Const", "input": ["^input_0"], "attr": {"value": {"tensor": {"dtype": "DT_FLOAT", "tensorShape": {"dim": [{"size": "32"}]}}}, "dtype": {"type": "DT_FLOAT"}}}, {"name": "StatefulPartitionedCall/StatefulPartitionedCall/model/rrdb_net/sequential/rrdb_1/rdb_3/concat/axis", "op": "Const", "input": ["^input_0"], "attr": {"dtype": {"type": "DT_INT32"}, "value": {"tensor": {"dtype": "DT_INT32", "tensorShape": {}}}}}, {"name": "StatefulPartitionedCall/StatefulPartitionedCall/model/rrdb_net/sequential/rrdb_1/rdb_3/conv2d_25/Conv2D/ReadVariableOp", "op": "Const", "input": ["^input_0"], "attr": {"value": {"tensor": {"dtype": "DT_FLOAT", "tensorShape": {"dim": [{"size": "3"}, {"size": "3"}, {"size": "64"}, {"size": "32"}]}}}, "dtype": {"type": "DT_FLOAT"}}}, {"name": "StatefulPartitionedCall/StatefulPartitionedCall/model/rrdb_net/sequential/rrdb_1/rdb_3/conv2d_25/BiasAdd/ReadVariableOp", "op": "Const", "input": ["^input_0"], "attr": {"dtype": {"type": "DT_FLOAT"}, "value": {"tensor": {"dtype": "DT_FLOAT", "tensorShape": {"dim": [{"size": "32"}]}}}}}, {"name": "StatefulPartitionedCall/StatefulPartitionedCall/model/rrdb_net/sequential/rrdb_1/rdb_3/concat_1/axis", "op": "Const", "input": ["^input_0"], "attr": {"dtype": {"type": "DT_INT32"}, "value": {"tensor": {"dtype": "DT_INT32", "tensorShape": {}}}}}, {"name": "StatefulPartitionedCall/StatefulPartitionedCall/model/rrdb_net/sequential/rrdb_1/rdb_3/conv2d_26/Conv2D/ReadVariableOp", "op": "Const", "input": ["^input_0"], "attr": {"value": {"tensor": {"dtype": "DT_FLOAT", "tensorShape": {"dim": [{"size": "3"}, {"size": "3"}, {"size": "96"}, {"size": "32"}]}}}, "dtype": {"type": "DT_FLOAT"}}}, {"name": "StatefulPartitionedCall/StatefulPartitionedCall/model/rrdb_net/sequential/rrdb_1/rdb_3/conv2d_26/BiasAdd/ReadVariableOp", "op": "Const", "input": ["^input_0"], "attr": {"dtype": {"type": "DT_FLOAT"}, "value": {"tensor": {"dtype": "DT_FLOAT", "tensorShape": {"dim": [{"size": "32"}]}}}}}, {"name": "StatefulPartitionedCall/StatefulPartitionedCall/model/rrdb_net/sequential/rrdb_1/rdb_3/concat_2/axis", "op": "Const", "input": ["^input_0"], "attr": {"value": {"tensor": {"dtype": "DT_INT32", "tensorShape": {}}}, "dtype": {"type": "DT_INT32"}}}, {"name": "StatefulPartitionedCall/StatefulPartitionedCall/model/rrdb_net/sequential/rrdb_1/rdb_3/conv2d_27/Conv2D/ReadVariableOp", "op": "Const", "input": ["^input_0"], "attr": {"value": {"tensor": {"dtype": "DT_FLOAT", "tensorShape": {"dim": [{"size": "3"}, {"size": "3"}, {"size": "128"}, {"size": "32"}]}}}, "dtype": {"type": "DT_FLOAT"}}}, {"name": "StatefulPartitionedCall/StatefulPartitionedCall/model/rrdb_net/sequential/rrdb_1/rdb_3/conv2d_27/BiasAdd/ReadVariableOp", "op": "Const", "input": ["^input_0"], "attr": {"value": {"tensor": {"dtype": "DT_FLOAT", "tensorShape": {"dim": [{"size": "32"}]}}}, "dtype": {"type": "DT_FLOAT"}}}, {"name": "StatefulPartitionedCall/StatefulPartitionedCall/model/rrdb_net/sequential/rrdb_1/rdb_3/concat_3/axis", "op": "Const", "input": ["^input_0"], "attr": {"dtype": {"type": "DT_INT32"}, "value": {"tensor": {"dtype": "DT_INT32", "tensorShape": {}}}}}, {"name": "StatefulPartitionedCall/StatefulPartitionedCall/model/rrdb_net/sequential/rrdb_1/rdb_3/conv2d_28/Conv2D/ReadVariableOp", "op": "Const", "input": ["^input_0"], "attr": {"value": {"tensor": {"dtype": "DT_FLOAT", "tensorShape": {"dim": [{"size": "3"}, {"size": "3"}, {"size": "160"}, {"size": "32"}]}}}, "dtype": {"type": "DT_FLOAT"}}}, {"name": "StatefulPartitionedCall/StatefulPartitionedCall/model/rrdb_net/sequential/rrdb_1/rdb_3/conv2d_28/BiasAdd/ReadVariableOp", "op": "Const", "input": ["^input_0"], "attr": {"value": {"tensor": {"dtype": "DT_FLOAT", "tensorShape": {"dim": [{"size": "32"}]}}}, "dtype": {"type": "DT_FLOAT"}}}, {"name": "StatefulPartitionedCall/StatefulPartitionedCall/model/rrdb_net/sequential/rrdb_1/rdb_4/conv2d_29/Conv2D/ReadVariableOp", "op": "Const", "input": ["^input_0"], "attr": {"dtype": {"type": "DT_FLOAT"}, "value": {"tensor": {"dtype": "DT_FLOAT", "tensorShape": {"dim": [{"size": "3"}, {"size": "3"}, {"size": "32"}, {"size": "32"}]}}}}}, {"name": "StatefulPartitionedCall/StatefulPartitionedCall/model/rrdb_net/sequential/rrdb_1/rdb_4/conv2d_29/BiasAdd/ReadVariableOp", "op": "Const", "input": ["^input_0"], "attr": {"value": {"tensor": {"dtype": "DT_FLOAT", "tensorShape": {"dim": [{"size": "32"}]}}}, "dtype": {"type": "DT_FLOAT"}}}, {"name": "StatefulPartitionedCall/StatefulPartitionedCall/model/rrdb_net/sequential/rrdb_1/rdb_4/concat/axis", "op": "Const", "input": ["^input_0"], "attr": {"value": {"tensor": {"dtype": "DT_INT32", "tensorShape": {}}}, "dtype": {"type": "DT_INT32"}}}, {"name": "StatefulPartitionedCall/StatefulPartitionedCall/model/rrdb_net/sequential/rrdb_1/rdb_4/conv2d_30/Conv2D/ReadVariableOp", "op": "Const", "input": ["^input_0"], "attr": {"dtype": {"type": "DT_FLOAT"}, "value": {"tensor": {"dtype": "DT_FLOAT", "tensorShape": {"dim": [{"size": "3"}, {"size": "3"}, {"size": "64"}, {"size": "32"}]}}}}}, {"name": "StatefulPartitionedCall/StatefulPartitionedCall/model/rrdb_net/sequential/rrdb_1/rdb_4/conv2d_30/BiasAdd/ReadVariableOp", "op": "Const", "input": ["^input_0"], "attr": {"dtype": {"type": "DT_FLOAT"}, "value": {"tensor": {"dtype": "DT_FLOAT", "tensorShape": {"dim": [{"size": "32"}]}}}}}, {"name": "StatefulPartitionedCall/StatefulPartitionedCall/model/rrdb_net/sequential/rrdb_1/rdb_4/concat_1/axis", "op": "Const", "input": ["^input_0"], "attr": {"dtype": {"type": "DT_INT32"}, "value": {"tensor": {"dtype": "DT_INT32", "tensorShape": {}}}}}, {"name": "StatefulPartitionedCall/StatefulPartitionedCall/model/rrdb_net/sequential/rrdb_1/rdb_4/conv2d_31/Conv2D/ReadVariableOp", "op": "Const", "input": ["^input_0"], "attr": {"dtype": {"type": "DT_FLOAT"}, "value": {"tensor": {"dtype": "DT_FLOAT", "tensorShape": {"dim": [{"size": "3"}, {"size": "3"}, {"size": "96"}, {"size": "32"}]}}}}}, {"name": "StatefulPartitionedCall/StatefulPartitionedCall/model/rrdb_net/sequential/rrdb_1/rdb_4/conv2d_31/BiasAdd/ReadVariableOp", "op": "Const", "input": ["^input_0"], "attr": {"value": {"tensor": {"dtype": "DT_FLOAT", "tensorShape": {"dim": [{"size": "32"}]}}}, "dtype": {"type": "DT_FLOAT"}}}, {"name": "StatefulPartitionedCall/StatefulPartitionedCall/model/rrdb_net/sequential/rrdb_1/rdb_4/concat_2/axis", "op": "Const", "input": ["^input_0"], "attr": {"dtype": {"type": "DT_INT32"}, "value": {"tensor": {"dtype": "DT_INT32", "tensorShape": {}}}}}, {"name": "StatefulPartitionedCall/StatefulPartitionedCall/model/rrdb_net/sequential/rrdb_1/rdb_4/conv2d_32/Conv2D/ReadVariableOp", "op": "Const", "input": ["^input_0"], "attr": {"dtype": {"type": "DT_FLOAT"}, "value": {"tensor": {"dtype": "DT_FLOAT", "tensorShape": {"dim": [{"size": "3"}, {"size": "3"}, {"size": "128"}, {"size": "32"}]}}}}}, {"name": "StatefulPartitionedCall/StatefulPartitionedCall/model/rrdb_net/sequential/rrdb_1/rdb_4/conv2d_32/BiasAdd/ReadVariableOp", "op": "Const", "input": ["^input_0"], "attr": {"value": {"tensor": {"dtype": "DT_FLOAT", "tensorShape": {"dim": [{"size": "32"}]}}}, "dtype": {"type": "DT_FLOAT"}}}, {"name": "StatefulPartitionedCall/StatefulPartitionedCall/model/rrdb_net/sequential/rrdb_1/rdb_4/concat_3/axis", "op": "Const", "input": ["^input_0"], "attr": {"dtype": {"type": "DT_INT32"}, "value": {"tensor": {"dtype": "DT_INT32", "tensorShape": {}}}}}, {"name": "StatefulPartitionedCall/StatefulPartitionedCall/model/rrdb_net/sequential/rrdb_1/rdb_4/conv2d_33/Conv2D/ReadVariableOp", "op": "Const", "input": ["^input_0"], "attr": {"value": {"tensor": {"dtype": "DT_FLOAT", "tensorShape": {"dim": [{"size": "3"}, {"size": "3"}, {"size": "160"}, {"size": "32"}]}}}, "dtype": {"type": "DT_FLOAT"}}}, {"name": "StatefulPartitionedCall/StatefulPartitionedCall/model/rrdb_net/sequential/rrdb_1/rdb_4/conv2d_33/BiasAdd/ReadVariableOp", "op": "Const", "input": ["^input_0"], "attr": {"value": {"tensor": {"dtype": "DT_FLOAT", "tensorShape": {"dim": [{"size": "32"}]}}}, "dtype": {"type": "DT_FLOAT"}}}, {"name": "StatefulPartitionedCall/StatefulPartitionedCall/model/rrdb_net/sequential/rrdb_1/rdb_5/conv2d_34/Conv2D/ReadVariableOp", "op": "Const", "input": ["^input_0"], "attr": {"dtype": {"type": "DT_FLOAT"}, "value": {"tensor": {"dtype": "DT_FLOAT", "tensorShape": {"dim": [{"size": "3"}, {"size": "3"}, {"size": "32"}, {"size": "32"}]}}}}}, {"name": "StatefulPartitionedCall/StatefulPartitionedCall/model/rrdb_net/sequential/rrdb_1/rdb_5/conv2d_34/BiasAdd/ReadVariableOp", "op": "Const", "input": ["^input_0"], "attr": {"value": {"tensor": {"dtype": "DT_FLOAT", "tensorShape": {"dim": [{"size": "32"}]}}}, "dtype": {"type": "DT_FLOAT"}}}, {"name": "StatefulPartitionedCall/StatefulPartitionedCall/model/rrdb_net/sequential/rrdb_1/rdb_5/concat/axis", "op": "Const", "input": ["^input_0"], "attr": {"dtype": {"type": "DT_INT32"}, "value": {"tensor": {"dtype": "DT_INT32", "tensorShape": {}}}}}, {"name": "StatefulPartitionedCall/StatefulPartitionedCall/model/rrdb_net/sequential/rrdb_1/rdb_5/conv2d_35/Conv2D/ReadVariableOp", "op": "Const", "input": ["^input_0"], "attr": {"value": {"tensor": {"dtype": "DT_FLOAT", "tensorShape": {"dim": [{"size": "3"}, {"size": "3"}, {"size": "64"}, {"size": "32"}]}}}, "dtype": {"type": "DT_FLOAT"}}}, {"name": "StatefulPartitionedCall/StatefulPartitionedCall/model/rrdb_net/sequential/rrdb_1/rdb_5/conv2d_35/BiasAdd/ReadVariableOp", "op": "Const", "input": ["^input_0"], "attr": {"dtype": {"type": "DT_FLOAT"}, "value": {"tensor": {"dtype": "DT_FLOAT", "tensorShape": {"dim": [{"size": "32"}]}}}}}, {"name": "StatefulPartitionedCall/StatefulPartitionedCall/model/rrdb_net/sequential/rrdb_1/rdb_5/concat_1/axis", "op": "Const", "input": ["^input_0"], "attr": {"dtype": {"type": "DT_INT32"}, "value": {"tensor": {"dtype": "DT_INT32", "tensorShape": {}}}}}, {"name": "StatefulPartitionedCall/StatefulPartitionedCall/model/rrdb_net/sequential/rrdb_1/rdb_5/conv2d_36/Conv2D/ReadVariableOp", "op": "Const", "input": ["^input_0"], "attr": {"value": {"tensor": {"dtype": "DT_FLOAT", "tensorShape": {"dim": [{"size": "3"}, {"size": "3"}, {"size": "96"}, {"size": "32"}]}}}, "dtype": {"type": "DT_FLOAT"}}}, {"name": "StatefulPartitionedCall/StatefulPartitionedCall/model/rrdb_net/sequential/rrdb_1/rdb_5/conv2d_36/BiasAdd/ReadVariableOp", "op": "Const", "input": ["^input_0"], "attr": {"dtype": {"type": "DT_FLOAT"}, "value": {"tensor": {"dtype": "DT_FLOAT", "tensorShape": {"dim": [{"size": "32"}]}}}}}, {"name": "StatefulPartitionedCall/StatefulPartitionedCall/model/rrdb_net/sequential/rrdb_1/rdb_5/concat_2/axis", "op": "Const", "input": ["^input_0"], "attr": {"dtype": {"type": "DT_INT32"}, "value": {"tensor": {"dtype": "DT_INT32", "tensorShape": {}}}}}, {"name": "StatefulPartitionedCall/StatefulPartitionedCall/model/rrdb_net/sequential/rrdb_1/rdb_5/conv2d_37/Conv2D/ReadVariableOp", "op": "Const", "input": ["^input_0"], "attr": {"dtype": {"type": "DT_FLOAT"}, "value": {"tensor": {"dtype": "DT_FLOAT", "tensorShape": {"dim": [{"size": "3"}, {"size": "3"}, {"size": "128"}, {"size": "32"}]}}}}}, {"name": "StatefulPartitionedCall/StatefulPartitionedCall/model/rrdb_net/sequential/rrdb_1/rdb_5/conv2d_37/BiasAdd/ReadVariableOp", "op": "Const", "input": ["^input_0"], "attr": {"value": {"tensor": {"dtype": "DT_FLOAT", "tensorShape": {"dim": [{"size": "32"}]}}}, "dtype": {"type": "DT_FLOAT"}}}, {"name": "StatefulPartitionedCall/StatefulPartitionedCall/model/rrdb_net/sequential/rrdb_1/rdb_5/concat_3/axis", "op": "Const", "input": ["^input_0"], "attr": {"dtype": {"type": "DT_INT32"}, "value": {"tensor": {"dtype": "DT_INT32", "tensorShape": {}}}}}, {"name": "StatefulPartitionedCall/StatefulPartitionedCall/model/rrdb_net/sequential/rrdb_1/rdb_5/conv2d_38/Conv2D/ReadVariableOp", "op": "Const", "input": ["^input_0"], "attr": {"value": {"tensor": {"dtype": "DT_FLOAT", "tensorShape": {"dim": [{"size": "3"}, {"size": "3"}, {"size": "160"}, {"size": "32"}]}}}, "dtype": {"type": "DT_FLOAT"}}}, {"name": "StatefulPartitionedCall/StatefulPartitionedCall/model/rrdb_net/sequential/rrdb_1/rdb_5/conv2d_38/BiasAdd/ReadVariableOp", "op": "Const", "input": ["^input_0"], "attr": {"value": {"tensor": {"dtype": "DT_FLOAT", "tensorShape": {"dim": [{"size": "32"}]}}}, "dtype": {"type": "DT_FLOAT"}}}, {"name": "StatefulPartitionedCall/StatefulPartitionedCall/model/rrdb_net/sequential/rrdb_2/rdb_6/conv2d_39/Conv2D/ReadVariableOp", "op": "Const", "input": ["^input_0"], "attr": {"value": {"tensor": {"dtype": "DT_FLOAT", "tensorShape": {"dim": [{"size": "3"}, {"size": "3"}, {"size": "32"}, {"size": "32"}]}}}, "dtype": {"type": "DT_FLOAT"}}}, {"name": "StatefulPartitionedCall/StatefulPartitionedCall/model/rrdb_net/sequential/rrdb_2/rdb_6/conv2d_39/BiasAdd/ReadVariableOp", "op": "Const", "input": ["^input_0"], "attr": {"value": {"tensor": {"dtype": "DT_FLOAT", "tensorShape": {"dim": [{"size": "32"}]}}}, "dtype": {"type": "DT_FLOAT"}}}, {"name": "StatefulPartitionedCall/StatefulPartitionedCall/model/rrdb_net/sequential/rrdb_2/rdb_6/concat/axis", "op": "Const", "input": ["^input_0"], "attr": {"dtype": {"type": "DT_INT32"}, "value": {"tensor": {"dtype": "DT_INT32", "tensorShape": {}}}}}, {"name": "StatefulPartitionedCall/StatefulPartitionedCall/model/rrdb_net/sequential/rrdb_2/rdb_6/conv2d_40/Conv2D/ReadVariableOp", "op": "Const", "input": ["^input_0"], "attr": {"value": {"tensor": {"dtype": "DT_FLOAT", "tensorShape": {"dim": [{"size": "3"}, {"size": "3"}, {"size": "64"}, {"size": "32"}]}}}, "dtype": {"type": "DT_FLOAT"}}}, {"name": "StatefulPartitionedCall/StatefulPartitionedCall/model/rrdb_net/sequential/rrdb_2/rdb_6/conv2d_40/BiasAdd/ReadVariableOp", "op": "Const", "input": ["^input_0"], "attr": {"dtype": {"type": "DT_FLOAT"}, "value": {"tensor": {"dtype": "DT_FLOAT", "tensorShape": {"dim": [{"size": "32"}]}}}}}, {"name": "StatefulPartitionedCall/StatefulPartitionedCall/model/rrdb_net/sequential/rrdb_2/rdb_6/concat_1/axis", "op": "Const", "input": ["^input_0"], "attr": {"dtype": {"type": "DT_INT32"}, "value": {"tensor": {"dtype": "DT_INT32", "tensorShape": {}}}}}, {"name": "StatefulPartitionedCall/StatefulPartitionedCall/model/rrdb_net/sequential/rrdb_2/rdb_6/conv2d_41/Conv2D/ReadVariableOp", "op": "Const", "input": ["^input_0"], "attr": {"dtype": {"type": "DT_FLOAT"}, "value": {"tensor": {"dtype": "DT_FLOAT", "tensorShape": {"dim": [{"size": "3"}, {"size": "3"}, {"size": "96"}, {"size": "32"}]}}}}}, {"name": "StatefulPartitionedCall/StatefulPartitionedCall/model/rrdb_net/sequential/rrdb_2/rdb_6/conv2d_41/BiasAdd/ReadVariableOp", "op": "Const", "input": ["^input_0"], "attr": {"value": {"tensor": {"dtype": "DT_FLOAT", "tensorShape": {"dim": [{"size": "32"}]}}}, "dtype": {"type": "DT_FLOAT"}}}, {"name": "StatefulPartitionedCall/StatefulPartitionedCall/model/rrdb_net/sequential/rrdb_2/rdb_6/concat_2/axis", "op": "Const", "input": ["^input_0"], "attr": {"dtype": {"type": "DT_INT32"}, "value": {"tensor": {"dtype": "DT_INT32", "tensorShape": {}}}}}, {"name": "StatefulPartitionedCall/StatefulPartitionedCall/model/rrdb_net/sequential/rrdb_2/rdb_6/conv2d_42/Conv2D/ReadVariableOp", "op": "Const", "input": ["^input_0"], "attr": {"value": {"tensor": {"dtype": "DT_FLOAT", "tensorShape": {"dim": [{"size": "3"}, {"size": "3"}, {"size": "128"}, {"size": "32"}]}}}, "dtype": {"type": "DT_FLOAT"}}}, {"name": "StatefulPartitionedCall/StatefulPartitionedCall/model/rrdb_net/sequential/rrdb_2/rdb_6/conv2d_42/BiasAdd/ReadVariableOp", "op": "Const", "input": ["^input_0"], "attr": {"value": {"tensor": {"dtype": "DT_FLOAT", "tensorShape": {"dim": [{"size": "32"}]}}}, "dtype": {"type": "DT_FLOAT"}}}, {"name": "StatefulPartitionedCall/StatefulPartitionedCall/model/rrdb_net/sequential/rrdb_2/rdb_6/concat_3/axis", "op": "Const", "input": ["^input_0"], "attr": {"dtype": {"type": "DT_INT32"}, "value": {"tensor": {"dtype": "DT_INT32", "tensorShape": {}}}}}, {"name": "StatefulPartitionedCall/StatefulPartitionedCall/model/rrdb_net/sequential/rrdb_2/rdb_6/conv2d_43/Conv2D/ReadVariableOp", "op": "Const", "input": ["^input_0"], "attr": {"value": {"tensor": {"dtype": "DT_FLOAT", "tensorShape": {"dim": [{"size": "3"}, {"size": "3"}, {"size": "160"}, {"size": "32"}]}}}, "dtype": {"type": "DT_FLOAT"}}}, {"name": "StatefulPartitionedCall/StatefulPartitionedCall/model/rrdb_net/sequential/rrdb_2/rdb_6/conv2d_43/BiasAdd/ReadVariableOp", "op": "Const", "input": ["^input_0"], "attr": {"dtype": {"type": "DT_FLOAT"}, "value": {"tensor": {"dtype": "DT_FLOAT", "tensorShape": {"dim": [{"size": "32"}]}}}}}, {"name": "StatefulPartitionedCall/StatefulPartitionedCall/model/rrdb_net/sequential/rrdb_2/rdb_7/conv2d_44/Conv2D/ReadVariableOp", "op": "Const", "input": ["^input_0"], "attr": {"dtype": {"type": "DT_FLOAT"}, "value": {"tensor": {"dtype": "DT_FLOAT", "tensorShape": {"dim": [{"size": "3"}, {"size": "3"}, {"size": "32"}, {"size": "32"}]}}}}}, {"name": "StatefulPartitionedCall/StatefulPartitionedCall/model/rrdb_net/sequential/rrdb_2/rdb_7/conv2d_44/BiasAdd/ReadVariableOp", "op": "Const", "input": ["^input_0"], "attr": {"value": {"tensor": {"dtype": "DT_FLOAT", "tensorShape": {"dim": [{"size": "32"}]}}}, "dtype": {"type": "DT_FLOAT"}}}, {"name": "StatefulPartitionedCall/StatefulPartitionedCall/model/rrdb_net/sequential/rrdb_2/rdb_7/concat/axis", "op": "Const", "input": ["^input_0"], "attr": {"value": {"tensor": {"dtype": "DT_INT32", "tensorShape": {}}}, "dtype": {"type": "DT_INT32"}}}, {"name": "StatefulPartitionedCall/StatefulPartitionedCall/model/rrdb_net/sequential/rrdb_2/rdb_7/conv2d_45/Conv2D/ReadVariableOp", "op": "Const", "input": ["^input_0"], "attr": {"value": {"tensor": {"dtype": "DT_FLOAT", "tensorShape": {"dim": [{"size": "3"}, {"size": "3"}, {"size": "64"}, {"size": "32"}]}}}, "dtype": {"type": "DT_FLOAT"}}}, {"name": "StatefulPartitionedCall/StatefulPartitionedCall/model/rrdb_net/sequential/rrdb_2/rdb_7/conv2d_45/BiasAdd/ReadVariableOp", "op": "Const", "input": ["^input_0"], "attr": {"dtype": {"type": "DT_FLOAT"}, "value": {"tensor": {"dtype": "DT_FLOAT", "tensorShape": {"dim": [{"size": "32"}]}}}}}, {"name": "StatefulPartitionedCall/StatefulPartitionedCall/model/rrdb_net/sequential/rrdb_2/rdb_7/concat_1/axis", "op": "Const", "input": ["^input_0"], "attr": {"value": {"tensor": {"dtype": "DT_INT32", "tensorShape": {}}}, "dtype": {"type": "DT_INT32"}}}, {"name": "StatefulPartitionedCall/StatefulPartitionedCall/model/rrdb_net/sequential/rrdb_2/rdb_7/conv2d_46/Conv2D/ReadVariableOp", "op": "Const", "input": ["^input_0"], "attr": {"dtype": {"type": "DT_FLOAT"}, "value": {"tensor": {"dtype": "DT_FLOAT", "tensorShape": {"dim": [{"size": "3"}, {"size": "3"}, {"size": "96"}, {"size": "32"}]}}}}}, {"name": "StatefulPartitionedCall/StatefulPartitionedCall/model/rrdb_net/sequential/rrdb_2/rdb_7/conv2d_46/BiasAdd/ReadVariableOp", "op": "Const", "input": ["^input_0"], "attr": {"dtype": {"type": "DT_FLOAT"}, "value": {"tensor": {"dtype": "DT_FLOAT", "tensorShape": {"dim": [{"size": "32"}]}}}}}, {"name": "StatefulPartitionedCall/StatefulPartitionedCall/model/rrdb_net/sequential/rrdb_2/rdb_7/concat_2/axis", "op": "Const", "input": ["^input_0"], "attr": {"value": {"tensor": {"dtype": "DT_INT32", "tensorShape": {}}}, "dtype": {"type": "DT_INT32"}}}, {"name": "StatefulPartitionedCall/StatefulPartitionedCall/model/rrdb_net/sequential/rrdb_2/rdb_7/conv2d_47/Conv2D/ReadVariableOp", "op": "Const", "input": ["^input_0"], "attr": {"value": {"tensor": {"dtype": "DT_FLOAT", "tensorShape": {"dim": [{"size": "3"}, {"size": "3"}, {"size": "128"}, {"size": "32"}]}}}, "dtype": {"type": "DT_FLOAT"}}}, {"name": "StatefulPartitionedCall/StatefulPartitionedCall/model/rrdb_net/sequential/rrdb_2/rdb_7/conv2d_47/BiasAdd/ReadVariableOp", "op": "Const", "input": ["^input_0"], "attr": {"value": {"tensor": {"dtype": "DT_FLOAT", "tensorShape": {"dim": [{"size": "32"}]}}}, "dtype": {"type": "DT_FLOAT"}}}, {"name": "StatefulPartitionedCall/StatefulPartitionedCall/model/rrdb_net/sequential/rrdb_2/rdb_7/concat_3/axis", "op": "Const", "input": ["^input_0"], "attr": {"dtype": {"type": "DT_INT32"}, "value": {"tensor": {"dtype": "DT_INT32", "tensorShape": {}}}}}, {"name": "StatefulPartitionedCall/StatefulPartitionedCall/model/rrdb_net/sequential/rrdb_2/rdb_7/conv2d_48/Conv2D/ReadVariableOp", "op": "Const", "input": ["^input_0"], "attr": {"dtype": {"type": "DT_FLOAT"}, "value": {"tensor": {"dtype": "DT_FLOAT", "tensorShape": {"dim": [{"size": "3"}, {"size": "3"}, {"size": "160"}, {"size": "32"}]}}}}}, {"name": "StatefulPartitionedCall/StatefulPartitionedCall/model/rrdb_net/sequential/rrdb_2/rdb_7/conv2d_48/BiasAdd/ReadVariableOp", "op": "Const", "input": ["^input_0"], "attr": {"value": {"tensor": {"dtype": "DT_FLOAT", "tensorShape": {"dim": [{"size": "32"}]}}}, "dtype": {"type": "DT_FLOAT"}}}, {"name": "StatefulPartitionedCall/StatefulPartitionedCall/model/rrdb_net/sequential/rrdb_2/rdb_8/conv2d_49/Conv2D/ReadVariableOp", "op": "Const", "input": ["^input_0"], "attr": {"value": {"tensor": {"dtype": "DT_FLOAT", "tensorShape": {"dim": [{"size": "3"}, {"size": "3"}, {"size": "32"}, {"size": "32"}]}}}, "dtype": {"type": "DT_FLOAT"}}}, {"name": "StatefulPartitionedCall/StatefulPartitionedCall/model/rrdb_net/sequential/rrdb_2/rdb_8/conv2d_49/BiasAdd/ReadVariableOp", "op": "Const", "input": ["^input_0"], "attr": {"value": {"tensor": {"dtype": "DT_FLOAT", "tensorShape": {"dim": [{"size": "32"}]}}}, "dtype": {"type": "DT_FLOAT"}}}, {"name": "StatefulPartitionedCall/StatefulPartitionedCall/model/rrdb_net/sequential/rrdb_2/rdb_8/concat/axis", "op": "Const", "input": ["^input_0"], "attr": {"value": {"tensor": {"dtype": "DT_INT32", "tensorShape": {}}}, "dtype": {"type": "DT_INT32"}}}, {"name": "StatefulPartitionedCall/StatefulPartitionedCall/model/rrdb_net/sequential/rrdb_2/rdb_8/conv2d_50/Conv2D/ReadVariableOp", "op": "Const", "input": ["^input_0"], "attr": {"dtype": {"type": "DT_FLOAT"}, "value": {"tensor": {"dtype": "DT_FLOAT", "tensorShape": {"dim": [{"size": "3"}, {"size": "3"}, {"size": "64"}, {"size": "32"}]}}}}}, {"name": "StatefulPartitionedCall/StatefulPartitionedCall/model/rrdb_net/sequential/rrdb_2/rdb_8/conv2d_50/BiasAdd/ReadVariableOp", "op": "Const", "input": ["^input_0"], "attr": {"value": {"tensor": {"dtype": "DT_FLOAT", "tensorShape": {"dim": [{"size": "32"}]}}}, "dtype": {"type": "DT_FLOAT"}}}, {"name": "StatefulPartitionedCall/StatefulPartitionedCall/model/rrdb_net/sequential/rrdb_2/rdb_8/concat_1/axis", "op": "Const", "input": ["^input_0"], "attr": {"value": {"tensor": {"dtype": "DT_INT32", "tensorShape": {}}}, "dtype": {"type": "DT_INT32"}}}, {"name": "StatefulPartitionedCall/StatefulPartitionedCall/model/rrdb_net/sequential/rrdb_2/rdb_8/conv2d_51/Conv2D/ReadVariableOp", "op": "Const", "input": ["^input_0"], "attr": {"dtype": {"type": "DT_FLOAT"}, "value": {"tensor": {"dtype": "DT_FLOAT", "tensorShape": {"dim": [{"size": "3"}, {"size": "3"}, {"size": "96"}, {"size": "32"}]}}}}}, {"name": "StatefulPartitionedCall/StatefulPartitionedCall/model/rrdb_net/sequential/rrdb_2/rdb_8/conv2d_51/BiasAdd/ReadVariableOp", "op": "Const", "input": ["^input_0"], "attr": {"dtype": {"type": "DT_FLOAT"}, "value": {"tensor": {"dtype": "DT_FLOAT", "tensorShape": {"dim": [{"size": "32"}]}}}}}, {"name": "StatefulPartitionedCall/StatefulPartitionedCall/model/rrdb_net/sequential/rrdb_2/rdb_8/concat_2/axis", "op": "Const", "input": ["^input_0"], "attr": {"value": {"tensor": {"dtype": "DT_INT32", "tensorShape": {}}}, "dtype": {"type": "DT_INT32"}}}, {"name": "StatefulPartitionedCall/StatefulPartitionedCall/model/rrdb_net/sequential/rrdb_2/rdb_8/conv2d_52/Conv2D/ReadVariableOp", "op": "Const", "input": ["^input_0"], "attr": {"dtype": {"type": "DT_FLOAT"}, "value": {"tensor": {"dtype": "DT_FLOAT", "tensorShape": {"dim": [{"size": "3"}, {"size": "3"}, {"size": "128"}, {"size": "32"}]}}}}}, {"name": "StatefulPartitionedCall/StatefulPartitionedCall/model/rrdb_net/sequential/rrdb_2/rdb_8/conv2d_52/BiasAdd/ReadVariableOp", "op": "Const", "input": ["^input_0"], "attr": {"value": {"tensor": {"dtype": "DT_FLOAT", "tensorShape": {"dim": [{"size": "32"}]}}}, "dtype": {"type": "DT_FLOAT"}}}, {"name": "StatefulPartitionedCall/StatefulPartitionedCall/model/rrdb_net/sequential/rrdb_2/rdb_8/concat_3/axis", "op": "Const", "input": ["^input_0"], "attr": {"value": {"tensor": {"dtype": "DT_INT32", "tensorShape": {}}}, "dtype": {"type": "DT_INT32"}}}, {"name": "StatefulPartitionedCall/StatefulPartitionedCall/model/rrdb_net/sequential/rrdb_2/rdb_8/conv2d_53/Conv2D/ReadVariableOp", "op": "Const", "input": ["^input_0"], "attr": {"dtype": {"type": "DT_FLOAT"}, "value": {"tensor": {"dtype": "DT_FLOAT", "tensorShape": {"dim": [{"size": "3"}, {"size": "3"}, {"size": "160"}, {"size": "32"}]}}}}}, {"name": "StatefulPartitionedCall/StatefulPartitionedCall/model/rrdb_net/sequential/rrdb_2/rdb_8/conv2d_53/BiasAdd/ReadVariableOp", "op": "Const", "input": ["^input_0"], "attr": {"dtype": {"type": "DT_FLOAT"}, "value": {"tensor": {"dtype": "DT_FLOAT", "tensorShape": {"dim": [{"size": "32"}]}}}}}, {"name": "StatefulPartitionedCall/StatefulPartitionedCall/model/rrdb_net/sequential/rrdb_3/rdb_9/conv2d_54/Conv2D/ReadVariableOp", "op": "Const", "input": ["^input_0"], "attr": {"value": {"tensor": {"dtype": "DT_FLOAT", "tensorShape": {"dim": [{"size": "3"}, {"size": "3"}, {"size": "32"}, {"size": "32"}]}}}, "dtype": {"type": "DT_FLOAT"}}}, {"name": "StatefulPartitionedCall/StatefulPartitionedCall/model/rrdb_net/sequential/rrdb_3/rdb_9/conv2d_54/BiasAdd/ReadVariableOp", "op": "Const", "input": ["^input_0"], "attr": {"dtype": {"type": "DT_FLOAT"}, "value": {"tensor": {"dtype": "DT_FLOAT", "tensorShape": {"dim": [{"size": "32"}]}}}}}, {"name": "StatefulPartitionedCall/StatefulPartitionedCall/model/rrdb_net/sequential/rrdb_3/rdb_9/concat/axis", "op": "Const", "input": ["^input_0"], "attr": {"dtype": {"type": "DT_INT32"}, "value": {"tensor": {"dtype": "DT_INT32", "tensorShape": {}}}}}, {"name": "StatefulPartitionedCall/StatefulPartitionedCall/model/rrdb_net/sequential/rrdb_3/rdb_9/conv2d_55/Conv2D/ReadVariableOp", "op": "Const", "input": ["^input_0"], "attr": {"value": {"tensor": {"dtype": "DT_FLOAT", "tensorShape": {"dim": [{"size": "3"}, {"size": "3"}, {"size": "64"}, {"size": "32"}]}}}, "dtype": {"type": "DT_FLOAT"}}}, {"name": "StatefulPartitionedCall/StatefulPartitionedCall/model/rrdb_net/sequential/rrdb_3/rdb_9/conv2d_55/BiasAdd/ReadVariableOp", "op": "Const", "input": ["^input_0"], "attr": {"value": {"tensor": {"dtype": "DT_FLOAT", "tensorShape": {"dim": [{"size": "32"}]}}}, "dtype": {"type": "DT_FLOAT"}}}, {"name": "StatefulPartitionedCall/StatefulPartitionedCall/model/rrdb_net/sequential/rrdb_3/rdb_9/concat_1/axis", "op": "Const", "input": ["^input_0"], "attr": {"value": {"tensor": {"dtype": "DT_INT32", "tensorShape": {}}}, "dtype": {"type": "DT_INT32"}}}, {"name": "StatefulPartitionedCall/StatefulPartitionedCall/model/rrdb_net/sequential/rrdb_3/rdb_9/conv2d_56/Conv2D/ReadVariableOp", "op": "Const", "input": ["^input_0"], "attr": {"value": {"tensor": {"dtype": "DT_FLOAT", "tensorShape": {"dim": [{"size": "3"}, {"size": "3"}, {"size": "96"}, {"size": "32"}]}}}, "dtype": {"type": "DT_FLOAT"}}}, {"name": "StatefulPartitionedCall/StatefulPartitionedCall/model/rrdb_net/sequential/rrdb_3/rdb_9/conv2d_56/BiasAdd/ReadVariableOp", "op": "Const", "input": ["^input_0"], "attr": {"value": {"tensor": {"dtype": "DT_FLOAT", "tensorShape": {"dim": [{"size": "32"}]}}}, "dtype": {"type": "DT_FLOAT"}}}, {"name": "StatefulPartitionedCall/StatefulPartitionedCall/model/rrdb_net/sequential/rrdb_3/rdb_9/concat_2/axis", "op": "Const", "input": ["^input_0"], "attr": {"dtype": {"type": "DT_INT32"}, "value": {"tensor": {"dtype": "DT_INT32", "tensorShape": {}}}}}, {"name": "StatefulPartitionedCall/StatefulPartitionedCall/model/rrdb_net/sequential/rrdb_3/rdb_9/conv2d_57/Conv2D/ReadVariableOp", "op": "Const", "input": ["^input_0"], "attr": {"value": {"tensor": {"dtype": "DT_FLOAT", "tensorShape": {"dim": [{"size": "3"}, {"size": "3"}, {"size": "128"}, {"size": "32"}]}}}, "dtype": {"type": "DT_FLOAT"}}}, {"name": "StatefulPartitionedCall/StatefulPartitionedCall/model/rrdb_net/sequential/rrdb_3/rdb_9/conv2d_57/BiasAdd/ReadVariableOp", "op": "Const", "input": ["^input_0"], "attr": {"value": {"tensor": {"dtype": "DT_FLOAT", "tensorShape": {"dim": [{"size": "32"}]}}}, "dtype": {"type": "DT_FLOAT"}}}, {"name": "StatefulPartitionedCall/StatefulPartitionedCall/model/rrdb_net/sequential/rrdb_3/rdb_9/concat_3/axis", "op": "Const", "input": ["^input_0"], "attr": {"value": {"tensor": {"dtype": "DT_INT32", "tensorShape": {}}}, "dtype": {"type": "DT_INT32"}}}, {"name": "StatefulPartitionedCall/StatefulPartitionedCall/model/rrdb_net/sequential/rrdb_3/rdb_9/conv2d_58/Conv2D/ReadVariableOp", "op": "Const", "input": ["^input_0"], "attr": {"dtype": {"type": "DT_FLOAT"}, "value": {"tensor": {"dtype": "DT_FLOAT", "tensorShape": {"dim": [{"size": "3"}, {"size": "3"}, {"size": "160"}, {"size": "32"}]}}}}}, {"name": "StatefulPartitionedCall/StatefulPartitionedCall/model/rrdb_net/sequential/rrdb_3/rdb_9/conv2d_58/BiasAdd/ReadVariableOp", "op": "Const", "input": ["^input_0"], "attr": {"dtype": {"type": "DT_FLOAT"}, "value": {"tensor": {"dtype": "DT_FLOAT", "tensorShape": {"dim": [{"size": "32"}]}}}}}, {"name": "StatefulPartitionedCall/StatefulPartitionedCall/model/rrdb_net/sequential/rrdb_3/rdb_10/conv2d_59/Conv2D/ReadVariableOp", "op": "Const", "input": ["^input_0"], "attr": {"value": {"tensor": {"dtype": "DT_FLOAT", "tensorShape": {"dim": [{"size": "3"}, {"size": "3"}, {"size": "32"}, {"size": "32"}]}}}, "dtype": {"type": "DT_FLOAT"}}}, {"name": "StatefulPartitionedCall/StatefulPartitionedCall/model/rrdb_net/sequential/rrdb_3/rdb_10/conv2d_59/BiasAdd/ReadVariableOp", "op": "Const", "input": ["^input_0"], "attr": {"dtype": {"type": "DT_FLOAT"}, "value": {"tensor": {"dtype": "DT_FLOAT", "tensorShape": {"dim": [{"size": "32"}]}}}}}, {"name": "StatefulPartitionedCall/StatefulPartitionedCall/model/rrdb_net/sequential/rrdb_3/rdb_10/concat/axis", "op": "Const", "input": ["^input_0"], "attr": {"value": {"tensor": {"dtype": "DT_INT32", "tensorShape": {}}}, "dtype": {"type": "DT_INT32"}}}, {"name": "StatefulPartitionedCall/StatefulPartitionedCall/model/rrdb_net/sequential/rrdb_3/rdb_10/conv2d_60/Conv2D/ReadVariableOp", "op": "Const", "input": ["^input_0"], "attr": {"value": {"tensor": {"dtype": "DT_FLOAT", "tensorShape": {"dim": [{"size": "3"}, {"size": "3"}, {"size": "64"}, {"size": "32"}]}}}, "dtype": {"type": "DT_FLOAT"}}}, {"name": "StatefulPartitionedCall/StatefulPartitionedCall/model/rrdb_net/sequential/rrdb_3/rdb_10/conv2d_60/BiasAdd/ReadVariableOp", "op": "Const", "input": ["^input_0"], "attr": {"dtype": {"type": "DT_FLOAT"}, "value": {"tensor": {"dtype": "DT_FLOAT", "tensorShape": {"dim": [{"size": "32"}]}}}}}, {"name": "StatefulPartitionedCall/StatefulPartitionedCall/model/rrdb_net/sequential/rrdb_3/rdb_10/concat_1/axis", "op": "Const", "input": ["^input_0"], "attr": {"dtype": {"type": "DT_INT32"}, "value": {"tensor": {"dtype": "DT_INT32", "tensorShape": {}}}}}, {"name": "StatefulPartitionedCall/StatefulPartitionedCall/model/rrdb_net/sequential/rrdb_3/rdb_10/conv2d_61/Conv2D/ReadVariableOp", "op": "Const", "input": ["^input_0"], "attr": {"value": {"tensor": {"dtype": "DT_FLOAT", "tensorShape": {"dim": [{"size": "3"}, {"size": "3"}, {"size": "96"}, {"size": "32"}]}}}, "dtype": {"type": "DT_FLOAT"}}}, {"name": "StatefulPartitionedCall/StatefulPartitionedCall/model/rrdb_net/sequential/rrdb_3/rdb_10/conv2d_61/BiasAdd/ReadVariableOp", "op": "Const", "input": ["^input_0"], "attr": {"dtype": {"type": "DT_FLOAT"}, "value": {"tensor": {"dtype": "DT_FLOAT", "tensorShape": {"dim": [{"size": "32"}]}}}}}, {"name": "StatefulPartitionedCall/StatefulPartitionedCall/model/rrdb_net/sequential/rrdb_3/rdb_10/concat_2/axis", "op": "Const", "input": ["^input_0"], "attr": {"value": {"tensor": {"dtype": "DT_INT32", "tensorShape": {}}}, "dtype": {"type": "DT_INT32"}}}, {"name": "StatefulPartitionedCall/StatefulPartitionedCall/model/rrdb_net/sequential/rrdb_3/rdb_10/conv2d_62/Conv2D/ReadVariableOp", "op": "Const", "input": ["^input_0"], "attr": {"value": {"tensor": {"dtype": "DT_FLOAT", "tensorShape": {"dim": [{"size": "3"}, {"size": "3"}, {"size": "128"}, {"size": "32"}]}}}, "dtype": {"type": "DT_FLOAT"}}}, {"name": "StatefulPartitionedCall/StatefulPartitionedCall/model/rrdb_net/sequential/rrdb_3/rdb_10/conv2d_62/BiasAdd/ReadVariableOp", "op": "Const", "input": ["^input_0"], "attr": {"value": {"tensor": {"dtype": "DT_FLOAT", "tensorShape": {"dim": [{"size": "32"}]}}}, "dtype": {"type": "DT_FLOAT"}}}, {"name": "StatefulPartitionedCall/StatefulPartitionedCall/model/rrdb_net/sequential/rrdb_3/rdb_10/concat_3/axis", "op": "Const", "input": ["^input_0"], "attr": {"value": {"tensor": {"dtype": "DT_INT32", "tensorShape": {}}}, "dtype": {"type": "DT_INT32"}}}, {"name": "StatefulPartitionedCall/StatefulPartitionedCall/model/rrdb_net/sequential/rrdb_3/rdb_10/conv2d_63/Conv2D/ReadVariableOp", "op": "Const", "input": ["^input_0"], "attr": {"value": {"tensor": {"dtype": "DT_FLOAT", "tensorShape": {"dim": [{"size": "3"}, {"size": "3"}, {"size": "160"}, {"size": "32"}]}}}, "dtype": {"type": "DT_FLOAT"}}}, {"name": "StatefulPartitionedCall/StatefulPartitionedCall/model/rrdb_net/sequential/rrdb_3/rdb_10/conv2d_63/BiasAdd/ReadVariableOp", "op": "Const", "input": ["^input_0"], "attr": {"value": {"tensor": {"dtype": "DT_FLOAT", "tensorShape": {"dim": [{"size": "32"}]}}}, "dtype": {"type": "DT_FLOAT"}}}, {"name": "StatefulPartitionedCall/StatefulPartitionedCall/model/rrdb_net/sequential/rrdb_3/rdb_11/conv2d_64/Conv2D/ReadVariableOp", "op": "Const", "input": ["^input_0"], "attr": {"dtype": {"type": "DT_FLOAT"}, "value": {"tensor": {"dtype": "DT_FLOAT", "tensorShape": {"dim": [{"size": "3"}, {"size": "3"}, {"size": "32"}, {"size": "32"}]}}}}}, {"name": "StatefulPartitionedCall/StatefulPartitionedCall/model/rrdb_net/sequential/rrdb_3/rdb_11/conv2d_64/BiasAdd/ReadVariableOp", "op": "Const", "input": ["^input_0"], "attr": {"value": {"tensor": {"dtype": "DT_FLOAT", "tensorShape": {"dim": [{"size": "32"}]}}}, "dtype": {"type": "DT_FLOAT"}}}, {"name": "StatefulPartitionedCall/StatefulPartitionedCall/model/rrdb_net/sequential/rrdb_3/rdb_11/concat/axis", "op": "Const", "input": ["^input_0"], "attr": {"value": {"tensor": {"dtype": "DT_INT32", "tensorShape": {}}}, "dtype": {"type": "DT_INT32"}}}, {"name": "StatefulPartitionedCall/StatefulPartitionedCall/model/rrdb_net/sequential/rrdb_3/rdb_11/conv2d_65/Conv2D/ReadVariableOp", "op": "Const", "input": ["^input_0"], "attr": {"value": {"tensor": {"dtype": "DT_FLOAT", "tensorShape": {"dim": [{"size": "3"}, {"size": "3"}, {"size": "64"}, {"size": "32"}]}}}, "dtype": {"type": "DT_FLOAT"}}}, {"name": "StatefulPartitionedCall/StatefulPartitionedCall/model/rrdb_net/sequential/rrdb_3/rdb_11/conv2d_65/BiasAdd/ReadVariableOp", "op": "Const", "input": ["^input_0"], "attr": {"dtype": {"type": "DT_FLOAT"}, "value": {"tensor": {"dtype": "DT_FLOAT", "tensorShape": {"dim": [{"size": "32"}]}}}}}, {"name": "StatefulPartitionedCall/StatefulPartitionedCall/model/rrdb_net/sequential/rrdb_3/rdb_11/concat_1/axis", "op": "Const", "input": ["^input_0"], "attr": {"value": {"tensor": {"dtype": "DT_INT32", "tensorShape": {}}}, "dtype": {"type": "DT_INT32"}}}, {"name": "StatefulPartitionedCall/StatefulPartitionedCall/model/rrdb_net/sequential/rrdb_3/rdb_11/conv2d_66/Conv2D/ReadVariableOp", "op": "Const", "input": ["^input_0"], "attr": {"dtype": {"type": "DT_FLOAT"}, "value": {"tensor": {"dtype": "DT_FLOAT", "tensorShape": {"dim": [{"size": "3"}, {"size": "3"}, {"size": "96"}, {"size": "32"}]}}}}}, {"name": "StatefulPartitionedCall/StatefulPartitionedCall/model/rrdb_net/sequential/rrdb_3/rdb_11/conv2d_66/BiasAdd/ReadVariableOp", "op": "Const", "input": ["^input_0"], "attr": {"value": {"tensor": {"dtype": "DT_FLOAT", "tensorShape": {"dim": [{"size": "32"}]}}}, "dtype": {"type": "DT_FLOAT"}}}, {"name": "StatefulPartitionedCall/StatefulPartitionedCall/model/rrdb_net/sequential/rrdb_3/rdb_11/concat_2/axis", "op": "Const", "input": ["^input_0"], "attr": {"value": {"tensor": {"dtype": "DT_INT32", "tensorShape": {}}}, "dtype": {"type": "DT_INT32"}}}, {"name": "StatefulPartitionedCall/StatefulPartitionedCall/model/rrdb_net/sequential/rrdb_3/rdb_11/conv2d_67/Conv2D/ReadVariableOp", "op": "Const", "input": ["^input_0"], "attr": {"value": {"tensor": {"dtype": "DT_FLOAT", "tensorShape": {"dim": [{"size": "3"}, {"size": "3"}, {"size": "128"}, {"size": "32"}]}}}, "dtype": {"type": "DT_FLOAT"}}}, {"name": "StatefulPartitionedCall/StatefulPartitionedCall/model/rrdb_net/sequential/rrdb_3/rdb_11/conv2d_67/BiasAdd/ReadVariableOp", "op": "Const", "input": ["^input_0"], "attr": {"dtype": {"type": "DT_FLOAT"}, "value": {"tensor": {"dtype": "DT_FLOAT", "tensorShape": {"dim": [{"size": "32"}]}}}}}, {"name": "StatefulPartitionedCall/StatefulPartitionedCall/model/rrdb_net/sequential/rrdb_3/rdb_11/concat_3/axis", "op": "Const", "input": ["^input_0"], "attr": {"dtype": {"type": "DT_INT32"}, "value": {"tensor": {"dtype": "DT_INT32", "tensorShape": {}}}}}, {"name": "StatefulPartitionedCall/StatefulPartitionedCall/model/rrdb_net/sequential/rrdb_3/rdb_11/conv2d_68/Conv2D/ReadVariableOp", "op": "Const", "input": ["^input_0"], "attr": {"value": {"tensor": {"dtype": "DT_FLOAT", "tensorShape": {"dim": [{"size": "3"}, {"size": "3"}, {"size": "160"}, {"size": "32"}]}}}, "dtype": {"type": "DT_FLOAT"}}}, {"name": "StatefulPartitionedCall/StatefulPartitionedCall/model/rrdb_net/sequential/rrdb_3/rdb_11/conv2d_68/BiasAdd/ReadVariableOp", "op": "Const", "input": ["^input_0"], "attr": {"dtype": {"type": "DT_FLOAT"}, "value": {"tensor": {"dtype": "DT_FLOAT", "tensorShape": {"dim": [{"size": "32"}]}}}}}, {"name": "StatefulPartitionedCall/StatefulPartitionedCall/model/rrdb_net/sequential/rrdb_4/rdb_12/conv2d_69/Conv2D/ReadVariableOp", "op": "Const", "input": ["^input_0"], "attr": {"dtype": {"type": "DT_FLOAT"}, "value": {"tensor": {"dtype": "DT_FLOAT", "tensorShape": {"dim": [{"size": "3"}, {"size": "3"}, {"size": "32"}, {"size": "32"}]}}}}}, {"name": "StatefulPartitionedCall/StatefulPartitionedCall/model/rrdb_net/sequential/rrdb_4/rdb_12/conv2d_69/BiasAdd/ReadVariableOp", "op": "Const", "input": ["^input_0"], "attr": {"value": {"tensor": {"dtype": "DT_FLOAT", "tensorShape": {"dim": [{"size": "32"}]}}}, "dtype": {"type": "DT_FLOAT"}}}, {"name": "StatefulPartitionedCall/StatefulPartitionedCall/model/rrdb_net/sequential/rrdb_4/rdb_12/concat/axis", "op": "Const", "input": ["^input_0"], "attr": {"dtype": {"type": "DT_INT32"}, "value": {"tensor": {"dtype": "DT_INT32", "tensorShape": {}}}}}, {"name": "StatefulPartitionedCall/StatefulPartitionedCall/model/rrdb_net/sequential/rrdb_4/rdb_12/conv2d_70/Conv2D/ReadVariableOp", "op": "Const", "input": ["^input_0"], "attr": {"dtype": {"type": "DT_FLOAT"}, "value": {"tensor": {"dtype": "DT_FLOAT", "tensorShape": {"dim": [{"size": "3"}, {"size": "3"}, {"size": "64"}, {"size": "32"}]}}}}}, {"name": "StatefulPartitionedCall/StatefulPartitionedCall/model/rrdb_net/sequential/rrdb_4/rdb_12/conv2d_70/BiasAdd/ReadVariableOp", "op": "Const", "input": ["^input_0"], "attr": {"dtype": {"type": "DT_FLOAT"}, "value": {"tensor": {"dtype": "DT_FLOAT", "tensorShape": {"dim": [{"size": "32"}]}}}}}, {"name": "StatefulPartitionedCall/StatefulPartitionedCall/model/rrdb_net/sequential/rrdb_4/rdb_12/concat_1/axis", "op": "Const", "input": ["^input_0"], "attr": {"dtype": {"type": "DT_INT32"}, "value": {"tensor": {"dtype": "DT_INT32", "tensorShape": {}}}}}, {"name": "StatefulPartitionedCall/StatefulPartitionedCall/model/rrdb_net/sequential/rrdb_4/rdb_12/conv2d_71/Conv2D/ReadVariableOp", "op": "Const", "input": ["^input_0"], "attr": {"value": {"tensor": {"dtype": "DT_FLOAT", "tensorShape": {"dim": [{"size": "3"}, {"size": "3"}, {"size": "96"}, {"size": "32"}]}}}, "dtype": {"type": "DT_FLOAT"}}}, {"name": "StatefulPartitionedCall/StatefulPartitionedCall/model/rrdb_net/sequential/rrdb_4/rdb_12/conv2d_71/BiasAdd/ReadVariableOp", "op": "Const", "input": ["^input_0"], "attr": {"value": {"tensor": {"dtype": "DT_FLOAT", "tensorShape": {"dim": [{"size": "32"}]}}}, "dtype": {"type": "DT_FLOAT"}}}, {"name": "StatefulPartitionedCall/StatefulPartitionedCall/model/rrdb_net/sequential/rrdb_4/rdb_12/concat_2/axis", "op": "Const", "input": ["^input_0"], "attr": {"value": {"tensor": {"dtype": "DT_INT32", "tensorShape": {}}}, "dtype": {"type": "DT_INT32"}}}, {"name": "StatefulPartitionedCall/StatefulPartitionedCall/model/rrdb_net/sequential/rrdb_4/rdb_12/conv2d_72/Conv2D/ReadVariableOp", "op": "Const", "input": ["^input_0"], "attr": {"value": {"tensor": {"dtype": "DT_FLOAT", "tensorShape": {"dim": [{"size": "3"}, {"size": "3"}, {"size": "128"}, {"size": "32"}]}}}, "dtype": {"type": "DT_FLOAT"}}}, {"name": "StatefulPartitionedCall/StatefulPartitionedCall/model/rrdb_net/sequential/rrdb_4/rdb_12/conv2d_72/BiasAdd/ReadVariableOp", "op": "Const", "input": ["^input_0"], "attr": {"value": {"tensor": {"dtype": "DT_FLOAT", "tensorShape": {"dim": [{"size": "32"}]}}}, "dtype": {"type": "DT_FLOAT"}}}, {"name": "StatefulPartitionedCall/StatefulPartitionedCall/model/rrdb_net/sequential/rrdb_4/rdb_12/concat_3/axis", "op": "Const", "input": ["^input_0"], "attr": {"value": {"tensor": {"dtype": "DT_INT32", "tensorShape": {}}}, "dtype": {"type": "DT_INT32"}}}, {"name": "StatefulPartitionedCall/StatefulPartitionedCall/model/rrdb_net/sequential/rrdb_4/rdb_12/conv2d_73/Conv2D/ReadVariableOp", "op": "Const", "input": ["^input_0"], "attr": {"dtype": {"type": "DT_FLOAT"}, "value": {"tensor": {"dtype": "DT_FLOAT", "tensorShape": {"dim": [{"size": "3"}, {"size": "3"}, {"size": "160"}, {"size": "32"}]}}}}}, {"name": "StatefulPartitionedCall/StatefulPartitionedCall/model/rrdb_net/sequential/rrdb_4/rdb_12/conv2d_73/BiasAdd/ReadVariableOp", "op": "Const", "input": ["^input_0"], "attr": {"dtype": {"type": "DT_FLOAT"}, "value": {"tensor": {"dtype": "DT_FLOAT", "tensorShape": {"dim": [{"size": "32"}]}}}}}, {"name": "StatefulPartitionedCall/StatefulPartitionedCall/model/rrdb_net/sequential/rrdb_4/rdb_13/conv2d_74/Conv2D/ReadVariableOp", "op": "Const", "input": ["^input_0"], "attr": {"dtype": {"type": "DT_FLOAT"}, "value": {"tensor": {"dtype": "DT_FLOAT", "tensorShape": {"dim": [{"size": "3"}, {"size": "3"}, {"size": "32"}, {"size": "32"}]}}}}}, {"name": "StatefulPartitionedCall/StatefulPartitionedCall/model/rrdb_net/sequential/rrdb_4/rdb_13/conv2d_74/BiasAdd/ReadVariableOp", "op": "Const", "input": ["^input_0"], "attr": {"value": {"tensor": {"dtype": "DT_FLOAT", "tensorShape": {"dim": [{"size": "32"}]}}}, "dtype": {"type": "DT_FLOAT"}}}, {"name": "StatefulPartitionedCall/StatefulPartitionedCall/model/rrdb_net/sequential/rrdb_4/rdb_13/concat/axis", "op": "Const", "input": ["^input_0"], "attr": {"value": {"tensor": {"dtype": "DT_INT32", "tensorShape": {}}}, "dtype": {"type": "DT_INT32"}}}, {"name": "StatefulPartitionedCall/StatefulPartitionedCall/model/rrdb_net/sequential/rrdb_4/rdb_13/conv2d_75/Conv2D/ReadVariableOp", "op": "Const", "input": ["^input_0"], "attr": {"value": {"tensor": {"dtype": "DT_FLOAT", "tensorShape": {"dim": [{"size": "3"}, {"size": "3"}, {"size": "64"}, {"size": "32"}]}}}, "dtype": {"type": "DT_FLOAT"}}}, {"name": "StatefulPartitionedCall/StatefulPartitionedCall/model/rrdb_net/sequential/rrdb_4/rdb_13/conv2d_75/BiasAdd/ReadVariableOp", "op": "Const", "input": ["^input_0"], "attr": {"value": {"tensor": {"dtype": "DT_FLOAT", "tensorShape": {"dim": [{"size": "32"}]}}}, "dtype": {"type": "DT_FLOAT"}}}, {"name": "StatefulPartitionedCall/StatefulPartitionedCall/model/rrdb_net/sequential/rrdb_4/rdb_13/concat_1/axis", "op": "Const", "input": ["^input_0"], "attr": {"dtype": {"type": "DT_INT32"}, "value": {"tensor": {"dtype": "DT_INT32", "tensorShape": {}}}}}, {"name": "StatefulPartitionedCall/StatefulPartitionedCall/model/rrdb_net/sequential/rrdb_4/rdb_13/conv2d_76/Conv2D/ReadVariableOp", "op": "Const", "input": ["^input_0"], "attr": {"dtype": {"type": "DT_FLOAT"}, "value": {"tensor": {"dtype": "DT_FLOAT", "tensorShape": {"dim": [{"size": "3"}, {"size": "3"}, {"size": "96"}, {"size": "32"}]}}}}}, {"name": "StatefulPartitionedCall/StatefulPartitionedCall/model/rrdb_net/sequential/rrdb_4/rdb_13/conv2d_76/BiasAdd/ReadVariableOp", "op": "Const", "input": ["^input_0"], "attr": {"dtype": {"type": "DT_FLOAT"}, "value": {"tensor": {"dtype": "DT_FLOAT", "tensorShape": {"dim": [{"size": "32"}]}}}}}, {"name": "StatefulPartitionedCall/StatefulPartitionedCall/model/rrdb_net/sequential/rrdb_4/rdb_13/concat_2/axis", "op": "Const", "input": ["^input_0"], "attr": {"value": {"tensor": {"dtype": "DT_INT32", "tensorShape": {}}}, "dtype": {"type": "DT_INT32"}}}, {"name": "StatefulPartitionedCall/StatefulPartitionedCall/model/rrdb_net/sequential/rrdb_4/rdb_13/conv2d_77/Conv2D/ReadVariableOp", "op": "Const", "input": ["^input_0"], "attr": {"value": {"tensor": {"dtype": "DT_FLOAT", "tensorShape": {"dim": [{"size": "3"}, {"size": "3"}, {"size": "128"}, {"size": "32"}]}}}, "dtype": {"type": "DT_FLOAT"}}}, {"name": "StatefulPartitionedCall/StatefulPartitionedCall/model/rrdb_net/sequential/rrdb_4/rdb_13/conv2d_77/BiasAdd/ReadVariableOp", "op": "Const", "input": ["^input_0"], "attr": {"dtype": {"type": "DT_FLOAT"}, "value": {"tensor": {"dtype": "DT_FLOAT", "tensorShape": {"dim": [{"size": "32"}]}}}}}, {"name": "StatefulPartitionedCall/StatefulPartitionedCall/model/rrdb_net/sequential/rrdb_4/rdb_13/concat_3/axis", "op": "Const", "input": ["^input_0"], "attr": {"dtype": {"type": "DT_INT32"}, "value": {"tensor": {"dtype": "DT_INT32", "tensorShape": {}}}}}, {"name": "StatefulPartitionedCall/StatefulPartitionedCall/model/rrdb_net/sequential/rrdb_4/rdb_13/conv2d_78/Conv2D/ReadVariableOp", "op": "Const", "input": ["^input_0"], "attr": {"dtype": {"type": "DT_FLOAT"}, "value": {"tensor": {"dtype": "DT_FLOAT", "tensorShape": {"dim": [{"size": "3"}, {"size": "3"}, {"size": "160"}, {"size": "32"}]}}}}}, {"name": "StatefulPartitionedCall/StatefulPartitionedCall/model/rrdb_net/sequential/rrdb_4/rdb_13/conv2d_78/BiasAdd/ReadVariableOp", "op": "Const", "input": ["^input_0"], "attr": {"dtype": {"type": "DT_FLOAT"}, "value": {"tensor": {"dtype": "DT_FLOAT", "tensorShape": {"dim": [{"size": "32"}]}}}}}, {"name": "StatefulPartitionedCall/StatefulPartitionedCall/model/rrdb_net/sequential/rrdb_4/rdb_14/conv2d_79/Conv2D/ReadVariableOp", "op": "Const", "input": ["^input_0"], "attr": {"dtype": {"type": "DT_FLOAT"}, "value": {"tensor": {"dtype": "DT_FLOAT", "tensorShape": {"dim": [{"size": "3"}, {"size": "3"}, {"size": "32"}, {"size": "32"}]}}}}}, {"name": "StatefulPartitionedCall/StatefulPartitionedCall/model/rrdb_net/sequential/rrdb_4/rdb_14/conv2d_79/BiasAdd/ReadVariableOp", "op": "Const", "input": ["^input_0"], "attr": {"dtype": {"type": "DT_FLOAT"}, "value": {"tensor": {"dtype": "DT_FLOAT", "tensorShape": {"dim": [{"size": "32"}]}}}}}, {"name": "StatefulPartitionedCall/StatefulPartitionedCall/model/rrdb_net/sequential/rrdb_4/rdb_14/concat/axis", "op": "Const", "input": ["^input_0"], "attr": {"dtype": {"type": "DT_INT32"}, "value": {"tensor": {"dtype": "DT_INT32", "tensorShape": {}}}}}, {"name": "StatefulPartitionedCall/StatefulPartitionedCall/model/rrdb_net/sequential/rrdb_4/rdb_14/conv2d_80/Conv2D/ReadVariableOp", "op": "Const", "input": ["^input_0"], "attr": {"dtype": {"type": "DT_FLOAT"}, "value": {"tensor": {"dtype": "DT_FLOAT", "tensorShape": {"dim": [{"size": "3"}, {"size": "3"}, {"size": "64"}, {"size": "32"}]}}}}}, {"name": "StatefulPartitionedCall/StatefulPartitionedCall/model/rrdb_net/sequential/rrdb_4/rdb_14/conv2d_80/BiasAdd/ReadVariableOp", "op": "Const", "input": ["^input_0"], "attr": {"value": {"tensor": {"dtype": "DT_FLOAT", "tensorShape": {"dim": [{"size": "32"}]}}}, "dtype": {"type": "DT_FLOAT"}}}, {"name": "StatefulPartitionedCall/StatefulPartitionedCall/model/rrdb_net/sequential/rrdb_4/rdb_14/concat_1/axis", "op": "Const", "input": ["^input_0"], "attr": {"dtype": {"type": "DT_INT32"}, "value": {"tensor": {"dtype": "DT_INT32", "tensorShape": {}}}}}, {"name": "StatefulPartitionedCall/StatefulPartitionedCall/model/rrdb_net/sequential/rrdb_4/rdb_14/conv2d_81/Conv2D/ReadVariableOp", "op": "Const", "input": ["^input_0"], "attr": {"dtype": {"type": "DT_FLOAT"}, "value": {"tensor": {"dtype": "DT_FLOAT", "tensorShape": {"dim": [{"size": "3"}, {"size": "3"}, {"size": "96"}, {"size": "32"}]}}}}}, {"name": "StatefulPartitionedCall/StatefulPartitionedCall/model/rrdb_net/sequential/rrdb_4/rdb_14/conv2d_81/BiasAdd/ReadVariableOp", "op": "Const", "input": ["^input_0"], "attr": {"dtype": {"type": "DT_FLOAT"}, "value": {"tensor": {"dtype": "DT_FLOAT", "tensorShape": {"dim": [{"size": "32"}]}}}}}, {"name": "StatefulPartitionedCall/StatefulPartitionedCall/model/rrdb_net/sequential/rrdb_4/rdb_14/concat_2/axis", "op": "Const", "input": ["^input_0"], "attr": {"value": {"tensor": {"dtype": "DT_INT32", "tensorShape": {}}}, "dtype": {"type": "DT_INT32"}}}, {"name": "StatefulPartitionedCall/StatefulPartitionedCall/model/rrdb_net/sequential/rrdb_4/rdb_14/conv2d_82/Conv2D/ReadVariableOp", "op": "Const", "input": ["^input_0"], "attr": {"dtype": {"type": "DT_FLOAT"}, "value": {"tensor": {"dtype": "DT_FLOAT", "tensorShape": {"dim": [{"size": "3"}, {"size": "3"}, {"size": "128"}, {"size": "32"}]}}}}}, {"name": "StatefulPartitionedCall/StatefulPartitionedCall/model/rrdb_net/sequential/rrdb_4/rdb_14/conv2d_82/BiasAdd/ReadVariableOp", "op": "Const", "input": ["^input_0"], "attr": {"value": {"tensor": {"dtype": "DT_FLOAT", "tensorShape": {"dim": [{"size": "32"}]}}}, "dtype": {"type": "DT_FLOAT"}}}, {"name": "StatefulPartitionedCall/StatefulPartitionedCall/model/rrdb_net/sequential/rrdb_4/rdb_14/concat_3/axis", "op": "Const", "input": ["^input_0"], "attr": {"dtype": {"type": "DT_INT32"}, "value": {"tensor": {"dtype": "DT_INT32", "tensorShape": {}}}}}, {"name": "StatefulPartitionedCall/StatefulPartitionedCall/model/rrdb_net/sequential/rrdb_4/rdb_14/conv2d_83/Conv2D/ReadVariableOp", "op": "Const", "input": ["^input_0"], "attr": {"dtype": {"type": "DT_FLOAT"}, "value": {"tensor": {"dtype": "DT_FLOAT", "tensorShape": {"dim": [{"size": "3"}, {"size": "3"}, {"size": "160"}, {"size": "32"}]}}}}}, {"name": "StatefulPartitionedCall/StatefulPartitionedCall/model/rrdb_net/sequential/rrdb_4/rdb_14/conv2d_83/BiasAdd/ReadVariableOp", "op": "Const", "input": ["^input_0"], "attr": {"value": {"tensor": {"dtype": "DT_FLOAT", "tensorShape": {"dim": [{"size": "32"}]}}}, "dtype": {"type": "DT_FLOAT"}}}, {"name": "StatefulPartitionedCall/StatefulPartitionedCall/model/rrdb_net/sequential/rrdb_5/rdb_15/conv2d_84/Conv2D/ReadVariableOp", "op": "Const", "input": ["^input_0"], "attr": {"value": {"tensor": {"dtype": "DT_FLOAT", "tensorShape": {"dim": [{"size": "3"}, {"size": "3"}, {"size": "32"}, {"size": "32"}]}}}, "dtype": {"type": "DT_FLOAT"}}}, {"name": "StatefulPartitionedCall/StatefulPartitionedCall/model/rrdb_net/sequential/rrdb_5/rdb_15/conv2d_84/BiasAdd/ReadVariableOp", "op": "Const", "input": ["^input_0"], "attr": {"dtype": {"type": "DT_FLOAT"}, "value": {"tensor": {"dtype": "DT_FLOAT", "tensorShape": {"dim": [{"size": "32"}]}}}}}, {"name": "StatefulPartitionedCall/StatefulPartitionedCall/model/rrdb_net/sequential/rrdb_5/rdb_15/concat/axis", "op": "Const", "input": ["^input_0"], "attr": {"dtype": {"type": "DT_INT32"}, "value": {"tensor": {"dtype": "DT_INT32", "tensorShape": {}}}}}, {"name": "StatefulPartitionedCall/StatefulPartitionedCall/model/rrdb_net/sequential/rrdb_5/rdb_15/conv2d_85/Conv2D/ReadVariableOp", "op": "Const", "input": ["^input_0"], "attr": {"value": {"tensor": {"dtype": "DT_FLOAT", "tensorShape": {"dim": [{"size": "3"}, {"size": "3"}, {"size": "64"}, {"size": "32"}]}}}, "dtype": {"type": "DT_FLOAT"}}}, {"name": "StatefulPartitionedCall/StatefulPartitionedCall/model/rrdb_net/sequential/rrdb_5/rdb_15/conv2d_85/BiasAdd/ReadVariableOp", "op": "Const", "input": ["^input_0"], "attr": {"dtype": {"type": "DT_FLOAT"}, "value": {"tensor": {"dtype": "DT_FLOAT", "tensorShape": {"dim": [{"size": "32"}]}}}}}, {"name": "StatefulPartitionedCall/StatefulPartitionedCall/model/rrdb_net/sequential/rrdb_5/rdb_15/concat_1/axis", "op": "Const", "input": ["^input_0"], "attr": {"dtype": {"type": "DT_INT32"}, "value": {"tensor": {"dtype": "DT_INT32", "tensorShape": {}}}}}, {"name": "StatefulPartitionedCall/StatefulPartitionedCall/model/rrdb_net/sequential/rrdb_5/rdb_15/conv2d_86/Conv2D/ReadVariableOp", "op": "Const", "input": ["^input_0"], "attr": {"value": {"tensor": {"dtype": "DT_FLOAT", "tensorShape": {"dim": [{"size": "3"}, {"size": "3"}, {"size": "96"}, {"size": "32"}]}}}, "dtype": {"type": "DT_FLOAT"}}}, {"name": "StatefulPartitionedCall/StatefulPartitionedCall/model/rrdb_net/sequential/rrdb_5/rdb_15/conv2d_86/BiasAdd/ReadVariableOp", "op": "Const", "input": ["^input_0"], "attr": {"dtype": {"type": "DT_FLOAT"}, "value": {"tensor": {"dtype": "DT_FLOAT", "tensorShape": {"dim": [{"size": "32"}]}}}}}, {"name": "StatefulPartitionedCall/StatefulPartitionedCall/model/rrdb_net/sequential/rrdb_5/rdb_15/concat_2/axis", "op": "Const", "input": ["^input_0"], "attr": {"value": {"tensor": {"dtype": "DT_INT32", "tensorShape": {}}}, "dtype": {"type": "DT_INT32"}}}, {"name": "StatefulPartitionedCall/StatefulPartitionedCall/model/rrdb_net/sequential/rrdb_5/rdb_15/conv2d_87/Conv2D/ReadVariableOp", "op": "Const", "input": ["^input_0"], "attr": {"dtype": {"type": "DT_FLOAT"}, "value": {"tensor": {"dtype": "DT_FLOAT", "tensorShape": {"dim": [{"size": "3"}, {"size": "3"}, {"size": "128"}, {"size": "32"}]}}}}}, {"name": "StatefulPartitionedCall/StatefulPartitionedCall/model/rrdb_net/sequential/rrdb_5/rdb_15/conv2d_87/BiasAdd/ReadVariableOp", "op": "Const", "input": ["^input_0"], "attr": {"value": {"tensor": {"dtype": "DT_FLOAT", "tensorShape": {"dim": [{"size": "32"}]}}}, "dtype": {"type": "DT_FLOAT"}}}, {"name": "StatefulPartitionedCall/StatefulPartitionedCall/model/rrdb_net/sequential/rrdb_5/rdb_15/concat_3/axis", "op": "Const", "input": ["^input_0"], "attr": {"value": {"tensor": {"dtype": "DT_INT32", "tensorShape": {}}}, "dtype": {"type": "DT_INT32"}}}, {"name": "StatefulPartitionedCall/StatefulPartitionedCall/model/rrdb_net/sequential/rrdb_5/rdb_15/conv2d_88/Conv2D/ReadVariableOp", "op": "Const", "input": ["^input_0"], "attr": {"value": {"tensor": {"dtype": "DT_FLOAT", "tensorShape": {"dim": [{"size": "3"}, {"size": "3"}, {"size": "160"}, {"size": "32"}]}}}, "dtype": {"type": "DT_FLOAT"}}}, {"name": "StatefulPartitionedCall/StatefulPartitionedCall/model/rrdb_net/sequential/rrdb_5/rdb_15/conv2d_88/BiasAdd/ReadVariableOp", "op": "Const", "input": ["^input_0"], "attr": {"dtype": {"type": "DT_FLOAT"}, "value": {"tensor": {"dtype": "DT_FLOAT", "tensorShape": {"dim": [{"size": "32"}]}}}}}, {"name": "StatefulPartitionedCall/StatefulPartitionedCall/model/rrdb_net/sequential/rrdb_5/rdb_16/conv2d_89/Conv2D/ReadVariableOp", "op": "Const", "input": ["^input_0"], "attr": {"value": {"tensor": {"dtype": "DT_FLOAT", "tensorShape": {"dim": [{"size": "3"}, {"size": "3"}, {"size": "32"}, {"size": "32"}]}}}, "dtype": {"type": "DT_FLOAT"}}}, {"name": "StatefulPartitionedCall/StatefulPartitionedCall/model/rrdb_net/sequential/rrdb_5/rdb_16/conv2d_89/BiasAdd/ReadVariableOp", "op": "Const", "input": ["^input_0"], "attr": {"dtype": {"type": "DT_FLOAT"}, "value": {"tensor": {"dtype": "DT_FLOAT", "tensorShape": {"dim": [{"size": "32"}]}}}}}, {"name": "StatefulPartitionedCall/StatefulPartitionedCall/model/rrdb_net/sequential/rrdb_5/rdb_16/concat/axis", "op": "Const", "input": ["^input_0"], "attr": {"dtype": {"type": "DT_INT32"}, "value": {"tensor": {"dtype": "DT_INT32", "tensorShape": {}}}}}, {"name": "StatefulPartitionedCall/StatefulPartitionedCall/model/rrdb_net/sequential/rrdb_5/rdb_16/conv2d_90/Conv2D/ReadVariableOp", "op": "Const", "input": ["^input_0"], "attr": {"dtype": {"type": "DT_FLOAT"}, "value": {"tensor": {"dtype": "DT_FLOAT", "tensorShape": {"dim": [{"size": "3"}, {"size": "3"}, {"size": "64"}, {"size": "32"}]}}}}}, {"name": "StatefulPartitionedCall/StatefulPartitionedCall/model/rrdb_net/sequential/rrdb_5/rdb_16/conv2d_90/BiasAdd/ReadVariableOp", "op": "Const", "input": ["^input_0"], "attr": {"dtype": {"type": "DT_FLOAT"}, "value": {"tensor": {"dtype": "DT_FLOAT", "tensorShape": {"dim": [{"size": "32"}]}}}}}, {"name": "StatefulPartitionedCall/StatefulPartitionedCall/model/rrdb_net/sequential/rrdb_5/rdb_16/concat_1/axis", "op": "Const", "input": ["^input_0"], "attr": {"dtype": {"type": "DT_INT32"}, "value": {"tensor": {"dtype": "DT_INT32", "tensorShape": {}}}}}, {"name": "StatefulPartitionedCall/StatefulPartitionedCall/model/rrdb_net/sequential/rrdb_5/rdb_16/conv2d_91/Conv2D/ReadVariableOp", "op": "Const", "input": ["^input_0"], "attr": {"dtype": {"type": "DT_FLOAT"}, "value": {"tensor": {"dtype": "DT_FLOAT", "tensorShape": {"dim": [{"size": "3"}, {"size": "3"}, {"size": "96"}, {"size": "32"}]}}}}}, {"name": "StatefulPartitionedCall/StatefulPartitionedCall/model/rrdb_net/sequential/rrdb_5/rdb_16/conv2d_91/BiasAdd/ReadVariableOp", "op": "Const", "input": ["^input_0"], "attr": {"dtype": {"type": "DT_FLOAT"}, "value": {"tensor": {"dtype": "DT_FLOAT", "tensorShape": {"dim": [{"size": "32"}]}}}}}, {"name": "StatefulPartitionedCall/StatefulPartitionedCall/model/rrdb_net/sequential/rrdb_5/rdb_16/concat_2/axis", "op": "Const", "input": ["^input_0"], "attr": {"dtype": {"type": "DT_INT32"}, "value": {"tensor": {"dtype": "DT_INT32", "tensorShape": {}}}}}, {"name": "StatefulPartitionedCall/StatefulPartitionedCall/model/rrdb_net/sequential/rrdb_5/rdb_16/conv2d_92/Conv2D/ReadVariableOp", "op": "Const", "input": ["^input_0"], "attr": {"value": {"tensor": {"dtype": "DT_FLOAT", "tensorShape": {"dim": [{"size": "3"}, {"size": "3"}, {"size": "128"}, {"size": "32"}]}}}, "dtype": {"type": "DT_FLOAT"}}}, {"name": "StatefulPartitionedCall/StatefulPartitionedCall/model/rrdb_net/sequential/rrdb_5/rdb_16/conv2d_92/BiasAdd/ReadVariableOp", "op": "Const", "input": ["^input_0"], "attr": {"dtype": {"type": "DT_FLOAT"}, "value": {"tensor": {"dtype": "DT_FLOAT", "tensorShape": {"dim": [{"size": "32"}]}}}}}, {"name": "StatefulPartitionedCall/StatefulPartitionedCall/model/rrdb_net/sequential/rrdb_5/rdb_16/concat_3/axis", "op": "Const", "input": ["^input_0"], "attr": {"dtype": {"type": "DT_INT32"}, "value": {"tensor": {"dtype": "DT_INT32", "tensorShape": {}}}}}, {"name": "StatefulPartitionedCall/StatefulPartitionedCall/model/rrdb_net/sequential/rrdb_5/rdb_16/conv2d_93/Conv2D/ReadVariableOp", "op": "Const", "input": ["^input_0"], "attr": {"value": {"tensor": {"dtype": "DT_FLOAT", "tensorShape": {"dim": [{"size": "3"}, {"size": "3"}, {"size": "160"}, {"size": "32"}]}}}, "dtype": {"type": "DT_FLOAT"}}}, {"name": "StatefulPartitionedCall/StatefulPartitionedCall/model/rrdb_net/sequential/rrdb_5/rdb_16/conv2d_93/BiasAdd/ReadVariableOp", "op": "Const", "input": ["^input_0"], "attr": {"dtype": {"type": "DT_FLOAT"}, "value": {"tensor": {"dtype": "DT_FLOAT", "tensorShape": {"dim": [{"size": "32"}]}}}}}, {"name": "StatefulPartitionedCall/StatefulPartitionedCall/model/rrdb_net/sequential/rrdb_5/rdb_17/conv2d_94/Conv2D/ReadVariableOp", "op": "Const", "input": ["^input_0"], "attr": {"dtype": {"type": "DT_FLOAT"}, "value": {"tensor": {"dtype": "DT_FLOAT", "tensorShape": {"dim": [{"size": "3"}, {"size": "3"}, {"size": "32"}, {"size": "32"}]}}}}}, {"name": "StatefulPartitionedCall/StatefulPartitionedCall/model/rrdb_net/sequential/rrdb_5/rdb_17/conv2d_94/BiasAdd/ReadVariableOp", "op": "Const", "input": ["^input_0"], "attr": {"value": {"tensor": {"dtype": "DT_FLOAT", "tensorShape": {"dim": [{"size": "32"}]}}}, "dtype": {"type": "DT_FLOAT"}}}, {"name": "StatefulPartitionedCall/StatefulPartitionedCall/model/rrdb_net/sequential/rrdb_5/rdb_17/concat/axis", "op": "Const", "input": ["^input_0"], "attr": {"value": {"tensor": {"dtype": "DT_INT32", "tensorShape": {}}}, "dtype": {"type": "DT_INT32"}}}, {"name": "StatefulPartitionedCall/StatefulPartitionedCall/model/rrdb_net/sequential/rrdb_5/rdb_17/conv2d_95/Conv2D/ReadVariableOp", "op": "Const", "input": ["^input_0"], "attr": {"dtype": {"type": "DT_FLOAT"}, "value": {"tensor": {"dtype": "DT_FLOAT", "tensorShape": {"dim": [{"size": "3"}, {"size": "3"}, {"size": "64"}, {"size": "32"}]}}}}}, {"name": "StatefulPartitionedCall/StatefulPartitionedCall/model/rrdb_net/sequential/rrdb_5/rdb_17/conv2d_95/BiasAdd/ReadVariableOp", "op": "Const", "input": ["^input_0"], "attr": {"dtype": {"type": "DT_FLOAT"}, "value": {"tensor": {"dtype": "DT_FLOAT", "tensorShape": {"dim": [{"size": "32"}]}}}}}, {"name": "StatefulPartitionedCall/StatefulPartitionedCall/model/rrdb_net/sequential/rrdb_5/rdb_17/concat_1/axis", "op": "Const", "input": ["^input_0"], "attr": {"dtype": {"type": "DT_INT32"}, "value": {"tensor": {"dtype": "DT_INT32", "tensorShape": {}}}}}, {"name": "StatefulPartitionedCall/StatefulPartitionedCall/model/rrdb_net/sequential/rrdb_5/rdb_17/conv2d_96/Conv2D/ReadVariableOp", "op": "Const", "input": ["^input_0"], "attr": {"value": {"tensor": {"dtype": "DT_FLOAT", "tensorShape": {"dim": [{"size": "3"}, {"size": "3"}, {"size": "96"}, {"size": "32"}]}}}, "dtype": {"type": "DT_FLOAT"}}}, {"name": "StatefulPartitionedCall/StatefulPartitionedCall/model/rrdb_net/sequential/rrdb_5/rdb_17/conv2d_96/BiasAdd/ReadVariableOp", "op": "Const", "input": ["^input_0"], "attr": {"dtype": {"type": "DT_FLOAT"}, "value": {"tensor": {"dtype": "DT_FLOAT", "tensorShape": {"dim": [{"size": "32"}]}}}}}, {"name": "StatefulPartitionedCall/StatefulPartitionedCall/model/rrdb_net/sequential/rrdb_5/rdb_17/concat_2/axis", "op": "Const", "input": ["^input_0"], "attr": {"dtype": {"type": "DT_INT32"}, "value": {"tensor": {"dtype": "DT_INT32", "tensorShape": {}}}}}, {"name": "StatefulPartitionedCall/StatefulPartitionedCall/model/rrdb_net/sequential/rrdb_5/rdb_17/conv2d_97/Conv2D/ReadVariableOp", "op": "Const", "input": ["^input_0"], "attr": {"dtype": {"type": "DT_FLOAT"}, "value": {"tensor": {"dtype": "DT_FLOAT", "tensorShape": {"dim": [{"size": "3"}, {"size": "3"}, {"size": "128"}, {"size": "32"}]}}}}}, {"name": "StatefulPartitionedCall/StatefulPartitionedCall/model/rrdb_net/sequential/rrdb_5/rdb_17/conv2d_97/BiasAdd/ReadVariableOp", "op": "Const", "input": ["^input_0"], "attr": {"dtype": {"type": "DT_FLOAT"}, "value": {"tensor": {"dtype": "DT_FLOAT", "tensorShape": {"dim": [{"size": "32"}]}}}}}, {"name": "StatefulPartitionedCall/StatefulPartitionedCall/model/rrdb_net/sequential/rrdb_5/rdb_17/concat_3/axis", "op": "Const", "input": ["^input_0"], "attr": {"dtype": {"type": "DT_INT32"}, "value": {"tensor": {"dtype": "DT_INT32", "tensorShape": {}}}}}, {"name": "StatefulPartitionedCall/StatefulPartitionedCall/model/rrdb_net/sequential/rrdb_5/rdb_17/conv2d_98/Conv2D/ReadVariableOp", "op": "Const", "input": ["^input_0"], "attr": {"value": {"tensor": {"dtype": "DT_FLOAT", "tensorShape": {"dim": [{"size": "3"}, {"size": "3"}, {"size": "160"}, {"size": "32"}]}}}, "dtype": {"type": "DT_FLOAT"}}}, {"name": "StatefulPartitionedCall/StatefulPartitionedCall/model/rrdb_net/sequential/rrdb_5/rdb_17/conv2d_98/BiasAdd/ReadVariableOp", "op": "Const", "input": ["^input_0"], "attr": {"dtype": {"type": "DT_FLOAT"}, "value": {"tensor": {"dtype": "DT_FLOAT", "tensorShape": {"dim": [{"size": "32"}]}}}}}, {"name": "StatefulPartitionedCall/StatefulPartitionedCall/model/rrdb_net/sequential/rrdb_6/rdb_18/conv2d_99/Conv2D/ReadVariableOp", "op": "Const", "input": ["^input_0"], "attr": {"value": {"tensor": {"dtype": "DT_FLOAT", "tensorShape": {"dim": [{"size": "3"}, {"size": "3"}, {"size": "32"}, {"size": "32"}]}}}, "dtype": {"type": "DT_FLOAT"}}}, {"name": "StatefulPartitionedCall/StatefulPartitionedCall/model/rrdb_net/sequential/rrdb_6/rdb_18/conv2d_99/BiasAdd/ReadVariableOp", "op": "Const", "input": ["^input_0"], "attr": {"dtype": {"type": "DT_FLOAT"}, "value": {"tensor": {"dtype": "DT_FLOAT", "tensorShape": {"dim": [{"size": "32"}]}}}}}, {"name": "StatefulPartitionedCall/StatefulPartitionedCall/model/rrdb_net/sequential/rrdb_6/rdb_18/concat/axis", "op": "Const", "input": ["^input_0"], "attr": {"value": {"tensor": {"dtype": "DT_INT32", "tensorShape": {}}}, "dtype": {"type": "DT_INT32"}}}, {"name": "StatefulPartitionedCall/StatefulPartitionedCall/model/rrdb_net/sequential/rrdb_6/rdb_18/conv2d_100/Conv2D/ReadVariableOp", "op": "Const", "input": ["^input_0"], "attr": {"value": {"tensor": {"dtype": "DT_FLOAT", "tensorShape": {"dim": [{"size": "3"}, {"size": "3"}, {"size": "64"}, {"size": "32"}]}}}, "dtype": {"type": "DT_FLOAT"}}}, {"name": "StatefulPartitionedCall/StatefulPartitionedCall/model/rrdb_net/sequential/rrdb_6/rdb_18/conv2d_100/BiasAdd/ReadVariableOp", "op": "Const", "input": ["^input_0"], "attr": {"value": {"tensor": {"dtype": "DT_FLOAT", "tensorShape": {"dim": [{"size": "32"}]}}}, "dtype": {"type": "DT_FLOAT"}}}, {"name": "StatefulPartitionedCall/StatefulPartitionedCall/model/rrdb_net/sequential/rrdb_6/rdb_18/concat_1/axis", "op": "Const", "input": ["^input_0"], "attr": {"dtype": {"type": "DT_INT32"}, "value": {"tensor": {"dtype": "DT_INT32", "tensorShape": {}}}}}, {"name": "StatefulPartitionedCall/StatefulPartitionedCall/model/rrdb_net/sequential/rrdb_6/rdb_18/conv2d_101/Conv2D/ReadVariableOp", "op": "Const", "input": ["^input_0"], "attr": {"value": {"tensor": {"dtype": "DT_FLOAT", "tensorShape": {"dim": [{"size": "3"}, {"size": "3"}, {"size": "96"}, {"size": "32"}]}}}, "dtype": {"type": "DT_FLOAT"}}}, {"name": "StatefulPartitionedCall/StatefulPartitionedCall/model/rrdb_net/sequential/rrdb_6/rdb_18/conv2d_101/BiasAdd/ReadVariableOp", "op": "Const", "input": ["^input_0"], "attr": {"dtype": {"type": "DT_FLOAT"}, "value": {"tensor": {"dtype": "DT_FLOAT", "tensorShape": {"dim": [{"size": "32"}]}}}}}, {"name": "StatefulPartitionedCall/StatefulPartitionedCall/model/rrdb_net/sequential/rrdb_6/rdb_18/concat_2/axis", "op": "Const", "input": ["^input_0"], "attr": {"dtype": {"type": "DT_INT32"}, "value": {"tensor": {"dtype": "DT_INT32", "tensorShape": {}}}}}, {"name": "StatefulPartitionedCall/StatefulPartitionedCall/model/rrdb_net/sequential/rrdb_6/rdb_18/conv2d_102/Conv2D/ReadVariableOp", "op": "Const", "input": ["^input_0"], "attr": {"dtype": {"type": "DT_FLOAT"}, "value": {"tensor": {"dtype": "DT_FLOAT", "tensorShape": {"dim": [{"size": "3"}, {"size": "3"}, {"size": "128"}, {"size": "32"}]}}}}}, {"name": "StatefulPartitionedCall/StatefulPartitionedCall/model/rrdb_net/sequential/rrdb_6/rdb_18/conv2d_102/BiasAdd/ReadVariableOp", "op": "Const", "input": ["^input_0"], "attr": {"value": {"tensor": {"dtype": "DT_FLOAT", "tensorShape": {"dim": [{"size": "32"}]}}}, "dtype": {"type": "DT_FLOAT"}}}, {"name": "StatefulPartitionedCall/StatefulPartitionedCall/model/rrdb_net/sequential/rrdb_6/rdb_18/concat_3/axis", "op": "Const", "input": ["^input_0"], "attr": {"dtype": {"type": "DT_INT32"}, "value": {"tensor": {"dtype": "DT_INT32", "tensorShape": {}}}}}, {"name": "StatefulPartitionedCall/StatefulPartitionedCall/model/rrdb_net/sequential/rrdb_6/rdb_18/conv2d_103/Conv2D/ReadVariableOp", "op": "Const", "input": ["^input_0"], "attr": {"dtype": {"type": "DT_FLOAT"}, "value": {"tensor": {"dtype": "DT_FLOAT", "tensorShape": {"dim": [{"size": "3"}, {"size": "3"}, {"size": "160"}, {"size": "32"}]}}}}}, {"name": "StatefulPartitionedCall/StatefulPartitionedCall/model/rrdb_net/sequential/rrdb_6/rdb_18/conv2d_103/BiasAdd/ReadVariableOp", "op": "Const", "input": ["^input_0"], "attr": {"dtype": {"type": "DT_FLOAT"}, "value": {"tensor": {"dtype": "DT_FLOAT", "tensorShape": {"dim": [{"size": "32"}]}}}}}, {"name": "StatefulPartitionedCall/StatefulPartitionedCall/model/rrdb_net/sequential/rrdb_6/rdb_19/conv2d_104/Conv2D/ReadVariableOp", "op": "Const", "input": ["^input_0"], "attr": {"dtype": {"type": "DT_FLOAT"}, "value": {"tensor": {"dtype": "DT_FLOAT", "tensorShape": {"dim": [{"size": "3"}, {"size": "3"}, {"size": "32"}, {"size": "32"}]}}}}}, {"name": "StatefulPartitionedCall/StatefulPartitionedCall/model/rrdb_net/sequential/rrdb_6/rdb_19/conv2d_104/BiasAdd/ReadVariableOp", "op": "Const", "input": ["^input_0"], "attr": {"value": {"tensor": {"dtype": "DT_FLOAT", "tensorShape": {"dim": [{"size": "32"}]}}}, "dtype": {"type": "DT_FLOAT"}}}, {"name": "StatefulPartitionedCall/StatefulPartitionedCall/model/rrdb_net/sequential/rrdb_6/rdb_19/concat/axis", "op": "Const", "input": ["^input_0"], "attr": {"dtype": {"type": "DT_INT32"}, "value": {"tensor": {"dtype": "DT_INT32", "tensorShape": {}}}}}, {"name": "StatefulPartitionedCall/StatefulPartitionedCall/model/rrdb_net/sequential/rrdb_6/rdb_19/conv2d_105/Conv2D/ReadVariableOp", "op": "Const", "input": ["^input_0"], "attr": {"value": {"tensor": {"dtype": "DT_FLOAT", "tensorShape": {"dim": [{"size": "3"}, {"size": "3"}, {"size": "64"}, {"size": "32"}]}}}, "dtype": {"type": "DT_FLOAT"}}}, {"name": "StatefulPartitionedCall/StatefulPartitionedCall/model/rrdb_net/sequential/rrdb_6/rdb_19/conv2d_105/BiasAdd/ReadVariableOp", "op": "Const", "input": ["^input_0"], "attr": {"value": {"tensor": {"dtype": "DT_FLOAT", "tensorShape": {"dim": [{"size": "32"}]}}}, "dtype": {"type": "DT_FLOAT"}}}, {"name": "StatefulPartitionedCall/StatefulPartitionedCall/model/rrdb_net/sequential/rrdb_6/rdb_19/concat_1/axis", "op": "Const", "input": ["^input_0"], "attr": {"dtype": {"type": "DT_INT32"}, "value": {"tensor": {"dtype": "DT_INT32", "tensorShape": {}}}}}, {"name": "StatefulPartitionedCall/StatefulPartitionedCall/model/rrdb_net/sequential/rrdb_6/rdb_19/conv2d_106/Conv2D/ReadVariableOp", "op": "Const", "input": ["^input_0"], "attr": {"value": {"tensor": {"dtype": "DT_FLOAT", "tensorShape": {"dim": [{"size": "3"}, {"size": "3"}, {"size": "96"}, {"size": "32"}]}}}, "dtype": {"type": "DT_FLOAT"}}}, {"name": "StatefulPartitionedCall/StatefulPartitionedCall/model/rrdb_net/sequential/rrdb_6/rdb_19/conv2d_106/BiasAdd/ReadVariableOp", "op": "Const", "input": ["^input_0"], "attr": {"value": {"tensor": {"dtype": "DT_FLOAT", "tensorShape": {"dim": [{"size": "32"}]}}}, "dtype": {"type": "DT_FLOAT"}}}, {"name": "StatefulPartitionedCall/StatefulPartitionedCall/model/rrdb_net/sequential/rrdb_6/rdb_19/concat_2/axis", "op": "Const", "input": ["^input_0"], "attr": {"value": {"tensor": {"dtype": "DT_INT32", "tensorShape": {}}}, "dtype": {"type": "DT_INT32"}}}, {"name": "StatefulPartitionedCall/StatefulPartitionedCall/model/rrdb_net/sequential/rrdb_6/rdb_19/conv2d_107/Conv2D/ReadVariableOp", "op": "Const", "input": ["^input_0"], "attr": {"dtype": {"type": "DT_FLOAT"}, "value": {"tensor": {"dtype": "DT_FLOAT", "tensorShape": {"dim": [{"size": "3"}, {"size": "3"}, {"size": "128"}, {"size": "32"}]}}}}}, {"name": "StatefulPartitionedCall/StatefulPartitionedCall/model/rrdb_net/sequential/rrdb_6/rdb_19/conv2d_107/BiasAdd/ReadVariableOp", "op": "Const", "input": ["^input_0"], "attr": {"value": {"tensor": {"dtype": "DT_FLOAT", "tensorShape": {"dim": [{"size": "32"}]}}}, "dtype": {"type": "DT_FLOAT"}}}, {"name": "StatefulPartitionedCall/StatefulPartitionedCall/model/rrdb_net/sequential/rrdb_6/rdb_19/concat_3/axis", "op": "Const", "input": ["^input_0"], "attr": {"dtype": {"type": "DT_INT32"}, "value": {"tensor": {"dtype": "DT_INT32", "tensorShape": {}}}}}, {"name": "StatefulPartitionedCall/StatefulPartitionedCall/model/rrdb_net/sequential/rrdb_6/rdb_19/conv2d_108/Conv2D/ReadVariableOp", "op": "Const", "input": ["^input_0"], "attr": {"dtype": {"type": "DT_FLOAT"}, "value": {"tensor": {"dtype": "DT_FLOAT", "tensorShape": {"dim": [{"size": "3"}, {"size": "3"}, {"size": "160"}, {"size": "32"}]}}}}}, {"name": "StatefulPartitionedCall/StatefulPartitionedCall/model/rrdb_net/sequential/rrdb_6/rdb_19/conv2d_108/BiasAdd/ReadVariableOp", "op": "Const", "input": ["^input_0"], "attr": {"dtype": {"type": "DT_FLOAT"}, "value": {"tensor": {"dtype": "DT_FLOAT", "tensorShape": {"dim": [{"size": "32"}]}}}}}, {"name": "StatefulPartitionedCall/StatefulPartitionedCall/model/rrdb_net/sequential/rrdb_6/rdb_20/conv2d_109/Conv2D/ReadVariableOp", "op": "Const", "input": ["^input_0"], "attr": {"dtype": {"type": "DT_FLOAT"}, "value": {"tensor": {"dtype": "DT_FLOAT", "tensorShape": {"dim": [{"size": "3"}, {"size": "3"}, {"size": "32"}, {"size": "32"}]}}}}}, {"name": "StatefulPartitionedCall/StatefulPartitionedCall/model/rrdb_net/sequential/rrdb_6/rdb_20/conv2d_109/BiasAdd/ReadVariableOp", "op": "Const", "input": ["^input_0"], "attr": {"value": {"tensor": {"dtype": "DT_FLOAT", "tensorShape": {"dim": [{"size": "32"}]}}}, "dtype": {"type": "DT_FLOAT"}}}, {"name": "StatefulPartitionedCall/StatefulPartitionedCall/model/rrdb_net/sequential/rrdb_6/rdb_20/concat/axis", "op": "Const", "input": ["^input_0"], "attr": {"value": {"tensor": {"dtype": "DT_INT32", "tensorShape": {}}}, "dtype": {"type": "DT_INT32"}}}, {"name": "StatefulPartitionedCall/StatefulPartitionedCall/model/rrdb_net/sequential/rrdb_6/rdb_20/conv2d_110/Conv2D/ReadVariableOp", "op": "Const", "input": ["^input_0"], "attr": {"dtype": {"type": "DT_FLOAT"}, "value": {"tensor": {"dtype": "DT_FLOAT", "tensorShape": {"dim": [{"size": "3"}, {"size": "3"}, {"size": "64"}, {"size": "32"}]}}}}}, {"name": "StatefulPartitionedCall/StatefulPartitionedCall/model/rrdb_net/sequential/rrdb_6/rdb_20/conv2d_110/BiasAdd/ReadVariableOp", "op": "Const", "input": ["^input_0"], "attr": {"value": {"tensor": {"dtype": "DT_FLOAT", "tensorShape": {"dim": [{"size": "32"}]}}}, "dtype": {"type": "DT_FLOAT"}}}, {"name": "StatefulPartitionedCall/StatefulPartitionedCall/model/rrdb_net/sequential/rrdb_6/rdb_20/concat_1/axis", "op": "Const", "input": ["^input_0"], "attr": {"dtype": {"type": "DT_INT32"}, "value": {"tensor": {"dtype": "DT_INT32", "tensorShape": {}}}}}, {"name": "StatefulPartitionedCall/StatefulPartitionedCall/model/rrdb_net/sequential/rrdb_6/rdb_20/conv2d_111/Conv2D/ReadVariableOp", "op": "Const", "input": ["^input_0"], "attr": {"value": {"tensor": {"dtype": "DT_FLOAT", "tensorShape": {"dim": [{"size": "3"}, {"size": "3"}, {"size": "96"}, {"size": "32"}]}}}, "dtype": {"type": "DT_FLOAT"}}}, {"name": "StatefulPartitionedCall/StatefulPartitionedCall/model/rrdb_net/sequential/rrdb_6/rdb_20/conv2d_111/BiasAdd/ReadVariableOp", "op": "Const", "input": ["^input_0"], "attr": {"dtype": {"type": "DT_FLOAT"}, "value": {"tensor": {"dtype": "DT_FLOAT", "tensorShape": {"dim": [{"size": "32"}]}}}}}, {"name": "StatefulPartitionedCall/StatefulPartitionedCall/model/rrdb_net/sequential/rrdb_6/rdb_20/concat_2/axis", "op": "Const", "input": ["^input_0"], "attr": {"dtype": {"type": "DT_INT32"}, "value": {"tensor": {"dtype": "DT_INT32", "tensorShape": {}}}}}, {"name": "StatefulPartitionedCall/StatefulPartitionedCall/model/rrdb_net/sequential/rrdb_6/rdb_20/conv2d_112/Conv2D/ReadVariableOp", "op": "Const", "input": ["^input_0"], "attr": {"dtype": {"type": "DT_FLOAT"}, "value": {"tensor": {"dtype": "DT_FLOAT", "tensorShape": {"dim": [{"size": "3"}, {"size": "3"}, {"size": "128"}, {"size": "32"}]}}}}}, {"name": "StatefulPartitionedCall/StatefulPartitionedCall/model/rrdb_net/sequential/rrdb_6/rdb_20/conv2d_112/BiasAdd/ReadVariableOp", "op": "Const", "input": ["^input_0"], "attr": {"dtype": {"type": "DT_FLOAT"}, "value": {"tensor": {"dtype": "DT_FLOAT", "tensorShape": {"dim": [{"size": "32"}]}}}}}, {"name": "StatefulPartitionedCall/StatefulPartitionedCall/model/rrdb_net/sequential/rrdb_6/rdb_20/concat_3/axis", "op": "Const", "input": ["^input_0"], "attr": {"value": {"tensor": {"dtype": "DT_INT32", "tensorShape": {}}}, "dtype": {"type": "DT_INT32"}}}, {"name": "StatefulPartitionedCall/StatefulPartitionedCall/model/rrdb_net/sequential/rrdb_6/rdb_20/conv2d_113/Conv2D/ReadVariableOp", "op": "Const", "input": ["^input_0"], "attr": {"value": {"tensor": {"dtype": "DT_FLOAT", "tensorShape": {"dim": [{"size": "3"}, {"size": "3"}, {"size": "160"}, {"size": "32"}]}}}, "dtype": {"type": "DT_FLOAT"}}}, {"name": "StatefulPartitionedCall/StatefulPartitionedCall/model/rrdb_net/sequential/rrdb_6/rdb_20/conv2d_113/BiasAdd/ReadVariableOp", "op": "Const", "input": ["^input_0"], "attr": {"value": {"tensor": {"dtype": "DT_FLOAT", "tensorShape": {"dim": [{"size": "32"}]}}}, "dtype": {"type": "DT_FLOAT"}}}, {"name": "StatefulPartitionedCall/StatefulPartitionedCall/model/rrdb_net/sequential/rrdb_7/rdb_21/conv2d_114/Conv2D/ReadVariableOp", "op": "Const", "input": ["^input_0"], "attr": {"value": {"tensor": {"dtype": "DT_FLOAT", "tensorShape": {"dim": [{"size": "3"}, {"size": "3"}, {"size": "32"}, {"size": "32"}]}}}, "dtype": {"type": "DT_FLOAT"}}}, {"name": "StatefulPartitionedCall/StatefulPartitionedCall/model/rrdb_net/sequential/rrdb_7/rdb_21/conv2d_114/BiasAdd/ReadVariableOp", "op": "Const", "input": ["^input_0"], "attr": {"dtype": {"type": "DT_FLOAT"}, "value": {"tensor": {"dtype": "DT_FLOAT", "tensorShape": {"dim": [{"size": "32"}]}}}}}, {"name": "StatefulPartitionedCall/StatefulPartitionedCall/model/rrdb_net/sequential/rrdb_7/rdb_21/concat/axis", "op": "Const", "input": ["^input_0"], "attr": {"dtype": {"type": "DT_INT32"}, "value": {"tensor": {"dtype": "DT_INT32", "tensorShape": {}}}}}, {"name": "StatefulPartitionedCall/StatefulPartitionedCall/model/rrdb_net/sequential/rrdb_7/rdb_21/conv2d_115/Conv2D/ReadVariableOp", "op": "Const", "input": ["^input_0"], "attr": {"dtype": {"type": "DT_FLOAT"}, "value": {"tensor": {"dtype": "DT_FLOAT", "tensorShape": {"dim": [{"size": "3"}, {"size": "3"}, {"size": "64"}, {"size": "32"}]}}}}}, {"name": "StatefulPartitionedCall/StatefulPartitionedCall/model/rrdb_net/sequential/rrdb_7/rdb_21/conv2d_115/BiasAdd/ReadVariableOp", "op": "Const", "input": ["^input_0"], "attr": {"value": {"tensor": {"dtype": "DT_FLOAT", "tensorShape": {"dim": [{"size": "32"}]}}}, "dtype": {"type": "DT_FLOAT"}}}, {"name": "StatefulPartitionedCall/StatefulPartitionedCall/model/rrdb_net/sequential/rrdb_7/rdb_21/concat_1/axis", "op": "Const", "input": ["^input_0"], "attr": {"dtype": {"type": "DT_INT32"}, "value": {"tensor": {"dtype": "DT_INT32", "tensorShape": {}}}}}, {"name": "StatefulPartitionedCall/StatefulPartitionedCall/model/rrdb_net/sequential/rrdb_7/rdb_21/conv2d_116/Conv2D/ReadVariableOp", "op": "Const", "input": ["^input_0"], "attr": {"dtype": {"type": "DT_FLOAT"}, "value": {"tensor": {"dtype": "DT_FLOAT", "tensorShape": {"dim": [{"size": "3"}, {"size": "3"}, {"size": "96"}, {"size": "32"}]}}}}}, {"name": "StatefulPartitionedCall/StatefulPartitionedCall/model/rrdb_net/sequential/rrdb_7/rdb_21/conv2d_116/BiasAdd/ReadVariableOp", "op": "Const", "input": ["^input_0"], "attr": {"dtype": {"type": "DT_FLOAT"}, "value": {"tensor": {"dtype": "DT_FLOAT", "tensorShape": {"dim": [{"size": "32"}]}}}}}, {"name": "StatefulPartitionedCall/StatefulPartitionedCall/model/rrdb_net/sequential/rrdb_7/rdb_21/concat_2/axis", "op": "Const", "input": ["^input_0"], "attr": {"dtype": {"type": "DT_INT32"}, "value": {"tensor": {"dtype": "DT_INT32", "tensorShape": {}}}}}, {"name": "StatefulPartitionedCall/StatefulPartitionedCall/model/rrdb_net/sequential/rrdb_7/rdb_21/conv2d_117/Conv2D/ReadVariableOp", "op": "Const", "input": ["^input_0"], "attr": {"value": {"tensor": {"dtype": "DT_FLOAT", "tensorShape": {"dim": [{"size": "3"}, {"size": "3"}, {"size": "128"}, {"size": "32"}]}}}, "dtype": {"type": "DT_FLOAT"}}}, {"name": "StatefulPartitionedCall/StatefulPartitionedCall/model/rrdb_net/sequential/rrdb_7/rdb_21/conv2d_117/BiasAdd/ReadVariableOp", "op": "Const", "input": ["^input_0"], "attr": {"dtype": {"type": "DT_FLOAT"}, "value": {"tensor": {"dtype": "DT_FLOAT", "tensorShape": {"dim": [{"size": "32"}]}}}}}, {"name": "StatefulPartitionedCall/StatefulPartitionedCall/model/rrdb_net/sequential/rrdb_7/rdb_21/concat_3/axis", "op": "Const", "input": ["^input_0"], "attr": {"value": {"tensor": {"dtype": "DT_INT32", "tensorShape": {}}}, "dtype": {"type": "DT_INT32"}}}, {"name": "StatefulPartitionedCall/StatefulPartitionedCall/model/rrdb_net/sequential/rrdb_7/rdb_21/conv2d_118/Conv2D/ReadVariableOp", "op": "Const", "input": ["^input_0"], "attr": {"value": {"tensor": {"dtype": "DT_FLOAT", "tensorShape": {"dim": [{"size": "3"}, {"size": "3"}, {"size": "160"}, {"size": "32"}]}}}, "dtype": {"type": "DT_FLOAT"}}}, {"name": "StatefulPartitionedCall/StatefulPartitionedCall/model/rrdb_net/sequential/rrdb_7/rdb_21/conv2d_118/BiasAdd/ReadVariableOp", "op": "Const", "input": ["^input_0"], "attr": {"value": {"tensor": {"dtype": "DT_FLOAT", "tensorShape": {"dim": [{"size": "32"}]}}}, "dtype": {"type": "DT_FLOAT"}}}, {"name": "StatefulPartitionedCall/StatefulPartitionedCall/model/rrdb_net/sequential/rrdb_7/rdb_22/conv2d_119/Conv2D/ReadVariableOp", "op": "Const", "input": ["^input_0"], "attr": {"dtype": {"type": "DT_FLOAT"}, "value": {"tensor": {"dtype": "DT_FLOAT", "tensorShape": {"dim": [{"size": "3"}, {"size": "3"}, {"size": "32"}, {"size": "32"}]}}}}}, {"name": "StatefulPartitionedCall/StatefulPartitionedCall/model/rrdb_net/sequential/rrdb_7/rdb_22/conv2d_119/BiasAdd/ReadVariableOp", "op": "Const", "input": ["^input_0"], "attr": {"value": {"tensor": {"dtype": "DT_FLOAT", "tensorShape": {"dim": [{"size": "32"}]}}}, "dtype": {"type": "DT_FLOAT"}}}, {"name": "StatefulPartitionedCall/StatefulPartitionedCall/model/rrdb_net/sequential/rrdb_7/rdb_22/concat/axis", "op": "Const", "input": ["^input_0"], "attr": {"value": {"tensor": {"dtype": "DT_INT32", "tensorShape": {}}}, "dtype": {"type": "DT_INT32"}}}, {"name": "StatefulPartitionedCall/StatefulPartitionedCall/model/rrdb_net/sequential/rrdb_7/rdb_22/conv2d_120/Conv2D/ReadVariableOp", "op": "Const", "input": ["^input_0"], "attr": {"dtype": {"type": "DT_FLOAT"}, "value": {"tensor": {"dtype": "DT_FLOAT", "tensorShape": {"dim": [{"size": "3"}, {"size": "3"}, {"size": "64"}, {"size": "32"}]}}}}}, {"name": "StatefulPartitionedCall/StatefulPartitionedCall/model/rrdb_net/sequential/rrdb_7/rdb_22/conv2d_120/BiasAdd/ReadVariableOp", "op": "Const", "input": ["^input_0"], "attr": {"value": {"tensor": {"dtype": "DT_FLOAT", "tensorShape": {"dim": [{"size": "32"}]}}}, "dtype": {"type": "DT_FLOAT"}}}, {"name": "StatefulPartitionedCall/StatefulPartitionedCall/model/rrdb_net/sequential/rrdb_7/rdb_22/concat_1/axis", "op": "Const", "input": ["^input_0"], "attr": {"dtype": {"type": "DT_INT32"}, "value": {"tensor": {"dtype": "DT_INT32", "tensorShape": {}}}}}, {"name": "StatefulPartitionedCall/StatefulPartitionedCall/model/rrdb_net/sequential/rrdb_7/rdb_22/conv2d_121/Conv2D/ReadVariableOp", "op": "Const", "input": ["^input_0"], "attr": {"dtype": {"type": "DT_FLOAT"}, "value": {"tensor": {"dtype": "DT_FLOAT", "tensorShape": {"dim": [{"size": "3"}, {"size": "3"}, {"size": "96"}, {"size": "32"}]}}}}}, {"name": "StatefulPartitionedCall/StatefulPartitionedCall/model/rrdb_net/sequential/rrdb_7/rdb_22/conv2d_121/BiasAdd/ReadVariableOp", "op": "Const", "input": ["^input_0"], "attr": {"value": {"tensor": {"dtype": "DT_FLOAT", "tensorShape": {"dim": [{"size": "32"}]}}}, "dtype": {"type": "DT_FLOAT"}}}, {"name": "StatefulPartitionedCall/StatefulPartitionedCall/model/rrdb_net/sequential/rrdb_7/rdb_22/concat_2/axis", "op": "Const", "input": ["^input_0"], "attr": {"dtype": {"type": "DT_INT32"}, "value": {"tensor": {"dtype": "DT_INT32", "tensorShape": {}}}}}, {"name": "StatefulPartitionedCall/StatefulPartitionedCall/model/rrdb_net/sequential/rrdb_7/rdb_22/conv2d_122/Conv2D/ReadVariableOp", "op": "Const", "input": ["^input_0"], "attr": {"value": {"tensor": {"dtype": "DT_FLOAT", "tensorShape": {"dim": [{"size": "3"}, {"size": "3"}, {"size": "128"}, {"size": "32"}]}}}, "dtype": {"type": "DT_FLOAT"}}}, {"name": "StatefulPartitionedCall/StatefulPartitionedCall/model/rrdb_net/sequential/rrdb_7/rdb_22/conv2d_122/BiasAdd/ReadVariableOp", "op": "Const", "input": ["^input_0"], "attr": {"dtype": {"type": "DT_FLOAT"}, "value": {"tensor": {"dtype": "DT_FLOAT", "tensorShape": {"dim": [{"size": "32"}]}}}}}, {"name": "StatefulPartitionedCall/StatefulPartitionedCall/model/rrdb_net/sequential/rrdb_7/rdb_22/concat_3/axis", "op": "Const", "input": ["^input_0"], "attr": {"value": {"tensor": {"dtype": "DT_INT32", "tensorShape": {}}}, "dtype": {"type": "DT_INT32"}}}, {"name": "StatefulPartitionedCall/StatefulPartitionedCall/model/rrdb_net/sequential/rrdb_7/rdb_22/conv2d_123/Conv2D/ReadVariableOp", "op": "Const", "input": ["^input_0"], "attr": {"value": {"tensor": {"dtype": "DT_FLOAT", "tensorShape": {"dim": [{"size": "3"}, {"size": "3"}, {"size": "160"}, {"size": "32"}]}}}, "dtype": {"type": "DT_FLOAT"}}}, {"name": "StatefulPartitionedCall/StatefulPartitionedCall/model/rrdb_net/sequential/rrdb_7/rdb_22/conv2d_123/BiasAdd/ReadVariableOp", "op": "Const", "input": ["^input_0"], "attr": {"value": {"tensor": {"dtype": "DT_FLOAT", "tensorShape": {"dim": [{"size": "32"}]}}}, "dtype": {"type": "DT_FLOAT"}}}, {"name": "StatefulPartitionedCall/StatefulPartitionedCall/model/rrdb_net/sequential/rrdb_7/rdb_23/conv2d_124/Conv2D/ReadVariableOp", "op": "Const", "input": ["^input_0"], "attr": {"value": {"tensor": {"dtype": "DT_FLOAT", "tensorShape": {"dim": [{"size": "3"}, {"size": "3"}, {"size": "32"}, {"size": "32"}]}}}, "dtype": {"type": "DT_FLOAT"}}}, {"name": "StatefulPartitionedCall/StatefulPartitionedCall/model/rrdb_net/sequential/rrdb_7/rdb_23/conv2d_124/BiasAdd/ReadVariableOp", "op": "Const", "input": ["^input_0"], "attr": {"dtype": {"type": "DT_FLOAT"}, "value": {"tensor": {"dtype": "DT_FLOAT", "tensorShape": {"dim": [{"size": "32"}]}}}}}, {"name": "StatefulPartitionedCall/StatefulPartitionedCall/model/rrdb_net/sequential/rrdb_7/rdb_23/concat/axis", "op": "Const", "input": ["^input_0"], "attr": {"dtype": {"type": "DT_INT32"}, "value": {"tensor": {"dtype": "DT_INT32", "tensorShape": {}}}}}, {"name": "StatefulPartitionedCall/StatefulPartitionedCall/model/rrdb_net/sequential/rrdb_7/rdb_23/conv2d_125/Conv2D/ReadVariableOp", "op": "Const", "input": ["^input_0"], "attr": {"value": {"tensor": {"dtype": "DT_FLOAT", "tensorShape": {"dim": [{"size": "3"}, {"size": "3"}, {"size": "64"}, {"size": "32"}]}}}, "dtype": {"type": "DT_FLOAT"}}}, {"name": "StatefulPartitionedCall/StatefulPartitionedCall/model/rrdb_net/sequential/rrdb_7/rdb_23/conv2d_125/BiasAdd/ReadVariableOp", "op": "Const", "input": ["^input_0"], "attr": {"value": {"tensor": {"dtype": "DT_FLOAT", "tensorShape": {"dim": [{"size": "32"}]}}}, "dtype": {"type": "DT_FLOAT"}}}, {"name": "StatefulPartitionedCall/StatefulPartitionedCall/model/rrdb_net/sequential/rrdb_7/rdb_23/concat_1/axis", "op": "Const", "input": ["^input_0"], "attr": {"dtype": {"type": "DT_INT32"}, "value": {"tensor": {"dtype": "DT_INT32", "tensorShape": {}}}}}, {"name": "StatefulPartitionedCall/StatefulPartitionedCall/model/rrdb_net/sequential/rrdb_7/rdb_23/conv2d_126/Conv2D/ReadVariableOp", "op": "Const", "input": ["^input_0"], "attr": {"value": {"tensor": {"dtype": "DT_FLOAT", "tensorShape": {"dim": [{"size": "3"}, {"size": "3"}, {"size": "96"}, {"size": "32"}]}}}, "dtype": {"type": "DT_FLOAT"}}}, {"name": "StatefulPartitionedCall/StatefulPartitionedCall/model/rrdb_net/sequential/rrdb_7/rdb_23/conv2d_126/BiasAdd/ReadVariableOp", "op": "Const", "input": ["^input_0"], "attr": {"dtype": {"type": "DT_FLOAT"}, "value": {"tensor": {"dtype": "DT_FLOAT", "tensorShape": {"dim": [{"size": "32"}]}}}}}, {"name": "StatefulPartitionedCall/StatefulPartitionedCall/model/rrdb_net/sequential/rrdb_7/rdb_23/concat_2/axis", "op": "Const", "input": ["^input_0"], "attr": {"dtype": {"type": "DT_INT32"}, "value": {"tensor": {"dtype": "DT_INT32", "tensorShape": {}}}}}, {"name": "StatefulPartitionedCall/StatefulPartitionedCall/model/rrdb_net/sequential/rrdb_7/rdb_23/conv2d_127/Conv2D/ReadVariableOp", "op": "Const", "input": ["^input_0"], "attr": {"dtype": {"type": "DT_FLOAT"}, "value": {"tensor": {"dtype": "DT_FLOAT", "tensorShape": {"dim": [{"size": "3"}, {"size": "3"}, {"size": "128"}, {"size": "32"}]}}}}}, {"name": "StatefulPartitionedCall/StatefulPartitionedCall/model/rrdb_net/sequential/rrdb_7/rdb_23/conv2d_127/BiasAdd/ReadVariableOp", "op": "Const", "input": ["^input_0"], "attr": {"value": {"tensor": {"dtype": "DT_FLOAT", "tensorShape": {"dim": [{"size": "32"}]}}}, "dtype": {"type": "DT_FLOAT"}}}, {"name": "StatefulPartitionedCall/StatefulPartitionedCall/model/rrdb_net/sequential/rrdb_7/rdb_23/concat_3/axis", "op": "Const", "input": ["^input_0"], "attr": {"dtype": {"type": "DT_INT32"}, "value": {"tensor": {"dtype": "DT_INT32", "tensorShape": {}}}}}, {"name": "StatefulPartitionedCall/StatefulPartitionedCall/model/rrdb_net/sequential/rrdb_7/rdb_23/conv2d_128/Conv2D/ReadVariableOp", "op": "Const", "input": ["^input_0"], "attr": {"value": {"tensor": {"dtype": "DT_FLOAT", "tensorShape": {"dim": [{"size": "3"}, {"size": "3"}, {"size": "160"}, {"size": "32"}]}}}, "dtype": {"type": "DT_FLOAT"}}}, {"name": "StatefulPartitionedCall/StatefulPartitionedCall/model/rrdb_net/sequential/rrdb_7/rdb_23/conv2d_128/BiasAdd/ReadVariableOp", "op": "Const", "input": ["^input_0"], "attr": {"value": {"tensor": {"dtype": "DT_FLOAT", "tensorShape": {"dim": [{"size": "32"}]}}}, "dtype": {"type": "DT_FLOAT"}}}, {"name": "StatefulPartitionedCall/StatefulPartitionedCall/model/rrdb_net/sequential/rrdb_8/rdb_24/conv2d_129/Conv2D/ReadVariableOp", "op": "Const", "input": ["^input_0"], "attr": {"value": {"tensor": {"dtype": "DT_FLOAT", "tensorShape": {"dim": [{"size": "3"}, {"size": "3"}, {"size": "32"}, {"size": "32"}]}}}, "dtype": {"type": "DT_FLOAT"}}}, {"name": "StatefulPartitionedCall/StatefulPartitionedCall/model/rrdb_net/sequential/rrdb_8/rdb_24/conv2d_129/BiasAdd/ReadVariableOp", "op": "Const", "input": ["^input_0"], "attr": {"dtype": {"type": "DT_FLOAT"}, "value": {"tensor": {"dtype": "DT_FLOAT", "tensorShape": {"dim": [{"size": "32"}]}}}}}, {"name": "StatefulPartitionedCall/StatefulPartitionedCall/model/rrdb_net/sequential/rrdb_8/rdb_24/concat/axis", "op": "Const", "input": ["^input_0"], "attr": {"value": {"tensor": {"dtype": "DT_INT32", "tensorShape": {}}}, "dtype": {"type": "DT_INT32"}}}, {"name": "StatefulPartitionedCall/StatefulPartitionedCall/model/rrdb_net/sequential/rrdb_8/rdb_24/conv2d_130/Conv2D/ReadVariableOp", "op": "Const", "input": ["^input_0"], "attr": {"dtype": {"type": "DT_FLOAT"}, "value": {"tensor": {"dtype": "DT_FLOAT", "tensorShape": {"dim": [{"size": "3"}, {"size": "3"}, {"size": "64"}, {"size": "32"}]}}}}}, {"name": "StatefulPartitionedCall/StatefulPartitionedCall/model/rrdb_net/sequential/rrdb_8/rdb_24/conv2d_130/BiasAdd/ReadVariableOp", "op": "Const", "input": ["^input_0"], "attr": {"value": {"tensor": {"dtype": "DT_FLOAT", "tensorShape": {"dim": [{"size": "32"}]}}}, "dtype": {"type": "DT_FLOAT"}}}, {"name": "StatefulPartitionedCall/StatefulPartitionedCall/model/rrdb_net/sequential/rrdb_8/rdb_24/concat_1/axis", "op": "Const", "input": ["^input_0"], "attr": {"value": {"tensor": {"dtype": "DT_INT32", "tensorShape": {}}}, "dtype": {"type": "DT_INT32"}}}, {"name": "StatefulPartitionedCall/StatefulPartitionedCall/model/rrdb_net/sequential/rrdb_8/rdb_24/conv2d_131/Conv2D/ReadVariableOp", "op": "Const", "input": ["^input_0"], "attr": {"value": {"tensor": {"dtype": "DT_FLOAT", "tensorShape": {"dim": [{"size": "3"}, {"size": "3"}, {"size": "96"}, {"size": "32"}]}}}, "dtype": {"type": "DT_FLOAT"}}}, {"name": "StatefulPartitionedCall/StatefulPartitionedCall/model/rrdb_net/sequential/rrdb_8/rdb_24/conv2d_131/BiasAdd/ReadVariableOp", "op": "Const", "input": ["^input_0"], "attr": {"dtype": {"type": "DT_FLOAT"}, "value": {"tensor": {"dtype": "DT_FLOAT", "tensorShape": {"dim": [{"size": "32"}]}}}}}, {"name": "StatefulPartitionedCall/StatefulPartitionedCall/model/rrdb_net/sequential/rrdb_8/rdb_24/concat_2/axis", "op": "Const", "input": ["^input_0"], "attr": {"value": {"tensor": {"dtype": "DT_INT32", "tensorShape": {}}}, "dtype": {"type": "DT_INT32"}}}, {"name": "StatefulPartitionedCall/StatefulPartitionedCall/model/rrdb_net/sequential/rrdb_8/rdb_24/conv2d_132/Conv2D/ReadVariableOp", "op": "Const", "input": ["^input_0"], "attr": {"dtype": {"type": "DT_FLOAT"}, "value": {"tensor": {"dtype": "DT_FLOAT", "tensorShape": {"dim": [{"size": "3"}, {"size": "3"}, {"size": "128"}, {"size": "32"}]}}}}}, {"name": "StatefulPartitionedCall/StatefulPartitionedCall/model/rrdb_net/sequential/rrdb_8/rdb_24/conv2d_132/BiasAdd/ReadVariableOp", "op": "Const", "input": ["^input_0"], "attr": {"value": {"tensor": {"dtype": "DT_FLOAT", "tensorShape": {"dim": [{"size": "32"}]}}}, "dtype": {"type": "DT_FLOAT"}}}, {"name": "StatefulPartitionedCall/StatefulPartitionedCall/model/rrdb_net/sequential/rrdb_8/rdb_24/concat_3/axis", "op": "Const", "input": ["^input_0"], "attr": {"dtype": {"type": "DT_INT32"}, "value": {"tensor": {"dtype": "DT_INT32", "tensorShape": {}}}}}, {"name": "StatefulPartitionedCall/StatefulPartitionedCall/model/rrdb_net/sequential/rrdb_8/rdb_24/conv2d_133/Conv2D/ReadVariableOp", "op": "Const", "input": ["^input_0"], "attr": {"value": {"tensor": {"dtype": "DT_FLOAT", "tensorShape": {"dim": [{"size": "3"}, {"size": "3"}, {"size": "160"}, {"size": "32"}]}}}, "dtype": {"type": "DT_FLOAT"}}}, {"name": "StatefulPartitionedCall/StatefulPartitionedCall/model/rrdb_net/sequential/rrdb_8/rdb_24/conv2d_133/BiasAdd/ReadVariableOp", "op": "Const", "input": ["^input_0"], "attr": {"dtype": {"type": "DT_FLOAT"}, "value": {"tensor": {"dtype": "DT_FLOAT", "tensorShape": {"dim": [{"size": "32"}]}}}}}, {"name": "StatefulPartitionedCall/StatefulPartitionedCall/model/rrdb_net/sequential/rrdb_8/rdb_25/conv2d_134/Conv2D/ReadVariableOp", "op": "Const", "input": ["^input_0"], "attr": {"dtype": {"type": "DT_FLOAT"}, "value": {"tensor": {"dtype": "DT_FLOAT", "tensorShape": {"dim": [{"size": "3"}, {"size": "3"}, {"size": "32"}, {"size": "32"}]}}}}}, {"name": "StatefulPartitionedCall/StatefulPartitionedCall/model/rrdb_net/sequential/rrdb_8/rdb_25/conv2d_134/BiasAdd/ReadVariableOp", "op": "Const", "input": ["^input_0"], "attr": {"dtype": {"type": "DT_FLOAT"}, "value": {"tensor": {"dtype": "DT_FLOAT", "tensorShape": {"dim": [{"size": "32"}]}}}}}, {"name": "StatefulPartitionedCall/StatefulPartitionedCall/model/rrdb_net/sequential/rrdb_8/rdb_25/concat/axis", "op": "Const", "input": ["^input_0"], "attr": {"dtype": {"type": "DT_INT32"}, "value": {"tensor": {"dtype": "DT_INT32", "tensorShape": {}}}}}, {"name": "StatefulPartitionedCall/StatefulPartitionedCall/model/rrdb_net/sequential/rrdb_8/rdb_25/conv2d_135/Conv2D/ReadVariableOp", "op": "Const", "input": ["^input_0"], "attr": {"dtype": {"type": "DT_FLOAT"}, "value": {"tensor": {"dtype": "DT_FLOAT", "tensorShape": {"dim": [{"size": "3"}, {"size": "3"}, {"size": "64"}, {"size": "32"}]}}}}}, {"name": "StatefulPartitionedCall/StatefulPartitionedCall/model/rrdb_net/sequential/rrdb_8/rdb_25/conv2d_135/BiasAdd/ReadVariableOp", "op": "Const", "input": ["^input_0"], "attr": {"value": {"tensor": {"dtype": "DT_FLOAT", "tensorShape": {"dim": [{"size": "32"}]}}}, "dtype": {"type": "DT_FLOAT"}}}, {"name": "StatefulPartitionedCall/StatefulPartitionedCall/model/rrdb_net/sequential/rrdb_8/rdb_25/concat_1/axis", "op": "Const", "input": ["^input_0"], "attr": {"dtype": {"type": "DT_INT32"}, "value": {"tensor": {"dtype": "DT_INT32", "tensorShape": {}}}}}, {"name": "StatefulPartitionedCall/StatefulPartitionedCall/model/rrdb_net/sequential/rrdb_8/rdb_25/conv2d_136/Conv2D/ReadVariableOp", "op": "Const", "input": ["^input_0"], "attr": {"dtype": {"type": "DT_FLOAT"}, "value": {"tensor": {"dtype": "DT_FLOAT", "tensorShape": {"dim": [{"size": "3"}, {"size": "3"}, {"size": "96"}, {"size": "32"}]}}}}}, {"name": "StatefulPartitionedCall/StatefulPartitionedCall/model/rrdb_net/sequential/rrdb_8/rdb_25/conv2d_136/BiasAdd/ReadVariableOp", "op": "Const", "input": ["^input_0"], "attr": {"value": {"tensor": {"dtype": "DT_FLOAT", "tensorShape": {"dim": [{"size": "32"}]}}}, "dtype": {"type": "DT_FLOAT"}}}, {"name": "StatefulPartitionedCall/StatefulPartitionedCall/model/rrdb_net/sequential/rrdb_8/rdb_25/concat_2/axis", "op": "Const", "input": ["^input_0"], "attr": {"dtype": {"type": "DT_INT32"}, "value": {"tensor": {"dtype": "DT_INT32", "tensorShape": {}}}}}, {"name": "StatefulPartitionedCall/StatefulPartitionedCall/model/rrdb_net/sequential/rrdb_8/rdb_25/conv2d_137/Conv2D/ReadVariableOp", "op": "Const", "input": ["^input_0"], "attr": {"dtype": {"type": "DT_FLOAT"}, "value": {"tensor": {"dtype": "DT_FLOAT", "tensorShape": {"dim": [{"size": "3"}, {"size": "3"}, {"size": "128"}, {"size": "32"}]}}}}}, {"name": "StatefulPartitionedCall/StatefulPartitionedCall/model/rrdb_net/sequential/rrdb_8/rdb_25/conv2d_137/BiasAdd/ReadVariableOp", "op": "Const", "input": ["^input_0"], "attr": {"value": {"tensor": {"dtype": "DT_FLOAT", "tensorShape": {"dim": [{"size": "32"}]}}}, "dtype": {"type": "DT_FLOAT"}}}, {"name": "StatefulPartitionedCall/StatefulPartitionedCall/model/rrdb_net/sequential/rrdb_8/rdb_25/concat_3/axis", "op": "Const", "input": ["^input_0"], "attr": {"dtype": {"type": "DT_INT32"}, "value": {"tensor": {"dtype": "DT_INT32", "tensorShape": {}}}}}, {"name": "StatefulPartitionedCall/StatefulPartitionedCall/model/rrdb_net/sequential/rrdb_8/rdb_25/conv2d_138/Conv2D/ReadVariableOp", "op": "Const", "input": ["^input_0"], "attr": {"dtype": {"type": "DT_FLOAT"}, "value": {"tensor": {"dtype": "DT_FLOAT", "tensorShape": {"dim": [{"size": "3"}, {"size": "3"}, {"size": "160"}, {"size": "32"}]}}}}}, {"name": "StatefulPartitionedCall/StatefulPartitionedCall/model/rrdb_net/sequential/rrdb_8/rdb_25/conv2d_138/BiasAdd/ReadVariableOp", "op": "Const", "input": ["^input_0"], "attr": {"dtype": {"type": "DT_FLOAT"}, "value": {"tensor": {"dtype": "DT_FLOAT", "tensorShape": {"dim": [{"size": "32"}]}}}}}, {"name": "StatefulPartitionedCall/StatefulPartitionedCall/model/rrdb_net/sequential/rrdb_8/rdb_26/conv2d_139/Conv2D/ReadVariableOp", "op": "Const", "input": ["^input_0"], "attr": {"dtype": {"type": "DT_FLOAT"}, "value": {"tensor": {"dtype": "DT_FLOAT", "tensorShape": {"dim": [{"size": "3"}, {"size": "3"}, {"size": "32"}, {"size": "32"}]}}}}}, {"name": "StatefulPartitionedCall/StatefulPartitionedCall/model/rrdb_net/sequential/rrdb_8/rdb_26/conv2d_139/BiasAdd/ReadVariableOp", "op": "Const", "input": ["^input_0"], "attr": {"value": {"tensor": {"dtype": "DT_FLOAT", "tensorShape": {"dim": [{"size": "32"}]}}}, "dtype": {"type": "DT_FLOAT"}}}, {"name": "StatefulPartitionedCall/StatefulPartitionedCall/model/rrdb_net/sequential/rrdb_8/rdb_26/concat/axis", "op": "Const", "input": ["^input_0"], "attr": {"dtype": {"type": "DT_INT32"}, "value": {"tensor": {"dtype": "DT_INT32", "tensorShape": {}}}}}, {"name": "StatefulPartitionedCall/StatefulPartitionedCall/model/rrdb_net/sequential/rrdb_8/rdb_26/conv2d_140/Conv2D/ReadVariableOp", "op": "Const", "input": ["^input_0"], "attr": {"value": {"tensor": {"dtype": "DT_FLOAT", "tensorShape": {"dim": [{"size": "3"}, {"size": "3"}, {"size": "64"}, {"size": "32"}]}}}, "dtype": {"type": "DT_FLOAT"}}}, {"name": "StatefulPartitionedCall/StatefulPartitionedCall/model/rrdb_net/sequential/rrdb_8/rdb_26/conv2d_140/BiasAdd/ReadVariableOp", "op": "Const", "input": ["^input_0"], "attr": {"value": {"tensor": {"dtype": "DT_FLOAT", "tensorShape": {"dim": [{"size": "32"}]}}}, "dtype": {"type": "DT_FLOAT"}}}, {"name": "StatefulPartitionedCall/StatefulPartitionedCall/model/rrdb_net/sequential/rrdb_8/rdb_26/concat_1/axis", "op": "Const", "input": ["^input_0"], "attr": {"value": {"tensor": {"dtype": "DT_INT32", "tensorShape": {}}}, "dtype": {"type": "DT_INT32"}}}, {"name": "StatefulPartitionedCall/StatefulPartitionedCall/model/rrdb_net/sequential/rrdb_8/rdb_26/conv2d_141/Conv2D/ReadVariableOp", "op": "Const", "input": ["^input_0"], "attr": {"dtype": {"type": "DT_FLOAT"}, "value": {"tensor": {"dtype": "DT_FLOAT", "tensorShape": {"dim": [{"size": "3"}, {"size": "3"}, {"size": "96"}, {"size": "32"}]}}}}}, {"name": "StatefulPartitionedCall/StatefulPartitionedCall/model/rrdb_net/sequential/rrdb_8/rdb_26/conv2d_141/BiasAdd/ReadVariableOp", "op": "Const", "input": ["^input_0"], "attr": {"dtype": {"type": "DT_FLOAT"}, "value": {"tensor": {"dtype": "DT_FLOAT", "tensorShape": {"dim": [{"size": "32"}]}}}}}, {"name": "StatefulPartitionedCall/StatefulPartitionedCall/model/rrdb_net/sequential/rrdb_8/rdb_26/concat_2/axis", "op": "Const", "input": ["^input_0"], "attr": {"dtype": {"type": "DT_INT32"}, "value": {"tensor": {"dtype": "DT_INT32", "tensorShape": {}}}}}, {"name": "StatefulPartitionedCall/StatefulPartitionedCall/model/rrdb_net/sequential/rrdb_8/rdb_26/conv2d_142/Conv2D/ReadVariableOp", "op": "Const", "input": ["^input_0"], "attr": {"dtype": {"type": "DT_FLOAT"}, "value": {"tensor": {"dtype": "DT_FLOAT", "tensorShape": {"dim": [{"size": "3"}, {"size": "3"}, {"size": "128"}, {"size": "32"}]}}}}}, {"name": "StatefulPartitionedCall/StatefulPartitionedCall/model/rrdb_net/sequential/rrdb_8/rdb_26/conv2d_142/BiasAdd/ReadVariableOp", "op": "Const", "input": ["^input_0"], "attr": {"dtype": {"type": "DT_FLOAT"}, "value": {"tensor": {"dtype": "DT_FLOAT", "tensorShape": {"dim": [{"size": "32"}]}}}}}, {"name": "StatefulPartitionedCall/StatefulPartitionedCall/model/rrdb_net/sequential/rrdb_8/rdb_26/concat_3/axis", "op": "Const", "input": ["^input_0"], "attr": {"value": {"tensor": {"dtype": "DT_INT32", "tensorShape": {}}}, "dtype": {"type": "DT_INT32"}}}, {"name": "StatefulPartitionedCall/StatefulPartitionedCall/model/rrdb_net/sequential/rrdb_8/rdb_26/conv2d_143/Conv2D/ReadVariableOp", "op": "Const", "input": ["^input_0"], "attr": {"value": {"tensor": {"dtype": "DT_FLOAT", "tensorShape": {"dim": [{"size": "3"}, {"size": "3"}, {"size": "160"}, {"size": "32"}]}}}, "dtype": {"type": "DT_FLOAT"}}}, {"name": "StatefulPartitionedCall/StatefulPartitionedCall/model/rrdb_net/sequential/rrdb_8/rdb_26/conv2d_143/BiasAdd/ReadVariableOp", "op": "Const", "input": ["^input_0"], "attr": {"dtype": {"type": "DT_FLOAT"}, "value": {"tensor": {"dtype": "DT_FLOAT", "tensorShape": {"dim": [{"size": "32"}]}}}}}, {"name": "StatefulPartitionedCall/StatefulPartitionedCall/model/rrdb_net/sequential/rrdb_9/rdb_27/conv2d_144/Conv2D/ReadVariableOp", "op": "Const", "input": ["^input_0"], "attr": {"dtype": {"type": "DT_FLOAT"}, "value": {"tensor": {"dtype": "DT_FLOAT", "tensorShape": {"dim": [{"size": "3"}, {"size": "3"}, {"size": "32"}, {"size": "32"}]}}}}}, {"name": "StatefulPartitionedCall/StatefulPartitionedCall/model/rrdb_net/sequential/rrdb_9/rdb_27/conv2d_144/BiasAdd/ReadVariableOp", "op": "Const", "input": ["^input_0"], "attr": {"dtype": {"type": "DT_FLOAT"}, "value": {"tensor": {"dtype": "DT_FLOAT", "tensorShape": {"dim": [{"size": "32"}]}}}}}, {"name": "StatefulPartitionedCall/StatefulPartitionedCall/model/rrdb_net/sequential/rrdb_9/rdb_27/concat/axis", "op": "Const", "input": ["^input_0"], "attr": {"value": {"tensor": {"dtype": "DT_INT32", "tensorShape": {}}}, "dtype": {"type": "DT_INT32"}}}, {"name": "StatefulPartitionedCall/StatefulPartitionedCall/model/rrdb_net/sequential/rrdb_9/rdb_27/conv2d_145/Conv2D/ReadVariableOp", "op": "Const", "input": ["^input_0"], "attr": {"dtype": {"type": "DT_FLOAT"}, "value": {"tensor": {"dtype": "DT_FLOAT", "tensorShape": {"dim": [{"size": "3"}, {"size": "3"}, {"size": "64"}, {"size": "32"}]}}}}}, {"name": "StatefulPartitionedCall/StatefulPartitionedCall/model/rrdb_net/sequential/rrdb_9/rdb_27/conv2d_145/BiasAdd/ReadVariableOp", "op": "Const", "input": ["^input_0"], "attr": {"dtype": {"type": "DT_FLOAT"}, "value": {"tensor": {"dtype": "DT_FLOAT", "tensorShape": {"dim": [{"size": "32"}]}}}}}, {"name": "StatefulPartitionedCall/StatefulPartitionedCall/model/rrdb_net/sequential/rrdb_9/rdb_27/concat_1/axis", "op": "Const", "input": ["^input_0"], "attr": {"value": {"tensor": {"dtype": "DT_INT32", "tensorShape": {}}}, "dtype": {"type": "DT_INT32"}}}, {"name": "StatefulPartitionedCall/StatefulPartitionedCall/model/rrdb_net/sequential/rrdb_9/rdb_27/conv2d_146/Conv2D/ReadVariableOp", "op": "Const", "input": ["^input_0"], "attr": {"value": {"tensor": {"dtype": "DT_FLOAT", "tensorShape": {"dim": [{"size": "3"}, {"size": "3"}, {"size": "96"}, {"size": "32"}]}}}, "dtype": {"type": "DT_FLOAT"}}}, {"name": "StatefulPartitionedCall/StatefulPartitionedCall/model/rrdb_net/sequential/rrdb_9/rdb_27/conv2d_146/BiasAdd/ReadVariableOp", "op": "Const", "input": ["^input_0"], "attr": {"dtype": {"type": "DT_FLOAT"}, "value": {"tensor": {"dtype": "DT_FLOAT", "tensorShape": {"dim": [{"size": "32"}]}}}}}, {"name": "StatefulPartitionedCall/StatefulPartitionedCall/model/rrdb_net/sequential/rrdb_9/rdb_27/concat_2/axis", "op": "Const", "input": ["^input_0"], "attr": {"dtype": {"type": "DT_INT32"}, "value": {"tensor": {"dtype": "DT_INT32", "tensorShape": {}}}}}, {"name": "StatefulPartitionedCall/StatefulPartitionedCall/model/rrdb_net/sequential/rrdb_9/rdb_27/conv2d_147/Conv2D/ReadVariableOp", "op": "Const", "input": ["^input_0"], "attr": {"value": {"tensor": {"dtype": "DT_FLOAT", "tensorShape": {"dim": [{"size": "3"}, {"size": "3"}, {"size": "128"}, {"size": "32"}]}}}, "dtype": {"type": "DT_FLOAT"}}}, {"name": "StatefulPartitionedCall/StatefulPartitionedCall/model/rrdb_net/sequential/rrdb_9/rdb_27/conv2d_147/BiasAdd/ReadVariableOp", "op": "Const", "input": ["^input_0"], "attr": {"value": {"tensor": {"dtype": "DT_FLOAT", "tensorShape": {"dim": [{"size": "32"}]}}}, "dtype": {"type": "DT_FLOAT"}}}, {"name": "StatefulPartitionedCall/StatefulPartitionedCall/model/rrdb_net/sequential/rrdb_9/rdb_27/concat_3/axis", "op": "Const", "input": ["^input_0"], "attr": {"value": {"tensor": {"dtype": "DT_INT32", "tensorShape": {}}}, "dtype": {"type": "DT_INT32"}}}, {"name": "StatefulPartitionedCall/StatefulPartitionedCall/model/rrdb_net/sequential/rrdb_9/rdb_27/conv2d_148/Conv2D/ReadVariableOp", "op": "Const", "input": ["^input_0"], "attr": {"value": {"tensor": {"dtype": "DT_FLOAT", "tensorShape": {"dim": [{"size": "3"}, {"size": "3"}, {"size": "160"}, {"size": "32"}]}}}, "dtype": {"type": "DT_FLOAT"}}}, {"name": "StatefulPartitionedCall/StatefulPartitionedCall/model/rrdb_net/sequential/rrdb_9/rdb_27/conv2d_148/BiasAdd/ReadVariableOp", "op": "Const", "input": ["^input_0"], "attr": {"dtype": {"type": "DT_FLOAT"}, "value": {"tensor": {"dtype": "DT_FLOAT", "tensorShape": {"dim": [{"size": "32"}]}}}}}, {"name": "StatefulPartitionedCall/StatefulPartitionedCall/model/rrdb_net/sequential/rrdb_9/rdb_28/conv2d_149/Conv2D/ReadVariableOp", "op": "Const", "input": ["^input_0"], "attr": {"value": {"tensor": {"dtype": "DT_FLOAT", "tensorShape": {"dim": [{"size": "3"}, {"size": "3"}, {"size": "32"}, {"size": "32"}]}}}, "dtype": {"type": "DT_FLOAT"}}}, {"name": "StatefulPartitionedCall/StatefulPartitionedCall/model/rrdb_net/sequential/rrdb_9/rdb_28/conv2d_149/BiasAdd/ReadVariableOp", "op": "Const", "input": ["^input_0"], "attr": {"value": {"tensor": {"dtype": "DT_FLOAT", "tensorShape": {"dim": [{"size": "32"}]}}}, "dtype": {"type": "DT_FLOAT"}}}, {"name": "StatefulPartitionedCall/StatefulPartitionedCall/model/rrdb_net/sequential/rrdb_9/rdb_28/concat/axis", "op": "Const", "input": ["^input_0"], "attr": {"value": {"tensor": {"dtype": "DT_INT32", "tensorShape": {}}}, "dtype": {"type": "DT_INT32"}}}, {"name": "StatefulPartitionedCall/StatefulPartitionedCall/model/rrdb_net/sequential/rrdb_9/rdb_28/conv2d_150/Conv2D/ReadVariableOp", "op": "Const", "input": ["^input_0"], "attr": {"value": {"tensor": {"dtype": "DT_FLOAT", "tensorShape": {"dim": [{"size": "3"}, {"size": "3"}, {"size": "64"}, {"size": "32"}]}}}, "dtype": {"type": "DT_FLOAT"}}}, {"name": "StatefulPartitionedCall/StatefulPartitionedCall/model/rrdb_net/sequential/rrdb_9/rdb_28/conv2d_150/BiasAdd/ReadVariableOp", "op": "Const", "input": ["^input_0"], "attr": {"value": {"tensor": {"dtype": "DT_FLOAT", "tensorShape": {"dim": [{"size": "32"}]}}}, "dtype": {"type": "DT_FLOAT"}}}, {"name": "StatefulPartitionedCall/StatefulPartitionedCall/model/rrdb_net/sequential/rrdb_9/rdb_28/concat_1/axis", "op": "Const", "input": ["^input_0"], "attr": {"dtype": {"type": "DT_INT32"}, "value": {"tensor": {"dtype": "DT_INT32", "tensorShape": {}}}}}, {"name": "StatefulPartitionedCall/StatefulPartitionedCall/model/rrdb_net/sequential/rrdb_9/rdb_28/conv2d_151/Conv2D/ReadVariableOp", "op": "Const", "input": ["^input_0"], "attr": {"value": {"tensor": {"dtype": "DT_FLOAT", "tensorShape": {"dim": [{"size": "3"}, {"size": "3"}, {"size": "96"}, {"size": "32"}]}}}, "dtype": {"type": "DT_FLOAT"}}}, {"name": "StatefulPartitionedCall/StatefulPartitionedCall/model/rrdb_net/sequential/rrdb_9/rdb_28/conv2d_151/BiasAdd/ReadVariableOp", "op": "Const", "input": ["^input_0"], "attr": {"value": {"tensor": {"dtype": "DT_FLOAT", "tensorShape": {"dim": [{"size": "32"}]}}}, "dtype": {"type": "DT_FLOAT"}}}, {"name": "StatefulPartitionedCall/StatefulPartitionedCall/model/rrdb_net/sequential/rrdb_9/rdb_28/concat_2/axis", "op": "Const", "input": ["^input_0"], "attr": {"dtype": {"type": "DT_INT32"}, "value": {"tensor": {"dtype": "DT_INT32", "tensorShape": {}}}}}, {"name": "StatefulPartitionedCall/StatefulPartitionedCall/model/rrdb_net/sequential/rrdb_9/rdb_28/conv2d_152/Conv2D/ReadVariableOp", "op": "Const", "input": ["^input_0"], "attr": {"dtype": {"type": "DT_FLOAT"}, "value": {"tensor": {"dtype": "DT_FLOAT", "tensorShape": {"dim": [{"size": "3"}, {"size": "3"}, {"size": "128"}, {"size": "32"}]}}}}}, {"name": "StatefulPartitionedCall/StatefulPartitionedCall/model/rrdb_net/sequential/rrdb_9/rdb_28/conv2d_152/BiasAdd/ReadVariableOp", "op": "Const", "input": ["^input_0"], "attr": {"value": {"tensor": {"dtype": "DT_FLOAT", "tensorShape": {"dim": [{"size": "32"}]}}}, "dtype": {"type": "DT_FLOAT"}}}, {"name": "StatefulPartitionedCall/StatefulPartitionedCall/model/rrdb_net/sequential/rrdb_9/rdb_28/concat_3/axis", "op": "Const", "input": ["^input_0"], "attr": {"value": {"tensor": {"dtype": "DT_INT32", "tensorShape": {}}}, "dtype": {"type": "DT_INT32"}}}, {"name": "StatefulPartitionedCall/StatefulPartitionedCall/model/rrdb_net/sequential/rrdb_9/rdb_28/conv2d_153/Conv2D/ReadVariableOp", "op": "Const", "input": ["^input_0"], "attr": {"dtype": {"type": "DT_FLOAT"}, "value": {"tensor": {"dtype": "DT_FLOAT", "tensorShape": {"dim": [{"size": "3"}, {"size": "3"}, {"size": "160"}, {"size": "32"}]}}}}}, {"name": "StatefulPartitionedCall/StatefulPartitionedCall/model/rrdb_net/sequential/rrdb_9/rdb_28/conv2d_153/BiasAdd/ReadVariableOp", "op": "Const", "input": ["^input_0"], "attr": {"value": {"tensor": {"dtype": "DT_FLOAT", "tensorShape": {"dim": [{"size": "32"}]}}}, "dtype": {"type": "DT_FLOAT"}}}, {"name": "StatefulPartitionedCall/StatefulPartitionedCall/model/rrdb_net/sequential/rrdb_9/rdb_29/conv2d_154/Conv2D/ReadVariableOp", "op": "Const", "input": ["^input_0"], "attr": {"dtype": {"type": "DT_FLOAT"}, "value": {"tensor": {"dtype": "DT_FLOAT", "tensorShape": {"dim": [{"size": "3"}, {"size": "3"}, {"size": "32"}, {"size": "32"}]}}}}}, {"name": "StatefulPartitionedCall/StatefulPartitionedCall/model/rrdb_net/sequential/rrdb_9/rdb_29/conv2d_154/BiasAdd/ReadVariableOp", "op": "Const", "input": ["^input_0"], "attr": {"dtype": {"type": "DT_FLOAT"}, "value": {"tensor": {"dtype": "DT_FLOAT", "tensorShape": {"dim": [{"size": "32"}]}}}}}, {"name": "StatefulPartitionedCall/StatefulPartitionedCall/model/rrdb_net/sequential/rrdb_9/rdb_29/concat/axis", "op": "Const", "input": ["^input_0"], "attr": {"value": {"tensor": {"dtype": "DT_INT32", "tensorShape": {}}}, "dtype": {"type": "DT_INT32"}}}, {"name": "StatefulPartitionedCall/StatefulPartitionedCall/model/rrdb_net/sequential/rrdb_9/rdb_29/conv2d_155/Conv2D/ReadVariableOp", "op": "Const", "input": ["^input_0"], "attr": {"dtype": {"type": "DT_FLOAT"}, "value": {"tensor": {"dtype": "DT_FLOAT", "tensorShape": {"dim": [{"size": "3"}, {"size": "3"}, {"size": "64"}, {"size": "32"}]}}}}}, {"name": "StatefulPartitionedCall/StatefulPartitionedCall/model/rrdb_net/sequential/rrdb_9/rdb_29/conv2d_155/BiasAdd/ReadVariableOp", "op": "Const", "input": ["^input_0"], "attr": {"value": {"tensor": {"dtype": "DT_FLOAT", "tensorShape": {"dim": [{"size": "32"}]}}}, "dtype": {"type": "DT_FLOAT"}}}, {"name": "StatefulPartitionedCall/StatefulPartitionedCall/model/rrdb_net/sequential/rrdb_9/rdb_29/concat_1/axis", "op": "Const", "input": ["^input_0"], "attr": {"value": {"tensor": {"dtype": "DT_INT32", "tensorShape": {}}}, "dtype": {"type": "DT_INT32"}}}, {"name": "StatefulPartitionedCall/StatefulPartitionedCall/model/rrdb_net/sequential/rrdb_9/rdb_29/conv2d_156/Conv2D/ReadVariableOp", "op": "Const", "input": ["^input_0"], "attr": {"dtype": {"type": "DT_FLOAT"}, "value": {"tensor": {"dtype": "DT_FLOAT", "tensorShape": {"dim": [{"size": "3"}, {"size": "3"}, {"size": "96"}, {"size": "32"}]}}}}}, {"name": "StatefulPartitionedCall/StatefulPartitionedCall/model/rrdb_net/sequential/rrdb_9/rdb_29/conv2d_156/BiasAdd/ReadVariableOp", "op": "Const", "input": ["^input_0"], "attr": {"value": {"tensor": {"dtype": "DT_FLOAT", "tensorShape": {"dim": [{"size": "32"}]}}}, "dtype": {"type": "DT_FLOAT"}}}, {"name": "StatefulPartitionedCall/StatefulPartitionedCall/model/rrdb_net/sequential/rrdb_9/rdb_29/concat_2/axis", "op": "Const", "input": ["^input_0"], "attr": {"dtype": {"type": "DT_INT32"}, "value": {"tensor": {"dtype": "DT_INT32", "tensorShape": {}}}}}, {"name": "StatefulPartitionedCall/StatefulPartitionedCall/model/rrdb_net/sequential/rrdb_9/rdb_29/conv2d_157/Conv2D/ReadVariableOp", "op": "Const", "input": ["^input_0"], "attr": {"value": {"tensor": {"dtype": "DT_FLOAT", "tensorShape": {"dim": [{"size": "3"}, {"size": "3"}, {"size": "128"}, {"size": "32"}]}}}, "dtype": {"type": "DT_FLOAT"}}}, {"name": "StatefulPartitionedCall/StatefulPartitionedCall/model/rrdb_net/sequential/rrdb_9/rdb_29/conv2d_157/BiasAdd/ReadVariableOp", "op": "Const", "input": ["^input_0"], "attr": {"value": {"tensor": {"dtype": "DT_FLOAT", "tensorShape": {"dim": [{"size": "32"}]}}}, "dtype": {"type": "DT_FLOAT"}}}, {"name": "StatefulPartitionedCall/StatefulPartitionedCall/model/rrdb_net/sequential/rrdb_9/rdb_29/concat_3/axis", "op": "Const", "input": ["^input_0"], "attr": {"dtype": {"type": "DT_INT32"}, "value": {"tensor": {"dtype": "DT_INT32", "tensorShape": {}}}}}, {"name": "StatefulPartitionedCall/StatefulPartitionedCall/model/rrdb_net/sequential/rrdb_9/rdb_29/conv2d_158/Conv2D/ReadVariableOp", "op": "Const", "input": ["^input_0"], "attr": {"dtype": {"type": "DT_FLOAT"}, "value": {"tensor": {"dtype": "DT_FLOAT", "tensorShape": {"dim": [{"size": "3"}, {"size": "3"}, {"size": "160"}, {"size": "32"}]}}}}}, {"name": "StatefulPartitionedCall/StatefulPartitionedCall/model/rrdb_net/sequential/rrdb_9/rdb_29/conv2d_158/BiasAdd/ReadVariableOp", "op": "Const", "input": ["^input_0"], "attr": {"value": {"tensor": {"dtype": "DT_FLOAT", "tensorShape": {"dim": [{"size": "32"}]}}}, "dtype": {"type": "DT_FLOAT"}}}, {"name": "StatefulPartitionedCall/StatefulPartitionedCall/model/rrdb_net/sequential/rrdb_10/rdb_30/conv2d_159/Conv2D/ReadVariableOp", "op": "Const", "input": ["^input_0"], "attr": {"value": {"tensor": {"dtype": "DT_FLOAT", "tensorShape": {"dim": [{"size": "3"}, {"size": "3"}, {"size": "32"}, {"size": "32"}]}}}, "dtype": {"type": "DT_FLOAT"}}}, {"name": "StatefulPartitionedCall/StatefulPartitionedCall/model/rrdb_net/sequential/rrdb_10/rdb_30/conv2d_159/BiasAdd/ReadVariableOp", "op": "Const", "input": ["^input_0"], "attr": {"value": {"tensor": {"dtype": "DT_FLOAT", "tensorShape": {"dim": [{"size": "32"}]}}}, "dtype": {"type": "DT_FLOAT"}}}, {"name": "StatefulPartitionedCall/StatefulPartitionedCall/model/rrdb_net/sequential/rrdb_10/rdb_30/concat/axis", "op": "Const", "input": ["^input_0"], "attr": {"dtype": {"type": "DT_INT32"}, "value": {"tensor": {"dtype": "DT_INT32", "tensorShape": {}}}}}, {"name": "StatefulPartitionedCall/StatefulPartitionedCall/model/rrdb_net/sequential/rrdb_10/rdb_30/conv2d_160/Conv2D/ReadVariableOp", "op": "Const", "input": ["^input_0"], "attr": {"dtype": {"type": "DT_FLOAT"}, "value": {"tensor": {"dtype": "DT_FLOAT", "tensorShape": {"dim": [{"size": "3"}, {"size": "3"}, {"size": "64"}, {"size": "32"}]}}}}}, {"name": "StatefulPartitionedCall/StatefulPartitionedCall/model/rrdb_net/sequential/rrdb_10/rdb_30/conv2d_160/BiasAdd/ReadVariableOp", "op": "Const", "input": ["^input_0"], "attr": {"value": {"tensor": {"dtype": "DT_FLOAT", "tensorShape": {"dim": [{"size": "32"}]}}}, "dtype": {"type": "DT_FLOAT"}}}, {"name": "StatefulPartitionedCall/StatefulPartitionedCall/model/rrdb_net/sequential/rrdb_10/rdb_30/concat_1/axis", "op": "Const", "input": ["^input_0"], "attr": {"dtype": {"type": "DT_INT32"}, "value": {"tensor": {"dtype": "DT_INT32", "tensorShape": {}}}}}, {"name": "StatefulPartitionedCall/StatefulPartitionedCall/model/rrdb_net/sequential/rrdb_10/rdb_30/conv2d_161/Conv2D/ReadVariableOp", "op": "Const", "input": ["^input_0"], "attr": {"dtype": {"type": "DT_FLOAT"}, "value": {"tensor": {"dtype": "DT_FLOAT", "tensorShape": {"dim": [{"size": "3"}, {"size": "3"}, {"size": "96"}, {"size": "32"}]}}}}}, {"name": "StatefulPartitionedCall/StatefulPartitionedCall/model/rrdb_net/sequential/rrdb_10/rdb_30/conv2d_161/BiasAdd/ReadVariableOp", "op": "Const", "input": ["^input_0"], "attr": {"dtype": {"type": "DT_FLOAT"}, "value": {"tensor": {"dtype": "DT_FLOAT", "tensorShape": {"dim": [{"size": "32"}]}}}}}, {"name": "StatefulPartitionedCall/StatefulPartitionedCall/model/rrdb_net/sequential/rrdb_10/rdb_30/concat_2/axis", "op": "Const", "input": ["^input_0"], "attr": {"value": {"tensor": {"dtype": "DT_INT32", "tensorShape": {}}}, "dtype": {"type": "DT_INT32"}}}, {"name": "StatefulPartitionedCall/StatefulPartitionedCall/model/rrdb_net/sequential/rrdb_10/rdb_30/conv2d_162/Conv2D/ReadVariableOp", "op": "Const", "input": ["^input_0"], "attr": {"value": {"tensor": {"dtype": "DT_FLOAT", "tensorShape": {"dim": [{"size": "3"}, {"size": "3"}, {"size": "128"}, {"size": "32"}]}}}, "dtype": {"type": "DT_FLOAT"}}}, {"name": "StatefulPartitionedCall/StatefulPartitionedCall/model/rrdb_net/sequential/rrdb_10/rdb_30/conv2d_162/BiasAdd/ReadVariableOp", "op": "Const", "input": ["^input_0"], "attr": {"value": {"tensor": {"dtype": "DT_FLOAT", "tensorShape": {"dim": [{"size": "32"}]}}}, "dtype": {"type": "DT_FLOAT"}}}, {"name": "StatefulPartitionedCall/StatefulPartitionedCall/model/rrdb_net/sequential/rrdb_10/rdb_30/concat_3/axis", "op": "Const", "input": ["^input_0"], "attr": {"dtype": {"type": "DT_INT32"}, "value": {"tensor": {"dtype": "DT_INT32", "tensorShape": {}}}}}, {"name": "StatefulPartitionedCall/StatefulPartitionedCall/model/rrdb_net/sequential/rrdb_10/rdb_30/conv2d_163/Conv2D/ReadVariableOp", "op": "Const", "input": ["^input_0"], "attr": {"dtype": {"type": "DT_FLOAT"}, "value": {"tensor": {"dtype": "DT_FLOAT", "tensorShape": {"dim": [{"size": "3"}, {"size": "3"}, {"size": "160"}, {"size": "32"}]}}}}}, {"name": "StatefulPartitionedCall/StatefulPartitionedCall/model/rrdb_net/sequential/rrdb_10/rdb_30/conv2d_163/BiasAdd/ReadVariableOp", "op": "Const", "input": ["^input_0…
tefulPartitionedCall/model/rrdb_net/sequential/rrdb_4/rdb_12/concat/axis", "shape": [], "dtype": "int32"}, {"name": "StatefulPartitionedCall/StatefulPartitionedCall/model/rrdb_net/sequential/rrdb_4/rdb_12/conv2d_70/Conv2D/ReadVariableOp", "shape": [3, 3, 64, 32], "dtype": "float32"}, {"name": "StatefulPartitionedCall/StatefulPartitionedCall/model/rrdb_net/sequential/rrdb_4/rdb_12/conv2d_70/BiasAdd/ReadVariableOp", "shape": [32], "dtype": "float32"}, {"name": "StatefulPartitionedCall/StatefulPartitionedCall/model/rrdb_net/sequential/rrdb_4/rdb_12/concat_1/axis", "shape": [], "dtype": "int32"}, {"name": "StatefulPartitionedCall/StatefulPartitionedCall/model/rrdb_net/sequential/rrdb_4/rdb_12/conv2d_71/Conv2D/ReadVariableOp", "shape": [3, 3, 96, 32], "dtype": "float32"}, {"name": "StatefulPartitionedCall/StatefulPartitionedCall/model/rrdb_net/sequential/rrdb_4/rdb_12/conv2d_71/BiasAdd/ReadVariableOp", "shape": [32], "dtype": "float32"}, {"name": "StatefulPartitionedCall/StatefulPartitionedCall/model/rrdb_net/sequential/rrdb_4/rdb_12/concat_2/axis", "shape": [], "dtype": "int32"}, {"name": "StatefulPartitionedCall/StatefulPartitionedCall/model/rrdb_net/sequential/rrdb_4/rdb_12/conv2d_72/Conv2D/ReadVariableOp", "shape": [3, 3, 128, 32], "dtype": "float32"}, {"name": "StatefulPartitionedCall/StatefulPartitionedCall/model/rrdb_net/sequential/rrdb_4/rdb_12/conv2d_72/BiasAdd/ReadVariableOp", "shape": [32], "dtype": "float32"}, {"name": "StatefulPartitionedCall/StatefulPartitionedCall/model/rrdb_net/sequential/rrdb_4/rdb_12/concat_3/axis", "shape": [], "dtype": "int32"}, {"name": "StatefulPartitionedCall/StatefulPartitionedCall/model/rrdb_net/sequential/rrdb_4/rdb_12/conv2d_73/Conv2D/ReadVariableOp", "shape": [3, 3, 160, 32], "dtype": "float32"}, {"name": "StatefulPartitionedCall/StatefulPartitionedCall/model/rrdb_net/sequential/rrdb_4/rdb_12/conv2d_73/BiasAdd/ReadVariableOp", "shape": [32], "dtype": "float32"}, {"name": "StatefulPartitionedCall/StatefulPartitionedCall/model/rrdb_net/sequential/rrdb_4/rdb_13/conv2d_74/Conv2D/ReadVariableOp", "shape": [3, 3, 32, 32], "dtype": "float32"}, {"name": "StatefulPartitionedCall/StatefulPartitionedCall/model/rrdb_net/sequential/rrdb_4/rdb_13/conv2d_74/BiasAdd/ReadVariableOp", "shape": [32], "dtype": "float32"}, {"name": "StatefulPartitionedCall/StatefulPartitionedCall/model/rrdb_net/sequential/rrdb_4/rdb_13/concat/axis", "shape": [], "dtype": "int32"}, {"name": "StatefulPartitionedCall/StatefulPartitionedCall/model/rrdb_net/sequential/rrdb_4/rdb_13/conv2d_75/Conv2D/ReadVariableOp", "shape": [3, 3, 64, 32], "dtype": "float32"}, {"name": "StatefulPartitionedCall/StatefulPartitionedCall/model/rrdb_net/sequential/rrdb_4/rdb_13/conv2d_75/BiasAdd/ReadVariableOp", "shape": [32], "dtype": "float32"}, {"name": "StatefulPartitionedCall/StatefulPartitionedCall/model/rrdb_net/sequential/rrdb_4/rdb_13/concat_1/axis", "shape": [], "dtype": "int32"}, {"name": "StatefulPartitionedCall/StatefulPartitionedCall/model/rrdb_net/sequential/rrdb_4/rdb_13/conv2d_76/Conv2D/ReadVariableOp", "shape": [3, 3, 96, 32], "dtype": "float32"}, {"name": "StatefulPartitionedCall/StatefulPartitionedCall/model/rrdb_net/sequential/rrdb_4/rdb_13/conv2d_76/BiasAdd/ReadVariableOp", "shape": [32], "dtype": "float32"}, {"name": "StatefulPartitionedCall/StatefulPartitionedCall/model/rrdb_net/sequential/rrdb_4/rdb_13/concat_2/axis", "shape": [], "dtype": "int32"}, {"name": "StatefulPartitionedCall/StatefulPartitionedCall/model/rrdb_net/sequential/rrdb_4/rdb_13/conv2d_77/Conv2D/ReadVariableOp", "shape": [3, 3, 128, 32], "dtype": "float32"}, {"name": "StatefulPartitionedCall/StatefulPartitionedCall/model/rrdb_net/sequential/rrdb_4/rdb_13/conv2d_77/BiasAdd/ReadVariableOp", "shape": [32], "dtype": "float32"}, {"name": "StatefulPartitionedCall/StatefulPartitionedCall/model/rrdb_net/sequential/rrdb_4/rdb_13/concat_3/axis", "shape": [], "dtype": "int32"}, {"name": "StatefulPartitionedCall/StatefulPartitionedCall/model/rrdb_net/sequential/rrdb_4/rdb_13/conv2d_78/Conv2D/ReadVariableOp", "shape": [3, 3, 160, 32], "dtype": "float32"}, {"name": "StatefulPartitionedCall/StatefulPartitionedCall/model/rrdb_net/sequential/rrdb_4/rdb_13/conv2d_78/BiasAdd/ReadVariableOp", "shape": [32], "dtype": "float32"}, {"name": "StatefulPartitionedCall/StatefulPartitionedCall/model/rrdb_net/sequential/rrdb_4/rdb_14/conv2d_79/Conv2D/ReadVariableOp", "shape": [3, 3, 32, 32], "dtype": "float32"}, {"name": "StatefulPartitionedCall/StatefulPartitionedCall/model/rrdb_net/sequential/rrdb_4/rdb_14/conv2d_79/BiasAdd/ReadVariableOp", "shape": [32], "dtype": "float32"}, {"name": "StatefulPartitionedCall/StatefulPartitionedCall/model/rrdb_net/sequential/rrdb_4/rdb_14/concat/axis", "shape": [], "dtype": "int32"}, {"name": "StatefulPartitionedCall/StatefulPartitionedCall/model/rrdb_net/sequential/rrdb_4/rdb_14/conv2d_80/Conv2D/ReadVariableOp", "shape": [3, 3, 64, 32], "dtype": "float32"}, {"name": "StatefulPartitionedCall/StatefulPartitionedCall/model/rrdb_net/sequential/rrdb_4/rdb_14/conv2d_80/BiasAdd/ReadVariableOp", "shape": [32], "dtype": "float32"}, {"name": "StatefulPartitionedCall/StatefulPartitionedCall/model/rrdb_net/sequential/rrdb_4/rdb_14/concat_1/axis", "shape": [], "dtype": "int32"}, {"name": "StatefulPartitionedCall/StatefulPartitionedCall/model/rrdb_net/sequential/rrdb_4/rdb_14/conv2d_81/Conv2D/ReadVariableOp", "shape": [3, 3, 96, 32], "dtype": "float32"}, {"name": "StatefulPartitionedCall/StatefulPartitionedCall/model/rrdb_net/sequential/rrdb_4/rdb_14/conv2d_81/BiasAdd/ReadVariableOp", "shape": [32], "dtype": "float32"}, {"name": "StatefulPartitionedCall/StatefulPartitionedCall/model/rrdb_net/sequential/rrdb_4/rdb_14/concat_2/axis", "shape": [], "dtype": "int32"}, {"name": "StatefulPartitionedCall/StatefulPartitionedCall/model/rrdb_net/sequential/rrdb_4/rdb_14/conv2d_82/Conv2D/ReadVariableOp", "shape": [3, 3, 128, 32], "dtype": "float32"}, {"name": "StatefulPartitionedCall/StatefulPartitionedCall/model/rrdb_net/sequential/rrdb_4/rdb_14/conv2d_82/BiasAdd/ReadVariableOp", "shape": [32], "dtype": "float32"}, {"name": "StatefulPartitionedCall/StatefulPartitionedCall/model/rrdb_net/sequential/rrdb_4/rdb_14/concat_3/axis", "shape": [], "dtype": "int32"}, {"name": "StatefulPartitionedCall/StatefulPartitionedCall/model/rrdb_net/sequential/rrdb_4/rdb_14/conv2d_83/Conv2D/ReadVariableOp", "shape": [3, 3, 160, 32], "dtype": "float32"}, {"name": "StatefulPartitionedCall/StatefulPartitionedCall/model/rrdb_net/sequential/rrdb_4/rdb_14/conv2d_83/BiasAdd/ReadVariableOp", "shape": [32], "dtype": "float32"}, {"name": "StatefulPartitionedCall/StatefulPartitionedCall/model/rrdb_net/sequential/rrdb_5/rdb_15/conv2d_84/Conv2D/ReadVariableOp", "shape": [3, 3, 32, 32], "dtype": "float32"}, {"name": "StatefulPartitionedCall/StatefulPartitionedCall/model/rrdb_net/sequential/rrdb_5/rdb_15/conv2d_84/BiasAdd/ReadVariableOp", "shape": [32], "dtype": "float32"}, {"name": "StatefulPartitionedCall/StatefulPartitionedCall/model/rrdb_net/sequential/rrdb_5/rdb_15/concat/axis", "shape": [], "dtype": "int32"}, {"name": "StatefulPartitionedCall/StatefulPartitionedCall/model/rrdb_net/sequential/rrdb_5/rdb_15/conv2d_85/Conv2D/ReadVariableOp", "shape": [3, 3, 64, 32], "dtype": "float32"}, {"name": "StatefulPartitionedCall/StatefulPartitionedCall/model/rrdb_net/sequential/rrdb_5/rdb_15/conv2d_85/BiasAdd/ReadVariableOp", "shape": [32], "dtype": "float32"}, {"name": "StatefulPartitionedCall/StatefulPartitionedCall/model/rrdb_net/sequential/rrdb_5/rdb_15/concat_1/axis", "shape": [], "dtype": "int32"}, {"name": "StatefulPartitionedCall/StatefulPartitionedCall/model/rrdb_net/sequential/rrdb_5/rdb_15/conv2d_86/Conv2D/ReadVariableOp", "shape": [3, 3, 96, 32], "dtype": "float32"}, {"name": "StatefulPartitionedCall/StatefulPartitionedCall/model/rrdb_net/sequential/rrdb_5/rdb_15/conv2d_86/BiasAdd/ReadVariableOp", "shape": [32], "dtype": "float32"}, {"name": "StatefulPartitionedCall/StatefulPartitionedCall/model/rrdb_net/sequential/rrdb_5/rdb_15/concat_2/axis", "shape": [], "dtype": "int32"}, {"name": "StatefulPartitionedCall/StatefulPartitionedCall/model/rrdb_net/sequential/rrdb_5/rdb_15/conv2d_87/Conv2D/ReadVariableOp", "shape": [3, 3, 128, 32], "dtype": "float32"}, {"name": "StatefulPartitionedCall/StatefulPartitionedCall/model/rrdb_net/sequential/rrdb_5/rdb_15/conv2d_87/BiasAdd/ReadVariableOp", "shape": [32], "dtype": "float32"}, {"name": "StatefulPartitionedCall/StatefulPartitionedCall/model/rrdb_net/sequential/rrdb_5/rdb_15/concat_3/axis", "shape": [], "dtype": "int32"}, {"name": "StatefulPartitionedCall/StatefulPartitionedCall/model/rrdb_net/sequential/rrdb_5/rdb_15/conv2d_88/Conv2D/ReadVariableOp", "shape": [3, 3, 160, 32], "dtype": "float32"}, {"name": "StatefulPartitionedCall/StatefulPartitionedCall/model/rrdb_net/sequential/rrdb_5/rdb_15/conv2d_88/BiasAdd/ReadVariableOp", "shape": [32], "dtype": "float32"}, {"name": "StatefulPartitionedCall/StatefulPartitionedCall/model/rrdb_net/sequential/rrdb_5/rdb_16/conv2d_89/Conv2D/ReadVariableOp", "shape": [3, 3, 32, 32], "dtype": "float32"}, {"name": "StatefulPartitionedCall/StatefulPartitionedCall/model/rrdb_net/sequential/rrdb_5/rdb_16/conv2d_89/BiasAdd/ReadVariableOp", "shape": [32], "dtype": "float32"}, {"name": "StatefulPartitionedCall/StatefulPartitionedCall/model/rrdb_net/sequential/rrdb_5/rdb_16/concat/axis", "shape": [], "dtype": "int32"}, {"name": "StatefulPartitionedCall/StatefulPartitionedCall/model/rrdb_net/sequential/rrdb_5/rdb_16/conv2d_90/Conv2D/ReadVariableOp", "shape": [3, 3, 64, 32], "dtype": "float32"}, {"name": "StatefulPartitionedCall/StatefulPartitionedCall/model/rrdb_net/sequential/rrdb_5/rdb_16/conv2d_90/BiasAdd/ReadVariableOp", "shape": [32], "dtype": "float32"}, {"name": "StatefulPartitionedCall/StatefulPartitionedCall/model/rrdb_net/sequential/rrdb_5/rdb_16/concat_1/axis", "shape": [], "dtype": "int32"}, {"name": "StatefulPartitionedCall/StatefulPartitionedCall/model/rrdb_net/sequential/rrdb_5/rdb_16/conv2d_91/Conv2D/ReadVariableOp", "shape": [3, 3, 96, 32], "dtype": "float32"}, {"name": "StatefulPartitionedCall/StatefulPartitionedCall/model/rrdb_net/sequential/rrdb_5/rdb_16/conv2d_91/BiasAdd/ReadVariableOp", "shape": [32], "dtype": "float32"}, {"name": "StatefulPartitionedCall/StatefulPartitionedCall/model/rrdb_net/sequential/rrdb_5/rdb_16/concat_2/axis", "shape": [], "dtype": "int32"}, {"name": "StatefulPartitionedCall/StatefulPartitionedCall/model/rrdb_net/sequential/rrdb_5/rdb_16/conv2d_92/Conv2D/ReadVariableOp", "shape": [3, 3, 128, 32], "dtype": "float32"}, {"name": "StatefulPartitionedCall/StatefulPartitionedCall/model/rrdb_net/sequential/rrdb_5/rdb_16/conv2d_92/BiasAdd/ReadVariableOp", "shape": [32], "dtype": "float32"}, {"name": "StatefulPartitionedCall/StatefulPartitionedCall/model/rrdb_net/sequential/rrdb_5/rdb_16/concat_3/axis", "shape": [], "dtype": "int32"}, {"name": "StatefulPartitionedCall/StatefulPartitionedCall/model/rrdb_net/sequential/rrdb_5/rdb_16/conv2d_93/Conv2D/ReadVariableOp", "shape": [3, 3, 160, 32], "dtype": "float32"}, {"name": "StatefulPartitionedCall/StatefulPartitionedCall/model/rrdb_net/sequential/rrdb_5/rdb_16/conv2d_93/BiasAdd/ReadVariableOp", "shape": [32], "dtype": "float32"}, {"name": "StatefulPartitionedCall/StatefulPartitionedCall/model/rrdb_net/sequential/rrdb_5/rdb_17/conv2d_94/Conv2D/ReadVariableOp", "shape": [3, 3, 32, 32], "dtype": "float32"}, {"name": "StatefulPartitionedCall/StatefulPartitionedCall/model/rrdb_net/sequential/rrdb_5/rdb_17/conv2d_94/BiasAdd/ReadVariableOp", "shape": [32], "dtype": "float32"}, {"name": "StatefulPartitionedCall/StatefulPartitionedCall/model/rrdb_net/sequential/rrdb_5/rdb_17/concat/axis", "shape": [], "dtype": "int32"}, {"name": "StatefulPartitionedCall/StatefulPartitionedCall/model/rrdb_net/sequential/rrdb_5/rdb_17/conv2d_95/Conv2D/ReadVariableOp", "shape": [3, 3, 64, 32], "dtype": "float32"}, {"name": "StatefulPartitionedCall/StatefulPartitionedCall/model/rrdb_net/sequential/rrdb_5/rdb_17/conv2d_95/BiasAdd/ReadVariableOp", "shape": [32], "dtype": "float32"}, {"name": "StatefulPartitionedCall/StatefulPartitionedCall/model/rrdb_net/sequential/rrdb_5/rdb_17/concat_1/axis", "shape": [], "dtype": "int32"}, {"name": "StatefulPartitionedCall/StatefulPartitionedCall/model/rrdb_net/sequential/rrdb_5/rdb_17/conv2d_96/Conv2D/ReadVariableOp", "shape": [3, 3, 96, 32], "dtype": "float32"}, {"name": "StatefulPartitionedCall/StatefulPartitionedCall/model/rrdb_net/sequential/rrdb_5/rdb_17/conv2d_96/BiasAdd/ReadVariableOp", "shape": [32], "dtype": "float32"}, {"name": "StatefulPartitionedCall/StatefulPartitionedCall/model/rrdb_net/sequential/rrdb_5/rdb_17/concat_2/axis", "shape": [], "dtype": "int32"}, {"name": "StatefulPartitionedCall/StatefulPartitionedCall/model/rrdb_net/sequential/rrdb_5/rdb_17/conv2d_97/Conv2D/ReadVariableOp", "shape": [3, 3, 128, 32], "dtype": "float32"}, {"name": "StatefulPartitionedCall/StatefulPartitionedCall/model/rrdb_net/sequential/rrdb_5/rdb_17/conv2d_97/BiasAdd/ReadVariableOp", "shape": [32], "dtype": "float32"}, {"name": "StatefulPartitionedCall/StatefulPartitionedCall/model/rrdb_net/sequential/rrdb_5/rdb_17/concat_3/axis", "shape": [], "dtype": "int32"}, {"name": "StatefulPartitionedCall/StatefulPartitionedCall/model/rrdb_net/sequential/rrdb_5/rdb_17/conv2d_98/Conv2D/ReadVariableOp", "shape": [3, 3, 160, 32], "dtype": "float32"}, {"name": "StatefulPartitionedCall/StatefulPartitionedCall/model/rrdb_net/sequential/rrdb_5/rdb_17/conv2d_98/BiasAdd/ReadVariableOp", "shape": [32], "dtype": "float32"}, {"name": "StatefulPartitionedCall/StatefulPartitionedCall/model/rrdb_net/sequential/rrdb_6/rdb_18/conv2d_99/Conv2D/ReadVariableOp", "shape": [3, 3, 32, 32], "dtype": "float32"}, {"name": "StatefulPartitionedCall/StatefulPartitionedCall/model/rrdb_net/sequential/rrdb_6/rdb_18/conv2d_99/BiasAdd/ReadVariableOp", "shape": [32], "dtype": "float32"}, {"name": "StatefulPartitionedCall/StatefulPartitionedCall/model/rrdb_net/sequential/rrdb_6/rdb_18/concat/axis", "shape": [], "dtype": "int32"}, {"name": "StatefulPartitionedCall/StatefulPartitionedCall/model/rrdb_net/sequential/rrdb_6/rdb_18/conv2d_100/Conv2D/ReadVariableOp", "shape": [3, 3, 64, 32], "dtype": "float32"}, {"name": "StatefulPartitionedCall/StatefulPartitionedCall/model/rrdb_net/sequential/rrdb_6/rdb_18/conv2d_100/BiasAdd/ReadVariableOp", "shape": [32], "dtype": "float32"}, {"name": "StatefulPartitionedCall/StatefulPartitionedCall/model/rrdb_net/sequential/rrdb_6/rdb_18/concat_1/axis", "shape": [], "dtype": "int32"}, {"name": "StatefulPartitionedCall/StatefulPartitionedCall/model/rrdb_net/sequential/rrdb_6/rdb_18/conv2d_101/Conv2D/ReadVariableOp", "shape": [3, 3, 96, 32], "dtype": "float32"}, {"name": "StatefulPartitionedCall/StatefulPartitionedCall/model/rrdb_net/sequential/rrdb_6/rdb_18/conv2d_101/BiasAdd/ReadVariableOp", "shape": [32], "dtype": "float32"}, {"name": "StatefulPartitionedCall/StatefulPartitionedCall/model/rrdb_net/sequential/rrdb_6/rdb_18/concat_2/axis", "shape": [], "dtype": "int32"}, {"name": "StatefulPartitionedCall/StatefulPartitionedCall/model/rrdb_net/sequential/rrdb_6/rdb_18/conv2d_102/Conv2D/ReadVariableOp", "shape": [3, 3, 128, 32], "dtype": "float32"}, {"name": "StatefulPartitionedCall/StatefulPartitionedCall/model/rrdb_net/sequential/rrdb_6/rdb_18/conv2d_102/BiasAdd/ReadVariableOp", "shape": [32], "dtype": "float32"}, {"name": "StatefulPartitionedCall/StatefulPartitionedCall/model/rrdb_net/sequential/rrdb_6/rdb_18/concat_3/axis", "shape": [], "dtype": "int32"}, {"name": "StatefulPartitionedCall/StatefulPartitionedCall/model/rrdb_net/sequential/rrdb_6/rdb_18/conv2d_103/Conv2D/ReadVariableOp", "shape": [3, 3, 160, 32], "dtype": "float32"}, {"name": "StatefulPartitionedCall/StatefulPartitionedCall/model/rrdb_net/sequential/rrdb_6/rdb_18/conv2d_103/BiasAdd/ReadVariableOp", "shape": [32], "dtype": "float32"}, {"name": "StatefulPartitionedCall/StatefulPartitionedCall/model/rrdb_net/sequential/rrdb_6/rdb_19/conv2d_104/Conv2D/ReadVariableOp", "shape": [3, 3, 32, 32], "dtype": "float32"}, {"name": "StatefulPartitionedCall/StatefulPartitionedCall/model/rrdb_net/sequential/rrdb_6/rdb_19/conv2d_104/BiasAdd/ReadVariableOp", "shape": [32], "dtype": "float32"}, {"name": "StatefulPartitionedCall/StatefulPartitionedCall/model/rrdb_net/sequential/rrdb_6/rdb_19/concat/axis", "shape": [], "dtype": "int32"}, {"name": "StatefulPartitionedCall/StatefulPartitionedCall/model/rrdb_net/sequential/rrdb_6/rdb_19/conv2d_105/Conv2D/ReadVariableOp", "shape": [3, 3, 64, 32], "dtype": "float32"}, {"name": "StatefulPartitionedCall/StatefulPartitionedCall/model/rrdb_net/sequential/rrdb_6/rdb_19/conv2d_105/BiasAdd/ReadVariableOp", "shape": [32], "dtype": "float32"}, {"name": "StatefulPartitionedCall/StatefulPartitionedCall/model/rrdb_net/sequential/rrdb_6/rdb_19/concat_1/axis", "shape": [], "dtype": "int32"}, {"name": "StatefulPartitionedCall/StatefulPartitionedCall/model/rrdb_net/sequential/rrdb_6/rdb_19/conv2d_106/Conv2D/ReadVariableOp", "shape": [3, 3, 96, 32], "dtype": "float32"}, {"name": "StatefulPartitionedCall/StatefulPartitionedCall/model/rrdb_net/sequential/rrdb_6/rdb_19/conv2d_106/BiasAdd/ReadVariableOp", "shape": [32], "dtype": "float32"}, {"name": "StatefulPartitionedCall/StatefulPartitionedCall/model/rrdb_net/sequential/rrdb_6/rdb_19/concat_2/axis", "shape": [], "dtype": "int32"}, {"name": "StatefulPartitionedCall/StatefulPartitionedCall/model/rrdb_net/sequential/rrdb_6/rdb_19/conv2d_107/Conv2D/ReadVariableOp", "shape": [3, 3, 128, 32], "dtype": "float32"}, {"name": "StatefulPartitionedCall/StatefulPartitionedCall/model/rrdb_net/sequential/rrdb_6/rdb_19/conv2d_107/BiasAdd/ReadVariableOp", "shape": [32], "dtype": "float32"}, {"name": "StatefulPartitionedCall/StatefulPartitionedCall/model/rrdb_net/sequential/rrdb_6/rdb_19/concat_3/axis", "shape": [], "dtype": "int32"}, {"name": "StatefulPartitionedCall/StatefulPartitionedCall/model/rrdb_net/sequential/rrdb_6/rdb_19/conv2d_108/Conv2D/ReadVariableOp", "shape": [3, 3, 160, 32], "dtype": "float32"}, {"name": "StatefulPartitionedCall/StatefulPartitionedCall/model/rrdb_net/sequential/rrdb_6/rdb_19/conv2d_108/BiasAdd/ReadVariableOp", "shape": [32], "dtype": "float32"}, {"name": "StatefulPartitionedCall/StatefulPartitionedCall/model/rrdb_net/sequential/rrdb_6/rdb_20/conv2d_109/Conv2D/ReadVariableOp", "shape": [3, 3, 32, 32], "dtype": "float32"}, {"name": "StatefulPartitionedCall/StatefulPartitionedCall/model/rrdb_net/sequential/rrdb_6/rdb_20/conv2d_109/BiasAdd/ReadVariableOp", "shape": [32], "dtype": "float32"}, {"name": "StatefulPartitionedCall/StatefulPartitionedCall/model/rrdb_net/sequential/rrdb_6/rdb_20/concat/axis", "shape": [], "dtype": "int32"}, {"name": "StatefulPartitionedCall/StatefulPartitionedCall/model/rrdb_net/sequential/rrdb_6/rdb_20/conv2d_110/Conv2D/ReadVariableOp", "shape": [3, 3, 64, 32], "dtype": "float32"}, {"name": "StatefulPartitionedCall/StatefulPartitionedCall/model/rrdb_net/sequential/rrdb_6/rdb_20/conv2d_110/BiasAdd/ReadVariableOp", "shape": [32], "dtype": "float32"}, {"name": "StatefulPartitionedCall/StatefulPartitionedCall/model/rrdb_net/sequential/rrdb_6/rdb_20/concat_1/axis", "shape": [], "dtype": "int32"}, {"name": "StatefulPartitionedCall/StatefulPartitionedCall/model/rrdb_net/sequential/rrdb_6/rdb_20/conv2d_111/Conv2D/ReadVariableOp", "shape": [3, 3, 96, 32], "dtype": "float32"}, {"name": "StatefulPartitionedCall/StatefulPartitionedCall/model/rrdb_net/sequential/rrdb_6/rdb_20/conv2d_111/BiasAdd/ReadVariableOp", "shape": [32], "dtype": "float32"}, {"name": "StatefulPartitionedCall/StatefulPartitionedCall/model/rrdb_net/sequential/rrdb_6/rdb_20/concat_2/axis", "shape": [], "dtype": "int32"}, {"name": "StatefulPartitionedCall/StatefulPartitionedCall/model/rrdb_net/sequential/rrdb_6/rdb_20/conv2d_112/Conv2D/ReadVariableOp", "shape": [3, 3, 128, 32], "dtype": "float32"}, {"name": "StatefulPartitionedCall/StatefulPartitionedCall/model/rrdb_net/sequential/rrdb_6/rdb_20/conv2d_112/BiasAdd/ReadVariableOp", "shape": [32], "dtype": "float32"}, {"name": "StatefulPartitionedCall/StatefulPartitionedCall/model/rrdb_net/sequential/rrdb_6/rdb_20/concat_3/axis", "shape": [], "dtype": "int32"}, {"name": "StatefulPartitionedCall/StatefulPartitionedCall/model/rrdb_net/sequential/rrdb_6/rdb_20/conv2d_113/Conv2D/ReadVariableOp", "shape": [3, 3, 160, 32], "dtype": "float32"}, {"name": "StatefulPartitionedCall/StatefulPartitionedCall/model/rrdb_net/sequential/rrdb_6/rdb_20/conv2d_113/BiasAdd/ReadVariableOp", "shape": [32], "dtype": "float32"}, {"name": "StatefulPartitionedCall/StatefulPartitionedCall/model/rrdb_net/sequential/rrdb_7/rdb_21/conv2d_114/Conv2D/ReadVariableOp", "shape": [3, 3, 32, 32], "dtype": "float32"}, {"name": "StatefulPartitionedCall/StatefulPartitionedCall/model/rrdb_net/sequential/rrdb_7/rdb_21/conv2d_114/BiasAdd/ReadVariableOp", "shape": [32], "dtype": "float32"}, {"name": "StatefulPartitionedCall/StatefulPartitionedCall/model/rrdb_net/sequential/rrdb_7/rdb_21/concat/axis", "shape": [], "dtype": "int32"}, {"name": "StatefulPartitionedCall/StatefulPartitionedCall/model/rrdb_net/sequential/rrdb_7/rdb_21/conv2d_115/Conv2D/ReadVariableOp", "shape": [3, 3, 64, 32], "dtype": "float32"}, {"name": "StatefulPartitionedCall/StatefulPartitionedCall/model/rrdb_net/sequential/rrdb_7/rdb_21/conv2d_115/BiasAdd/ReadVariableOp", "shape": [32], "dtype": "float32"}, {"name": "StatefulPartitionedCall/StatefulPartitionedCall/model/rrdb_net/sequential/rrdb_7/rdb_21/concat_1/axis", "shape": [], "dtype": "int32"}, {"name": "StatefulPartitionedCall/StatefulPartitionedCall/model/rrdb_net/sequential/rrdb_7/rdb_21/conv2d_116/Conv2D/ReadVariableOp", "shape": [3, 3, 96, 32], "dtype": "float32"}, {"name": "StatefulPartitionedCall/StatefulPartitionedCall/model/rrdb_net/sequential/rrdb_7/rdb_21/conv2d_116/BiasAdd/ReadVariableOp", "shape": [32], "dtype": "float32"}, {"name": "StatefulPartitionedCall/StatefulPartitionedCall/model/rrdb_net/sequential/rrdb_7/rdb_21/concat_2/axis", "shape": [], "dtype": "int32"}, {"name": "StatefulPartitionedCall/StatefulPartitionedCall/model/rrdb_net/sequential/rrdb_7/rdb_21/conv2d_117/Conv2D/ReadVariableOp", "shape": [3, 3, 128, 32], "dtype": "float32"}, {"name": "StatefulPartitionedCall/StatefulPartitionedCall/model/rrdb_net/sequential/rrdb_7/rdb_21/conv2d_117/BiasAdd/ReadVariableOp", "shape": [32], "dtype": "float32"}, {"name": "StatefulPartitionedCall/StatefulPartitionedCall/model/rrdb_net/sequential/rrdb_7/rdb_21/concat_3/axis", "shape": [], "dtype": "int32"}, {"name": "StatefulPartitionedCall/StatefulPartitionedCall/model/rrdb_net/sequential/rrdb_7/rdb_21/conv2d_118/Conv2D/ReadVariableOp", "shape": [3, 3, 160, 32], "dtype": "float32"}, {"name": "StatefulPartitionedCall/StatefulPartitionedCall/model/rrdb_net/sequential/rrdb_7/rdb_21/conv2d_118/BiasAdd/ReadVariableOp", "shape": [32], "dtype": "float32"}, {"name": "StatefulPartitionedCall/StatefulPartitionedCall/model/rrdb_net/sequential/rrdb_7/rdb_22/conv2d_119/Conv2D/ReadVariableOp", "shape": [3, 3, 32, 32], "dtype": "float32"}, {"name": "StatefulPartitionedCall/StatefulPartitionedCall/model/rrdb_net/sequential/rrdb_7/rdb_22/conv2d_119/BiasAdd/ReadVariableOp", "shape": [32], "dtype": "float32"}, {"name": "StatefulPartitionedCall/StatefulPartitionedCall/model/rrdb_net/sequential/rrdb_7/rdb_22/concat/axis", "shape": [], "dtype": "int32"}, {"name": "StatefulPartitionedCall/StatefulPartitionedCall/model/rrdb_net/sequential/rrdb_7/rdb_22/conv2d_120/Conv2D/ReadVariableOp", "shape": [3, 3, 64, 32], "dtype": "float32"}, {"name": "StatefulPartitionedCall/StatefulPartitionedCall/model/rrdb_net/sequential/rrdb_7/rdb_22/conv2d_120/BiasAdd/ReadVariableOp", "shape": [32], "dtype": "float32"}, {"name": "StatefulPartitionedCall/StatefulPartitionedCall/model/rrdb_net/sequential/rrdb_7/rdb_22/concat_1/axis", "shape": [], "dtype": "int32"}, {"name": "StatefulPartitionedCall/StatefulPartitionedCall/model/rrdb_net/sequential/rrdb_7/rdb_22/conv2d_121/Conv2D/ReadVariableOp", "shape": [3, 3, 96, 32], "dtype": "float32"}, {"name": "StatefulPartitionedCall/StatefulPartitionedCall/model/rrdb_net/sequential/rrdb_7/rdb_22/conv2d_121/BiasAdd/ReadVariableOp", "shape": [32], "dtype": "float32"}, {"name": "StatefulPartitionedCall/StatefulPartitionedCall/model/rrdb_net/sequential/rrdb_7/rdb_22/concat_2/axis", "shape": [], "dtype": "int32"}, {"name": "StatefulPartitionedCall/StatefulPartitionedCall/model/rrdb_net/sequential/rrdb_7/rdb_22/conv2d_122/Conv2D/ReadVariableOp", "shape": [3, 3, 128, 32], "dtype": "float32"}, {"name": "StatefulPartitionedCall/StatefulPartitionedCall/model/rrdb_net/sequential/rrdb_7/rdb_22/conv2d_122/BiasAdd/ReadVariableOp", "shape": [32], "dtype": "float32"}, {"name": "StatefulPartitionedCall/StatefulPartitionedCall/model/rrdb_net/sequential/rrdb_7/rdb_22/concat_3/axis", "shape": [], "dtype": "int32"}, {"name": "StatefulPartitionedCall/StatefulPartitionedCall/model/rrdb_net/sequential/rrdb_7/rdb_22/conv2d_123/Conv2D/ReadVariableOp", "shape": [3, 3, 160, 32], "dtype": "float32"}, {"name": "StatefulPartitionedCall/StatefulPartitionedCall/model/rrdb_net/sequential/rrdb_7/rdb_22/conv2d_123/BiasAdd/ReadVariableOp", "shape": [32], "dtype": "float32"}, {"name": "StatefulPartitionedCall/StatefulPartitionedCall/model/rrdb_net/sequential/rrdb_7/rdb_23/conv2d_124/Conv2D/ReadVariableOp", "shape": [3, 3, 32, 32], "dtype": "float32"}, {"name": "StatefulPartitionedCall/StatefulPartitionedCall/model/rrdb_net/sequential/rrdb_7/rdb_23/conv2d_124/BiasAdd/ReadVariableOp", "shape": [32], "dtype": "float32"}, {"name": "StatefulPartitionedCall/StatefulPartitionedCall/model/rrdb_net/sequential/rrdb_7/rdb_23/concat/axis", "shape": [], "dtype": "int32"}, {"name": "StatefulPartitionedCall/StatefulPartitionedCall/model/rrdb_net/sequential/rrdb_7/rdb_23/conv2d_125/Conv2D/ReadVariableOp", "shape": [3, 3, 64, 32], "dtype": "float32"}, {"name": "StatefulPartitionedCall/StatefulPartitionedCall/model/rrdb_net/sequential/rrdb_7/rdb_23/conv2d_125/BiasAdd/ReadVariableOp", "shape": [32], "dtype": "float32"}, {"name": "StatefulPartitionedCall/StatefulPartitionedCall/model/rrdb_net/sequential/rrdb_7/rdb_23/concat_1/axis", "shape": [], "dtype": "int32"}, {"name": "StatefulPartitionedCall/StatefulPartitionedCall/model/rrdb_net/sequential/rrdb_7/rdb_23/conv2d_126/Conv2D/ReadVariableOp", "shape": [3, 3, 96, 32], "dtype": "float32"}, {"name": "StatefulPartitionedCall/StatefulPartitionedCall/model/rrdb_net/sequential/rrdb_7/rdb_23/conv2d_126/BiasAdd/ReadVariableOp", "shape": [32], "dtype": "float32"}, {"name": "StatefulPartitionedCall/StatefulPartitionedCall/model/rrdb_net/sequential/rrdb_7/rdb_23/concat_2/axis", "shape": [], "dtype": "int32"}, {"name": "StatefulPartitionedCall/StatefulPartitionedCall/model/rrdb_net/sequential/rrdb_7/rdb_23/conv2d_127/Conv2D/ReadVariableOp", "shape": [3, 3, 128, 32], "dtype": "float32"}, {"name": "StatefulPartitionedCall/StatefulPartitionedCall/model/rrdb_net/sequential/rrdb_7/rdb_23/conv2d_127/BiasAdd/ReadVariableOp", "shape": [32], "dtype": "float32"}, {"name": "StatefulPartitionedCall/StatefulPartitionedCall/model/rrdb_net/sequential/rrdb_7/rdb_23/concat_3/axis", "shape": [], "dtype": "int32"}, {"name": "StatefulPartitionedCall/StatefulPartitionedCall/model/rrdb_net/sequential/rrdb_7/rdb_23/conv2d_128/Conv2D/ReadVariableOp", "shape": [3, 3, 160, 32], "dtype": "float32"}, {"name": "StatefulPartitionedCall/StatefulPartitionedCall/model/rrdb_net/sequential/rrdb_7/rdb_23/conv2d_128/BiasAdd/ReadVariableOp", "shape": [32], "dtype": "float32"}, {"name": "StatefulPartitionedCall/StatefulPartitionedCall/model/rrdb_net/sequential/rrdb_8/rdb_24/conv2d_129/Conv2D/ReadVariableOp", "shape": [3, 3, 32, 32], "dtype": "float32"}, {"name": "StatefulPartitionedCall/StatefulPartitionedCall/model/rrdb_net/sequential/rrdb_8/rdb_24/conv2d_129/BiasAdd/ReadVariableOp", "shape": [32], "dtype": "float32"}, {"name": "StatefulPartitionedCall/StatefulPartitionedCall/model/rrdb_net/sequential/rrdb_8/rdb_24/concat/axis", "shape": [], "dtype": "int32"}, {"name": "StatefulPartitionedCall/StatefulPartitionedCall/model/rrdb_net/sequential/rrdb_8/rdb_24/conv2d_130/Conv2D/ReadVariableOp", "shape": [3, 3, 64, 32], "dtype": "float32"}, {"name": "StatefulPartitionedCall/StatefulPartitionedCall/model/rrdb_net/sequential/rrdb_8/rdb_24/conv2d_130/BiasAdd/ReadVariableOp", "shape": [32], "dtype": "float32"}, {"name": "StatefulPartitionedCall/StatefulPartitionedCall/model/rrdb_net/sequential/rrdb_8/rdb_24/concat_1/axis", "shape": [], "dtype": "int32"}, {"name": "StatefulPartitionedCall/StatefulPartitionedCall/model/rrdb_net/sequential/rrdb_8/rdb_24/conv2d_131/Conv2D/ReadVariableOp", "shape": [3, 3, 96, 32], "dtype": "float32"}, {"name": "StatefulPartitionedCall/StatefulPartitionedCall/model/rrdb_net/sequential/rrdb_8/rdb_24/conv2d_131/BiasAdd/ReadVariableOp", "shape": [32], "dtype": "float32"}, {"name": "StatefulPartitionedCall/StatefulPartitionedCall/model/rrdb_net/sequential/rrdb_8/rdb_24/concat_2/axis", "shape": [], "dtype": "int32"}, {"name": "StatefulPartitionedCall/StatefulPartitionedCall/model/rrdb_net/sequential/rrdb_8/rdb_24/conv2d_132/Conv2D/ReadVariableOp", "shape": [3, 3, 128, 32], "dtype": "float32"}, {"name": "StatefulPartitionedCall/StatefulPartitionedCall/model/rrdb_net/sequential/rrdb_8/rdb_24/conv2d_132/BiasAdd/ReadVariableOp", "shape": [32], "dtype": "float32"}, {"name": "StatefulPartitionedCall/StatefulPartitionedCall/model/rrdb_net/sequential/rrdb_8/rdb_24/concat_3/axis", "shape": [], "dtype": "int32"}, {"name": "StatefulPartitionedCall/StatefulPartitionedCall/model/rrdb_net/sequential/rrdb_8/rdb_24/conv2d_133/Conv2D/ReadVariableOp", "shape": [3, 3, 160, 32], "dtype": "float32"}, {"name": "StatefulPartitionedCall/StatefulPartitionedCall/model/rrdb_net/sequential/rrdb_8/rdb_24/conv2d_133/BiasAdd/ReadVariableOp", "shape": [32], "dtype": "float32"}, {"name": "StatefulPartitionedCall/StatefulPartitionedCall/model/rrdb_net/sequential/rrdb_8/rdb_25/conv2d_134/Conv2D/ReadVariableOp", "shape": [3, 3, 32, 32], "dtype": "float32"}, {"name": "StatefulPartitionedCall/StatefulPartitionedCall/model/rrdb_net/sequential/rrdb_8/rdb_25/conv2d_134/BiasAdd/ReadVariableOp", "shape": [32], "dtype": "float32"}, {"name": "StatefulPartitionedCall/StatefulPartitionedCall/model/rrdb_net/sequential/rrdb_8/rdb_25/concat/axis", "shape": [], "dtype": "int32"}, {"name": "StatefulPartitionedCall/StatefulPartitionedCall/model/rrdb_net/sequential/rrdb_8/rdb_25/conv2d_135/Conv2D/ReadVariableOp", "shape": [3, 3, 64, 32], "dtype": "float32"}, {"name": "StatefulPartitionedCall/StatefulPartitionedCall/model/rrdb_net/sequential/rrdb_8/rdb_25/conv2d_135/BiasAdd/ReadVariableOp", "shape": [32], "dtype": "float32"}, {"name": "StatefulPartitionedCall/StatefulPartitionedCall/model/rrdb_net/sequential/rrdb_8/rdb_25/concat_1/axis", "shape": [], "dtype": "int32"}, {"name": "StatefulPartitionedCall/StatefulPartitionedCall/model/rrdb_net/sequential/rrdb_8/rdb_25/conv2d_136/Conv2D/ReadVariableOp", "shape": [3, 3, 96, 32], "dtype": "float32"}, {"name": "StatefulPartitionedCall/StatefulPartitionedCall/model/rrdb_net/sequential/rrdb_8/rdb_25/conv2d_136/BiasAdd/ReadVariableOp", "shape": [32], "dtype": "float32"}, {"name": "StatefulPartitionedCall/StatefulPartitionedCall/model/rrdb_net/sequential/rrdb_8/rdb_25/concat_2/axis", "shape": [], "dtype": "int32"}, {"name": "StatefulPartitionedCall/StatefulPartitionedCall/model/rrdb_net/sequential/rrdb_8/rdb_25/conv2d_137/Conv2D/ReadVariableOp", "shape": [3, 3, 128, 32], "dtype": "float32"}, {"name": "StatefulPartitionedCall/StatefulPartitionedCall/model/rrdb_net/sequential/rrdb_8/rdb_25/conv2d_137/BiasAdd/ReadVariableOp", "shape": [32], "dtype": "float32"}, {"name": "StatefulPartitionedCall/StatefulPartitionedCall/model/rrdb_net/sequential/rrdb_8/rdb_25/concat_3/axis", "shape": [], "dtype": "int32"}, {"name": "StatefulPartitionedCall/StatefulPartitionedCall/model/rrdb_net/sequential/rrdb_8/rdb_25/conv2d_138/Conv2D/ReadVariableOp", "shape": [3, 3, 160, 32], "dtype": "float32"}, {"name": "StatefulPartitionedCall/StatefulPartitionedCall/model/rrdb_net/sequential/rrdb_8/rdb_25/conv2d_138/BiasAdd/ReadVariableOp", "shape": [32], "dtype": "float32"}, {"name": "StatefulPartitionedCall/StatefulPartitionedCall/model/rrdb_net/sequential/rrdb_8/rdb_26/conv2d_139/Conv2D/ReadVariableOp", "shape": [3, 3, 32, 32], "dtype": "float32"}, {"name": "StatefulPartitionedCall/StatefulPartitionedCall/model/rrdb_net/sequential/rrdb_8/rdb_26/conv2d_139/BiasAdd/ReadVariableOp", "shape": [32], "dtype": "float32"}, {"name": "StatefulPartitionedCall/StatefulPartitionedCall/model/rrdb_net/sequential/rrdb_8/rdb_26/concat/axis", "shape": [], "dtype": "int32"}, {"name": "StatefulPartitionedCall/StatefulPartitionedCall/model/rrdb_net/sequential/rrdb_8/rdb_26/conv2d_140/Conv2D/ReadVariableOp", "shape": [3, 3, 64, 32], "dtype": "float32"}, {"name": "StatefulPartitionedCall/StatefulPartitionedCall/model/rrdb_net/sequential/rrdb_8/rdb_26/conv2d_140/BiasAdd/ReadVariableOp", "shape": [32], "dtype": "float32"}, {"name": "StatefulPartitionedCall/StatefulPartitionedCall/model/rrdb_net/sequential/rrdb_8/rdb_26/concat_1/axis", "shape": [], "dtype": "int32"}, {"name": "StatefulPartitionedCall/StatefulPartitionedCall/model/rrdb_net/sequential/rrdb_8/rdb_26/conv2d_141/Conv2D/ReadVariableOp", "shape": [3, 3, 96, 32], "dtype": "float32"}, {"name": "StatefulPartitionedCall/StatefulPartitionedCall/model/rrdb_net/sequential/rrdb_8/rdb_26/conv2d_141/BiasAdd/ReadVariableOp", "shape": [32], "dtype": "float32"}, {"name": "StatefulPartitionedCall/StatefulPartitionedCall/model/rrdb_net/sequential/rrdb_8/rdb_26/concat_2/axis", "shape": [], "dtype": "int32"}, {"name": "StatefulPartitionedCall/StatefulPartitionedCall/model/rrdb_net/sequential/rrdb_8/rdb_26/conv2d_142/Conv2D/ReadVariableOp", "shape": [3, 3, 128, 32], "dtype": "float32"}, {"name": "StatefulPartitionedCall/StatefulPartitionedCall/model/rrdb_net/sequential/rrdb_8/rdb_26/conv2d_142/BiasAdd/ReadVariableOp", "shape": [32], "dtype": "float32"}, {"name": "StatefulPartitionedCall/StatefulPartitionedCall/model/rrdb_net/sequential/rrdb_8/rdb_26/concat_3/axis", "shape": [], "dtype": "int32"}, {"name": "StatefulPartitionedCall/StatefulPartitionedCall/model/rrdb_net/sequential/rrdb_8/rdb_26/conv2d_143/Conv2D/ReadVariableOp", "shape": [3, 3, 160, 32], "dtype": "float32"}, {"name": "StatefulPartitionedCall/StatefulPartitionedCall/model/rrdb_net/sequential/rrdb_8/rdb_26/conv2d_143/BiasAdd/ReadVariableOp", "shape": [32], "dtype": "float32"}, {"name": "StatefulPartitionedCall/StatefulPartitionedCall/model/rrdb_net/sequential/rrdb_9/rdb_27/conv2d_144/Conv2D/ReadVariableOp", "shape": [3, 3, 32, 32], "dtype": "float32"}, {"name": "StatefulPartitionedCall/StatefulPartitionedCall/model/rrdb_net/sequential/rrdb_9/rdb_27/conv2d_144/BiasAdd/ReadVariableOp", "shape": [32], "dtype": "float32"}, {"name": "StatefulPartitionedCall/StatefulPartitionedCall/model/rrdb_net/sequential/rrdb_9/rdb_27/concat/axis", "shape": [], "dtype": "int32"}, {"name": "StatefulPartitionedCall/StatefulPartitionedCall/model/rrdb_net/sequential/rrdb_9/rdb_27/conv2d_145/Conv2D/ReadVariableOp", "shape": [3, 3, 64, 32], "dtype": "float32"}, {"name": "StatefulPartitionedCall/StatefulPartitionedCall/model/rrdb_net/sequential/rrdb_9/rdb_27/conv2d_145/BiasAdd/ReadVariableOp", "shape": [32], "dtype": "float32"}, {"name": "StatefulPartitionedCall/StatefulPartitionedCall/model/rrdb_net/sequential/rrdb_9/rdb_27/concat_1/axis", "shape": [], "dtype": "int32"}, {"name": "StatefulPartitionedCall/StatefulPartitionedCall/model/rrdb_net/sequential/rrdb_9/rdb_27/conv2d_146/Conv2D/ReadVariableOp", "shape": [3, 3, 96, 32], "dtype": "float32"}, {"name": "StatefulPartitionedCall/StatefulPartitionedCall/model/rrdb_net/sequential/rrdb_9/rdb_27/conv2d_146/BiasAdd/ReadVariableOp", "shape": [32], "dtype": "float32"}, {"name": "StatefulPartitionedCall/StatefulPartitionedCall/model/rrdb_net/sequential/rrdb_9/rdb_27/concat_2/axis", "shape": [], "dtype": "int32"}, {"name": "StatefulPartitionedCall/StatefulPartitionedCall/model/rrdb_net/sequential/rrdb_9/rdb_27/conv2d_147/Conv2D/ReadVariableOp", "shape": [3, 3, 128, 32], "dtype": "float32"}, {"name": "StatefulPartitionedCall/StatefulPartitionedCall/model/rrdb_net/sequential/rrdb_9/rdb_27/conv2d_147/BiasAdd/ReadVariableOp", "shape": [32], "dtype": "float32"}, {"name": "StatefulPartitionedCall/StatefulPartitionedCall/model/rrdb_net/sequential/rrdb_9/rdb_27/concat_3/axis", "shape": [], "dtype": "int32"}, {"name": "StatefulPartitionedCall/StatefulPartitionedCall/model/rrdb_net/sequential/rrdb_9/rdb_27/conv2d_148/Conv2D/ReadVariableOp", "shape": [3, 3, 160, 32], "dtype": "float32"}, {"name": "StatefulPartitionedCall/StatefulPartitionedCall/model/rrdb_net/sequential/rrdb_9/rdb_27/conv2d_148/BiasAdd/ReadVariableOp", "shape": [32], "dtype": "float32"}, {"name": "StatefulPartitionedCall/StatefulPartitionedCall/model/rrdb_net/sequential/rrdb_9/rdb_28/conv2d_149/Conv2D/ReadVariableOp", "shape": [3, 3, 32, 32], "dtype": "float32"}, {"name": "StatefulPartitionedCall/StatefulPartitionedCall/model/rrdb_net/sequential/rrdb_9/rdb_28/conv2d_149/BiasAdd/ReadVariableOp", "shape": [32], "dtype": "float32"}, {"name": "StatefulPartitionedCall/StatefulPartitionedCall/model/rrdb_net/sequential/rrdb_9/rdb_28/concat/axis", "shape": [], "dtype": "int32"}, {"name": "StatefulPartitionedCall/StatefulPartitionedCall/model/rrdb_net/sequential/rrdb_9/rdb_28/conv2d_150/Conv2D/ReadVariableOp", "shape": [3, 3, 64, 32], "dtype": "float32"}, {"name": "StatefulPartitionedCall/StatefulPartitionedCall/model/rrdb_net/sequential/rrdb_9/rdb_28/conv2d_150/BiasAdd/ReadVariableOp", "shape": [32], "dtype": "float32"}, {"name": "StatefulPartitionedCall/StatefulPartitionedCall/model/rrdb_net/sequential/rrdb_9/rdb_28/concat_1/axis", "shape": [], "dtype": "int32"}, {"name": "StatefulPartitionedCall/StatefulPartitionedCall/model/rrdb_net/sequential/rrdb_9/rdb_28/conv2d_151/Conv2D/ReadVariableOp", "shape": [3, 3, 96, 32], "dtype": "float32"}, {"name": "StatefulPartitionedCall/StatefulPartitionedCall/model/rrdb_net/sequential/rrdb_9/rdb_28/conv2d_151/BiasAdd/ReadVariableOp", "shape": [32], "dtype": "float32"}, {"name": "StatefulPartitionedCall/StatefulPartitionedCall/model/rrdb_net/sequential/rrdb_9/rdb_28/concat_2/axis", "shape": [], "dtype": "int32"}, {"name": "StatefulPartitionedCall/StatefulPartitionedCall/model/rrdb_net/sequential/rrdb_9/rdb_28/conv2d_152/Conv2D/ReadVariableOp", "shape": [3, 3, 128, 32], "dtype": "float32"}, {"name": "StatefulPartitionedCall/StatefulPartitionedCall/model/rrdb_net/sequential/rrdb_9/rdb_28/conv2d_152/BiasAdd/ReadVariableOp", "shape": [32], "dtype": "float32"}, {"name": "StatefulPartitionedCall/StatefulPartitionedCall/model/rrdb_net/sequential/rrdb_9/rdb_28/concat_3/axis", "shape": [], "dtype": "int32"}, {"name": "StatefulPartitionedCall/StatefulPartitionedCall/model/rrdb_net/sequential/rrdb_9/rdb_28/conv2d_153/Conv2D/ReadVariableOp", "shape": [3, 3, 160, 32], "dtype": "float32"}, {"name": "StatefulPartitionedCall/StatefulPartitionedCall/model/rrdb_net/sequential/rrdb_9/rdb_28/conv2d_153/BiasAdd/ReadVariableOp", "shape": [32], "dtype": "float32"}, {"name": "StatefulPartitionedCall/StatefulPartitionedCall/model/rrdb_net/sequential/rrdb_9/rdb_29/conv2d_154/Conv2D/ReadVariableOp", "shape": [3, 3, 32, 32], "dtype": "float32"}, {"name": "StatefulPartitionedCall/StatefulPartitionedCall/model/rrdb_net/sequential/rrdb_9/rdb_29/conv2d_154/BiasAdd/ReadVariableOp", "shape": [32], "dtype": "float32"}, {"name": "StatefulPartitionedCall/StatefulPartitionedCall/model/rrdb_net/sequential/rrdb_9/rdb_29/concat/axis", "shape": [], "dtype": "int32"}, {"name": "StatefulPartitionedCall/StatefulPartitionedCall/model/rrdb_net/sequential/rrdb_9/rdb_29/conv2d_155/Conv2D/ReadVariableOp", "shape": [3, 3, 64, 32], "dtype": "float32"}, {"name": "StatefulPartitionedCall/StatefulPartitionedCall/model/rrdb_net/sequential/rrdb_9/rdb_29/conv2d_155/BiasAdd/ReadVariableOp", "shape": [32], "dtype": "float32"}, {"name": "StatefulPartitionedCall/StatefulPartitionedCall/model/rrdb_net/sequential/rrdb_9/rdb_29/concat_1/axis", "shape": [], "dtype": "int32"}, {"name": "StatefulPartitionedCall/StatefulPartitionedCall/model/rrdb_net/sequential/rrdb_9/rdb_29/conv2d_156/Conv2D/ReadVariableOp", "shape": [3, 3, 96, 32], "dtype": "float32"}, {"name": "StatefulPartitionedCall/StatefulPartitionedCall/model/rrdb_net/sequential/rrdb_9/rdb_29/conv2d_156/BiasAdd/ReadVariableOp", "shape": [32], "dtype": "float32"}, {"name": "StatefulPartitionedCall/StatefulPartitionedCall/model/rrdb_net/sequential/rrdb_9/rdb_29/concat_2/axis", "shape": [], "dtype": "int32"}, {"name": "StatefulPartitionedCall/StatefulPartitionedCall/model/rrdb_net/sequential/rrdb_9/rdb_29/conv2d_157/Conv2D/ReadVariableOp", "shape": [3, 3, 128, 32], "dtype": "float32"}, {"name": "StatefulPartitionedCall/StatefulPartitionedCall/model/rrdb_net/sequential/rrdb_9/rdb_29/conv2d_157/BiasAdd/ReadVariableOp", "shape": [32], "dtype": "float32"}, {"name": "StatefulPartitionedCall/StatefulPartitionedCall/model/rrdb_net/sequential/rrdb_9/rdb_29/concat_3/axis", "shape": [], "dtype": "int32"}, {"name": "StatefulPartitionedCall/StatefulPartitionedCall/model/rrdb_net/sequential/rrdb_9/rdb_29/conv2d_158/Conv2D/ReadVariableOp", "shape": [3, 3, 160, 32], "dtype": "float32"}, {"name": "StatefulPartitionedCall/StatefulPartitionedCall/model/rrdb_net/sequential/rrdb_9/rdb_29/conv2d_158/BiasAdd/ReadVariableOp", "shape": [32], "dtype": "float32"}, {"name": "StatefulPartitionedCall/StatefulPartitionedCall/model/rrdb_net/sequential/rrdb_10/rdb_30/conv2d_159/Conv2D/ReadVariableOp", "shape": [3, 3, 32, 32], "dtype": "float32"}, {"name": "StatefulPartitionedCall/StatefulPartitionedCall/model/rrdb_net/sequential/rrdb_10/rdb_30/conv2d_159/BiasAdd/ReadVariableOp", "shape": [32], "dtype": "float32"}, {"name": "StatefulPartitionedCall/StatefulPartitionedCall/model/rrdb_net/sequential/rrdb_10/rdb_30/concat/axis", "shape": [], "dtype": "int32"}, {"name": "StatefulPartitionedCall/StatefulPartitionedCall/model/rrdb_net/sequential/rrdb_10/rdb_30/conv2d_160/Conv2D/ReadVariableOp", "shape": [3, 3, 64, 32], "dtype": "float32"}, {"name": "StatefulPartitionedCall/StatefulPartitionedCall/model/rrdb_net/sequential/rrdb_10/rdb_30/conv2d_160/BiasAdd/ReadVariableOp", "shape": [32], "dtype": "float32"}, {"name": "StatefulPartitionedCall/StatefulPartitionedCall/model/rrdb_net/sequential/rrdb_10/rdb_30/concat_1/axis", "shape": [], "dtype": "int32"}, {"name": "StatefulPartitionedCall/StatefulPartitionedCall/model/rrdb_net/sequential/rrdb_10/rdb_30/conv2d_161/Conv2D/ReadVariableOp", "shape": [3, 3, 96, 32], "dtype": "float32"}, {"name": "StatefulPartitionedCall/StatefulPartitionedCall/model/rrdb_net/sequential/rrdb_10/rdb_30/conv2d_161/BiasAdd/ReadVariableOp", "shape": [32], "dtype": "float32"}, {"name": "StatefulPartitionedCall/StatefulPartitionedCall/model/rrdb_net/sequential/rrdb_10/rdb_30/concat_2/axis", "shape": [], "dtype": "int32"}, {"name": "StatefulPartitionedCall/StatefulPartitionedCall/model/rrdb_net/sequential/rrdb_10/rdb_30/conv2d_162/Conv2D/ReadVariableOp", "shape": [3, 3, 128, 32], "dtype": "float32"}, {"name": "StatefulPartitionedCall/StatefulPartitionedCall/model/rrdb_net/sequential/rrdb_10/rdb_30/conv2d_162/BiasAdd/ReadVariableOp", "shape": [32], "dtype": "float32"}, {"name": "StatefulPartitionedCall/StatefulPartitionedCall/model/rrdb_net/sequential/rrdb_10/rdb_30/concat_3/axis", "shape": [], "dtype": "int32"}, {"name": "StatefulPartitionedCall/StatefulPartitionedCall/model/rrdb_net/sequential/rrdb_10/rdb_30/conv2d_163/Conv2D/ReadVariableOp", "shape": [3, 3, 160, 32], "dtype": "float32"}, {"name": "StatefulPartitionedCall/StatefulPartitionedCall/model/rrdb_net/sequential/rrdb_10/rdb_30/conv2d_163/BiasAdd/ReadVariableOp", "shape": [32], "dtype": "float32"}, {"name": "StatefulPartitionedCall/StatefulPartitionedCall/model/rrdb_net/sequential/rrdb_10/rdb_31/conv2d_164/Conv2D/ReadVariableOp", "shape": [3, 3, 32, 32], "dtype": "float32"}, {"name": "StatefulPartitionedCall/StatefulPartitionedCall/model/rrdb_net/sequential/rrdb_10/rdb_31/conv2d_164/BiasAdd/ReadVariableOp", "shape": [32], "dtype": "float32"}, {"name": "StatefulPartitionedCall/StatefulPartitionedCall/model/rrdb_net/sequential/rrdb_10/rdb_31/concat/axis", "shape": [], "dtype": "int32"}, {"name": "StatefulPartitionedCall/StatefulPartitionedCall/model/rrdb_net/sequential/rrdb_10/rdb_31/conv2d_165/Conv2D/ReadVariableOp", "shape": [3, 3, 64, 32], "dtype": "float32"}, {"name": "StatefulPartitionedCall/StatefulPartitionedCall/model/rrdb_net/sequential/rrdb_10/rdb_31/conv2d_165/BiasAdd/ReadVariableOp", "shape": [32], "dtype": "float32"}, {"name": "StatefulPartitionedCall/StatefulPartitionedCall/model/rrdb_net/sequential/rrdb_10/rdb_31/concat_1/axis", "shape": [], "dtype": "int32"}, {"name": "StatefulPartitionedCall/StatefulPartitionedCall/model/rrdb_net/sequential/rrdb_10/rdb_31/conv2d_166/Conv2D/ReadVariableOp", "shape": [3, 3, 96, 32], "dtype": "float32"}, {"name": "StatefulPartitionedCall/StatefulPartitionedCall/model/rrdb_net/sequential/rrdb_10/rdb_31/conv2d_166/BiasAdd/ReadVariableOp", "shape": [32], "dtype": "float32"}, {"name": "StatefulPartitionedCall/StatefulPartitionedCall/model/rrdb_net/sequential/rrdb_10/rdb_31/concat_2/axis", "shape": [], "dtype": "int32"}, {"name": "StatefulPartitionedCall/StatefulPartitionedCall/model/rrdb_net/sequential/rrdb_10/rdb_31/conv2d_167/Conv2D/ReadVariableOp", "shape": [3, 3, 128, 32], "dtype": "float32"}, {"name": "StatefulPartitionedCall/StatefulPartitionedCall/model/rrdb_net/sequential/rrdb_10/rdb_31/conv2d_167/BiasAdd/ReadVariableOp", "shape": [32], "dtype": "float32"}, {"name": "StatefulPartitionedCall/StatefulPartitionedCall/model/rrdb_net/sequential/rrdb_10/rdb_31/concat_3/axis", "shape": [], "dtype": "int32"}, {"name": "StatefulPartitionedCall/StatefulPartitionedCall/model/rrdb_net/sequential/rrdb_10/rdb_31/conv2d_168/Conv2D/ReadVariableOp", "shape": [3, 3, 160, 32], "dtype": "float32"}, {"name": "StatefulPartitionedCall/StatefulPartitionedCall/model/rrdb_net/sequential/rrdb_10/rdb_31/conv2d_168/BiasAdd/ReadVariableOp", "shape": [32], "dtype": "float32"}, {"name": "StatefulPartitionedCall/StatefulPartitionedCall/model/rrdb_net/sequential/rrdb_10/rdb_32/conv2d_169/Conv2D/ReadVariableOp", "shape": [3, 3, 32, 32], "dtype": "float32"}, {"name": "StatefulPartitionedCall/StatefulPartitionedCall/model/rrdb_net/sequential/rrdb_10/rdb_32/conv2d_169/BiasAdd/ReadVariableOp", "shape": [32], "dtype": "float32"}, {"name": "StatefulPartitionedCall/StatefulPartitionedCall/model/rrdb_net/sequential/rrdb_10/rdb_32/concat/axis", "shape": [], "dtype": "int32"}, {"name": "StatefulPartitionedCall/StatefulPartitionedCall/model/rrdb_net/sequential/rrdb_10/rdb_32/conv2d_170/Conv2D/ReadVariableOp", "shape": [3, 3, 64, 32], "dtype": "float32"}, {"name": "StatefulPartitionedCall/StatefulPartitionedCall/model/rrdb_net/sequential/rrdb_10/rdb_32/conv2d_170/BiasAdd/ReadVariableOp", "shape": [32], "dtype": "float32"}, {"name": "StatefulPartitionedCall/StatefulPartitionedCall/model/rrdb_net/sequential/rrdb_10/rdb_32/concat_1/axis", "shape": [], "dtype": "int32"}, {"name": "StatefulPartitionedCall/StatefulPartitionedCall/model/rrdb_net/sequential/rrdb_10/rdb_32/conv2d_171/Conv2D/ReadVariableOp", "shape": [3, 3, 96, 32], "dtype": "float32"}, {"name": "StatefulPartitionedCall/StatefulPartitionedCall/model/rrdb_net/sequential/rrdb_10/rdb_32/conv2d_171/BiasAdd/ReadVariableOp", "shape": [32], "dtype": "float32"}, {"name": "StatefulPartitionedCall/StatefulPartitionedCall/model/rrdb_net/sequential/rrdb_10/rdb_32/concat_2/axis", "shape": [], "dtype": "int32"}, {"name": "StatefulPartitionedCall/StatefulPartitionedCall/model/rrdb_net/sequential/rrdb_10/rdb_32/conv2d_172/Conv2D/ReadVariableOp", "shape": [3, 3, 128, 32], "dtype": "float32"}, {"name": "StatefulPartitionedCall/StatefulPartitionedCall/model/rrdb_net/sequential/rrdb_10/rdb_32/conv2d_172/BiasAdd/ReadVariableOp", "shape": [32], "dtype": "float32"}, {"name": "StatefulPartitionedCall/StatefulPartitionedCall/model/rrdb_net/sequential/rrdb_10/rdb_32/concat_3/axis", "shape": [], "dtype": "int32"}, {"name": "StatefulPartitionedCall/StatefulPartitionedCall/model/rrdb_net/sequential/rrdb_10/rdb_32/conv2d_173/Conv2D/ReadVariableOp", "shape": [3, 3, 160, 32], "dtype": "float32"}, {"name": "StatefulPartitionedCall/StatefulPartitionedCall/model/rrdb_net/sequential/rrdb_10/rdb_32/conv2d_173/BiasAdd/ReadVariableOp", "shape": [32], "dtype": "float32"}, {"name": "StatefulPartitionedCall/StatefulPartitionedCall/model/rrdb_net/conv2d_174/Conv2D/ReadVariableOp", "shape": [3, 3, 32, 32], "dtype": "float32"}, {"name": "StatefulPartitionedCall/StatefulPartitionedCall/model/rrdb_net/conv2d_174/BiasAdd/ReadVariableOp", "shape": [32], "dtype": "float32"}, {"name": "StatefulPartitionedCall/StatefulPartitionedCall/model/rrdb_net/conv2d_8/Conv2D/ReadVariableOp", "shape": [3, 3, 3, 32], "dtype": "float32"}, {"name": "StatefulPartitionedCall/StatefulPartitionedCall/model/rrdb_net/conv2d_176/BiasAdd/ReadVariableOp", "shape": [3], "dtype": "float32"}, {"name": "StatefulPartitionedCall/StatefulPartitionedCall/model/rrdb_net/conv2d_8/BiasAdd/ReadVariableOp", "shape": [32], "dtype": "float32"}, {"name": "StatefulPartitionedCall/StatefulPartitionedCall/model/rrdb_net/conv2d_transpose/BiasAdd/ReadVariableOp", "shape": [32], "dtype": "float32"}, {"name": "StatefulPartitionedCall/StatefulPartitionedCall/model/rrdb_net/conv2d_transpose_1/BiasAdd/ReadVariableOp", "shape": [32], "dtype": "float32"}, {"name": "StatefulPartitionedCall/StatefulPartitionedCall/model/rrdb_net/conv2d_175/Conv2D/ReadVariableOp", "shape": [3, 3, 32, 32], "dtype": "float32"}, {"name": "StatefulPartitionedCall/StatefulPartitionedCall/model/rrdb_net/conv2d_175/BiasAdd/ReadVariableOp", "shape": [32], "dtype": "float32"}, {"name": "StatefulPartitionedCall/StatefulPartitionedCall/model/rrdb_net/conv2d_176/Conv2D/ReadVariableOp", "shape": [3, 3, 32, 3], "dtype": "float32"}]}]}